tmp_result/dqn.pt (torch, 140623 bytes, 8 tensors)

mlp.0.weight f4 [128, 7]
00000000: 39fd 86bd 4b29 a5bd dbc5 15be 3c1e dcbb
00000010: 9200 94bd 68f8 5b3c 6c5c 0bbe 3e94 4abe
00000020: af9b 483e fbb1 babd 7ea0 b13d 75ba 0a3e
00000030: 008a a63a 66b6 ad3d 8e50 9ebd 9af0 a0bd
00000040: 80f4 213b 669a b4bd 904c 95bc 1128 573e
00000050: 7b51 d1bd 18a3 c1bd 3e47 543e 7b5e 25be
00000060: 3631 3fbe 8784 a83d cd22 25be e4ab 603e
00000070: cfb3 84bb d542 35bb 2aab febd 5b64 443e
00000080: 1244 d93d 716c 3dbd c357 e0bb d55a 3fbe
00000090: 94c2 a1bd c063 ca3c 3e35 96bd 1455 423d
000000a0: 4a39 f43d 6ad1 c73d 8abf 28be cc09 82bd
000000b0: c849 00be 8924 3f3e c255 2fbe c2dc a83d
000000c0: 97f8 383e cb67 c3bd 98a5 7cbd d8fe e3bc
000000d0: d011 61bd 4a35 2dbe 6026 763c eb70 49be
000000e0: e821 ae3c b68f 40be 46f2 ad3d 5ec7 00be
000000f0: 93e2 073e 9096 2bbd 3000 b7bc 6e78 593e
00000100: 506f b8bd 15b4 0bbd 5199 83bc bd67 533d
00000110: 5178 1ebe d981 403c c17f 1dbe 8e9f 6f3e
00000120: f095 073e 9f40 07bb 5a8b 62bd 67bd 883d
00000130: 5977 d7bc fa29 533d 011e a5bd d997 183e
00000140: 6a92 8bbd a10e 01be 6312 00be 0b74 5f3e
00000150: 4c90 5b3d 58cd 0fbe 46a3 943d 8090 27be
00000160: 813c 353e c532 4a3e 43a9 3dbe d9f3 3a3e
00000170: 87cf 0ebe d165 c8bd d8f8 d33c c037 16bc
00000180: ac10 663d c0ac 88bc 1ae5 62be 335c 3f3e
00000190: 44c9 103e 2fd2 0abe 1f78 3cbe 4643 1cbd
000001a0: 32ce 4c3e 8857 0bbd e880 553e 51ca 003d
000001b0: 5759 78bd 9082 9f3d a5a1 2d3e 2da9 d23d
000001c0: 1ade 39bd 99eb 0e3e a10b 033e fbc1 bbbc
000001d0: 9b64 04be 48ba 18be 2129 df3d cc51 3dbe
000001e0: a2eb 2a3c fb5a 2abd ff2d e93d bb88 1a3e
000001f0: ec05 eebd 41d3 57be f205 ec3d b57e 453d
00000200: 8b7f 333e 67f1 173c cdaf 423d 990c 803d
00000210: 6391 5c3e 57e5 4dbe e876 cc3d bb57 f0bc
00000220: 0fd7 9abd 0973 833d 813f 883e f720 813e
00000230: 6e31 3bbd 3bb6 343d a3ea 23bd ec94 4d3e
00000240: 9886 52be 7b6a a0bd 73ec 5d3e 9957 963d
00000250: 63b0 003e ad8f 9d3d 9ea6 ecbd 674d d83d
00000260: 7abb 1cbc 99c8 60be 841a a5bd 6421 4a3d
00000270: c035 09bb 8e9c fa3d 0048 8c3c 0c1a f0bd
00000280: 97b2 0b3e 5200 28be ea32 25be d9ee e5bd
00000290: afc5 373e d3c4 3d3e 20d5 c63c 90e6 0b3d
000002a0: 4755 06be 7843 363e af5e 56bd 8564 cd3d
000002b0: ad48 2dbe 3b5a 683e 5a15 aabd 8fa4 213e
000002c0: 4213 d33d 4456 1abd cce9 2cbd 704e 76bc
000002d0: bb23 423e 5f2e c3bd 4cf2 b2bd f023 7abd
000002e0: f0be 53bc c450 283d d766 2d3e 5c49 32bd
000002f0: 2fd2 1d3e cb71 513e 0de2 abbd aca4 55be
00000300: 31eb 0bbe dc5c 423e 679f 543e 5fc1 f83d
00000310: f016 2f3e 7c06 cfbc 9200 733e 5d95 21be
00000320: 3402 2dbe 3044 38be 13b8 1a3d f68e ecbd
00000330: 1b0e 243e 85b3 263e 56be 2c3e 1d07 f4bc
00000340: 5ace f2bc 2a18 203e a2bc 0bbc 97e1 453d
00000350: 1071 433d 461a 7c3d bd83 ee3d 7abf 543e
00000360: 45f1 c0bd 8080 dfbd 55cc 093e 7b5a b7bd
00000370: c76a 19be 4b8d 553e 8dcf 2a3e c4ce 18bd
00000380: 8c74 573d c6a5 f63d e98b 1d3e 50c3 41be
00000390: ff7a 46be 9a53 0cbe 69bb 143e ae65 853d
000003a0: ee2e a43d eb1f 86bd c88f bf3d c06b 87bd
000003b0: 8c42 883e cbaf 083d 429f 57bd 40b3 063d
000003c0: 509f 2d3e f12d 363e 8265 503e 09c8 c5bc
000003d0: 3a27 c9bd 12c6 11be 6025 8e3c 57e5 d6bd
000003e0: 8b8e 56be ff86 233e 8479 6d3d b0b5 f7bc
000003f0: 175b 063d 2e03 303d 21e5 0f3e 6628 2c3e
-0.06591267 -0.08064517 -0.14626257 -0.0067174714 -0.07226671 0.013425924 -0.13609475 -0.19783112
0.19590639 -0.09115978 0.086731896 0.1354769 0.0012705922 0.08482055 -0.07730208 -0.07858391
0.0024712384 -0.08818512 -0.018224984 0.21011378 -0.10220619 -0.09454936 0.20730302 -0.16149323
-0.18671116 0.082284026 -0.16126557 0.21940571 -0.004049755 -0.0027658243 -0.12434991 0.19178908
0.106086865 -0.046245996 -0.0068463995 -0.18686993 -0.07898441 0.024705768 -0.07334374 0.047444418
0.119249895 0.097567394 -0.16479316 -0.06349525 -0.12528145 0.18666281 -0.17122558 0.08245231
0.1806358 -0.09541281 -0.06168136 -0.02783148 -0.054948628 -0.1691486 0.015023798 -0.19671981
0.021256402 -0.18804821 0.084934756 -0.12576053 0.13270025 -0.041891634 -0.022338957 0.21237347
-0.09005606 -0.034107286 -0.016064318 0.051612604 -0.15475585 0.011749708 -0.15380765 0.23400709
0.1324079 -0.0020637882 -0.055308677 0.06676751 -0.026302027 0.051553704 -0.080623634 0.14901675
-0.06815036 -0.12603237 -0.12507014 0.2182161 0.05360441 -0.14043176 0.072577044 -0.16363716
0.17698862 0.1974593 -0.185216 0.18257083 -0.13946353 -0.09785045 0.025875494 -0.009168565
0.056168243 -0.016683936 -0.22157708 0.18687515 0.14139277 -0.13556741 -0.18405198 -0.038150094
0.20000532 -0.034019023 0.20849955 0.031442944 -0.060632076 0.07788575 0.16956194 0.10286174
-0.04537783 0.13957061 0.12797405 -0.022919646 -0.12929003 -0.1491481 0.108965166 -0.18488234
0.010432156 -0.041590672 0.11385726 0.15091221 -0.11622223 -0.2107668 0.115245715 0.04821654
0.17529123 0.009273863 0.047530938 0.06252403 0.21539836 -0.20107017 0.09983617 -0.029338708
-0.075605504 0.064184256 0.2661095 0.25220463 -0.045701437 0.0441191 -0.04001869 0.2007634
-0.20559156 -0.078328095 0.2167223 0.07340927 0.12567286 0.076934196 -0.11555217 0.10561638
-0.009566182 -0.21951522 -0.08061698 0.04934825 -0.0020936579 0.12236892 0.017124176 -0.11723718
0.13642345 -0.16406372 -0.16132703 -0.11227197 0.17946504 0.18532114 0.024271548 0.03415543
-0.13118468 0.17799175 -0.05233639 0.10028938 -0.16922255 0.2269067 -0.08304854 0.1578543
0.103064075 -0.037679926 -0.042215154 -0.015033349 0.18958943 -0.09530329 -0.08737621 -0.06106943
-0.012923941 0.04109265 0.16933762 -0.043526992 0.1541221 0.20453565 -0.08392725 -0.20863599
-0.13663937 0.18980736 0.20763932 0.121462576 0.17098594 -0.025271647 0.23730686 -0.15779634
-0.16895372 -0.17994761 0.037773203 -0.11550705 0.16021006 0.16279419 0.16869482 -0.029788548
-0.029639412 0.15634218 -0.00852886 0.048310842 0.047715247 0.061548494 0.11646221 0.20776168
-0.094210185 -0.10913181 0.13456853 -0.08952805 -0.14982139 0.2085468 0.16680737 -0.037306562
0.052601382 0.120433375 0.15385403 -0.18922162 -0.19382857 -0.13703766 0.14524616 0.065135345
0.08016764 -0.065490566 0.09353596 -0.066123486 0.2661327 0.033370774 -0.052642114 0.03288579
0.16955304 0.17790963 0.20351222 -0.024143236 -0.09821935 -0.14235714 0.017351806 -0.10492962
-0.20952813 0.15969466 0.057977214 -0.030238003 0.032801714 0.042971782 0.1405225 0.16812286

mlp.0.bias f4 [128]
00000000: f204 7b3e e98f 44be 0424 64be be04 1a3e
00000010: da03 b43e 78ea 56be 04a1 81be 3cf8 b3bd
00000020: 502b abbd 0d8b 96bc 0d5f 6a3e e0d7 d53d
00000030: 55f6 bbbe 3e6f 77be 3cf3 b53e 1a82 b23e
00000040: bc59 433e 90f4 113e 769f f8bd 75df a43e
00000050: 66f4 503e b7d4 513d 9016 a2be 39fd b8be
00000060: a73a a93e 5b2e 89be 6947 b7be a0a6 51be
00000070: 7f4f 8b3c 766b b13e 40a9 0f3e b05f 8ebe
00000080: 3f77 3abe e060 9a3e 95b5 d33d 0084 e1bd
00000090: 0300 89be 4483 b5be 8e50 003e 6c0e eebd
000000a0: 388c 583e b4c3 a03e d8d4 89bd 68de d93d
000000b0: 8ab8 343e f946 953e 951b 483e f469 1b3d
000000c0: 5733 17bd 1a73 88bd 7cc2 0fbe 87ca 9c3d
000000d0: 446c 82be d3d1 f7bd f40d 9c3e b31b 9c3e
000000e0: bb14 9e3d 4bb3 28be 6b0d c83e 04be bbbe
000000f0: ff0a 103e 6920 bbbe df54 b5be d54a 393e
00000100: 5a0b ba3e 8adf 693e f753 7cbc b512 a93e
00000110: 3719 543e 2634 94be 2a74 bfbd 14c7 96bd
00000120: 31a7 843d 417b a53d 7818 ba3e faa0 2a3c
00000130: 8598 7e3e 0042 7fbc 8043 293c 7f32 3ebe
00000140: 97f8 173e cd49 8e3d 6c67 5fbe 9148 15be
00000150: 1080 573e a144 c13d bcb9 bebe d866 9bbe
00000160: 884e ce3e e428 24be 9846 babe 0823 af3e
00000170: 5426 723e bf4e 58be a90e 6cbe fea3 a13e
00000180: 2691 43be ab67 673e 4cbc 873d bcfc c63d
00000190: 9f8c 1f3e ea78 f8bd 71e0 6abe 02ef a4be
000001a0: e3c1 9ebe 6007 3bbc 34cd 743e fcab 21be
000001b0: eedb 863e de39 0e3e bb09 bc3c 2bd9 883e
000001c0: b832 833e 41f7 5e3e ff7e a2bc 1f0a 6abc
000001d0: 23c8 9c3d 2c7f a63e 9d3e e43d a9f7 263e
000001e0: 399d c23d be61 95be 8e26 913e 46a9 92be
000001f0: 32ab 71be 876a 633e 4db0 bf3e a62a f9bd
0.24513605 -0.19195522 -0.22279364 0.15040872 0.35159189 -0.2098788 -0.25318158 -0.08787581
-0.083578706 -0.018376851 0.22887821 0.104415655 -0.36711374 -0.2416353 0.35537136 0.34864885
0.190772 0.1425345 -0.1213979 0.32201734 0.2040573 0.05122825 -0.3165784 -0.36130694
0.3305256 -0.2679318 -0.3579667 -0.20473719 0.01700568 0.346523 0.14029408 -0.2780738
-0.18209551 0.30152035 0.103373684 -0.11011505 -0.2675782 -0.3545171 0.12530729 -0.116238445
0.21147239 0.3139931 -0.0673005 0.10638124 0.17648521 0.2915571 0.19541772 0.03794284
-0.036914196 -0.06662579 -0.14039034 0.076558165 -0.25473225 -0.12100568 0.30479395 0.30489883
0.07718798 -0.16474645 0.39072737 -0.36668408 0.14066695 -0.36548164 -0.35416314 0.18094952
0.36336786 0.2283918 -0.015400878 0.33022085 0.20712744 -0.28946036 -0.093483284 -0.0736219
0.06477202 0.080801494 0.36346793 0.010414356 0.24862869 -0.0155797005 0.010331035 -0.1857395
0.14840923 0.0694767 -0.21816796 -0.14578463 0.21044946 0.09436918 -0.3725108 -0.303519
0.4029429 -0.16031224 -0.36381984 0.34206414 0.23647434 -0.21123789 -0.23052467 0.3157043
-0.19098338 0.2259814 0.06627712 0.09716174 0.15580986 -0.121324375 -0.2293718 -0.32213598
-0.310073 -0.011415333 0.23906404 -0.15788263 0.26339668 0.13889262 0.022953859 0.26728186
0.25624633 0.21774007 -0.019835947 -0.01428464 0.076553605 0.325189 0.11144755 0.16305412
0.09502644 -0.29176134 0.28349727 -0.2864477 -0.23600462 0.22208606 0.37439194 -0.12166338

mlp.2.weight f4 [128, 128]
00000000: 1864 dfbd 575d e0bd 3466 133d f364 cbbd
00000010: e25b 14be 49a9 083e 20ce 7c3d 0073 883b
00000020: c4f7 853d 1895 c9bc 0bbf c0bd f048 073e
00000030: 7991 ffbd 00a0 a037 2d79 17be 4c33 68bd
00000040: ee9a 76bb 4e3c d93d 705f b03d 8ffd febd
00000050: 78cb 273c 702f b53d b8f5 c2bc 9e30 13bd
00000060: d1b8 063d f639 bb3d 6a79 0fbe 418a 043e
00000070: 0cf8 68bd 955c 153e c881 143e 6cc3 af3d
00000080: 96ac 803d f283 493c c564 36bd 9055 5f3d
00000090: 80f3 07be 2273 37bd 094c df3d 906b b9bc
000000a0: a7bf a9bd 7297 2e3d 5df7 01be d2b0 efbd
000000b0: 5116 013e b18f b93c 58e4 3d3b 1d9b 7d3c
000000c0: dbbe db3c 099b a63b 24af 713d 9b22 f63d
000000d0: 69f7 103e c82e 903c 8048 193d 7fbd 7dbd
000000e0: 8ed1 9c3d 9c4b ac3d 3e5e f63d fad0 a33d
000000f0: 8ff0 5abd c69e ba3d f820 ec3c 0a44 5e3d
00000100: bf2e ad3d 008a 72bd dd78 573c ff6d fd3c
00000110: 070f 14be c2bb 22bd 27ac 9fbc f4de b13d
00000120: 7e76 fdbd 623c 0d3e a011 c03d 3e85 b73d
00000130: 52f0 48bd 38a2 753d c492 9fbd 65a6 cd3c
00000140: 460b ea3b 6574 61bd 905e e2bc c00e e5bb
00000150: ce22 193e 40c0 e73c 9641 b6bd c7ab 90bd
00000160: 4330 05be 615e 0d3e 5250 d53d 9808 843c
00000170: 247a f3bd cce2 c23d ac6d 303d 7f76 9cbd
00000180: 6356 9cbd 40a2 09be 4ae9 f9bd 8641 d03d
00000190: cc41 9f3d 9a8d e93d 4cb8 71bd b0c3 f0bd
000001a0: b4a2 e5bd 3efb f63d 4c8b dfbd 8acb cd3d
000001b0: 68c2 603b ac68 29b9 6d36 953d 974d 8dbd
000001c0: 3fa7 f9bd 3a10 103e 8718 1dbe 2102 893d
000001d0: 1acb 1cbd 1d80 8dbc 2f94 eebd 0401 72bd
000001e0: b71e 05be f2f0 db3d 6388 8fbd b8d2 a83d
000001f0: ea41 0bbd 3e77 17be 2973 493c 6b17 3c3c
00000200: 07a9 87bc 77bd 1a3e d035 a03c d3ce 1d3e
00000210: eed7 13be a81b 953d fc77 07be beb5 5dbd
00000220: 42a5 863d 3f42 a2bd 3c1d f4bd 2855 8a3d
00000230: 6f6c 9dbd e28e e93d 69df 273e f852 98bd
00000240: b88f 15be cb70 c9bd 0037 d6bd f7af 6d3d
00000250: 0be0 133e 4c0b 823d 7471 983d 2361 a6bd
00000260: f23b 623d 8c7e 903d 4c1e fcbc 23ee 973d
00000270: e7a1 4cbe 4375 4c3d 45b1 eaba 99d1 0c3e
00000280: 661d f73d 1378 1abd 631f 18be cbf8 1b3e
00000290: cc77 48be 46ff e53d 1e1a e03d 7493 eebd
000002a0: 5052 a5bc f306 02be c21c 7dbd 5d63 94bd
000002b0: a517 4abd e7e8 20be a3f4 033e 9db6 e63c
000002c0: be2a 223d 11db eb3d b455 c83d c0df 1cbe
000002d0: f899 b0bc 72ae f4bc 1925 693d 418c edbd
000002e0: d6c7 ae3d e05c 103d 8e4f ef3d 9ade 933d
000002f0: 645e ae3d d605 be3d d63c 06be ed11 503d
00000300: 28cd 113e 9b49 ff3d febd e53d 279a fa3d
00000310: a153 303d 9e2f b5bd e7dc be3d b8f7 643d
00000320: fc3a 223e 7b00 983d c412 243d 3dc2 cebd
00000330: cbdf 59bd 0c95 53bd 7a47 44bd 6411 03be
00000340: 228b fc3d 4b25 253d 6669 fabd 1b9f 98bd
00000350: 6490 debd 17e7 bc3c def5 c63d e81a 663d
00000360: 850f e2bd 9065 883d 4ab3 e53d 4169 693d
00000370: 9c6e 443c 8059 e23a 4033 b53c 6b30 19be
00000380: 305c 0cbc 61e5 2d3d c6a5 323e 4e82 3e3d
00000390: 166c aabd 9da1 d53d 4bc9 2fbe da0e c8bd
000003a0: 5ca5 14bd 323d c1bd 4142 3abe 4cbf 08be
000003b0: ed7d 0bbd f885 1a3d 3cc6 1c3e 207d fcbd
000003c0: 234b f63d a517 18bb f6d3 52bc affa babd
000003d0: 49de 893d 1e70 f4bc 4345 f33c 3135 063d
000003e0: 005f d7bc 18f4 98bc 7823 e0bd 7e9e aebd
000003f0: b88a 873c 3522 b43d ab1e 193c 43bd 143e
-0.10907763 -0.10955303 0.03598614 -0.09931364 -0.14488176 0.13345827 0.061720014 0.0041640997
0.06541398 -0.024607226 -0.094114386 0.13211417 -0.124789186 1.9147992e-05 -0.14792319 -0.056689546
-0.0037628966 0.10607205 0.08611953 -0.12450706 0.010241382 0.088469386 -0.023798808 -0.035935037
0.0328911 0.091419145 -0.1401116 0.12943365 -0.05687718 0.14586098 0.14502633 0.08582196
0.06282918 0.012299525 -0.044529695 0.054524958 -0.13276482 -0.044787534 0.109031744 -0.022634298
-0.08288508 0.0426249 -0.12692018 -0.11703648 0.1260617 0.022651525 0.0028975215 0.015478876
0.026824405 0.0050843996 0.059004918 0.12018319 0.1415688 0.017600432 0.037422657 -0.061948296
0.07657157 0.08412859 0.12029694 0.079988435 -0.05345207 0.09112315 0.028824314 0.054264106
0.08456182 -0.05921364 0.013151375 0.03093624 -0.14458857 -0.03972984 -0.019491268 0.08685103
-0.12376116 0.13792565 0.09378362 0.08960961 -0.049057312 0.059969157 -0.07791665 0.025103757
0.007142457 -0.055042643 -0.027632982 -0.0069902837 0.14954683 0.028289914 -0.08899228 -0.07064014
-0.13006692 0.13805534 0.104157105 0.01611738 -0.11888531 0.09515914 0.04307334 -0.07639789
-0.076336645 -0.134408 -0.122026995 0.101687476 0.07776222 0.114039615 -0.05901365 -0.117560744
-0.11212674 0.120596394 -0.10915241 0.100485876 0.0034295563 -0.00016156089 0.072857715 -0.06899565
-0.12190103 0.1406869 -0.15341388 0.06689859 -0.03827963 -0.017273003 -0.116493575 -0.059083
-0.12999998 0.10739316 -0.070084356 0.082433164 -0.033998407 -0.14791581 0.012295523 0.011480193
-0.01656009 0.15111338 0.01955691 0.15410928 -0.1443784 0.07280666 -0.13229364 -0.0541284
0.06574489 -0.07922792 -0.119196385 0.067545235 -0.07686698 0.11404206 0.16393818 -0.074377
-0.14605606 -0.09835967 -0.10459709 0.05802914 0.14440934 0.06349811 0.074435145 -0.08123996
0.05523295 0.07055387 -0.030776165 0.07418468 -0.19983636 0.049916517 -0.0017905614 0.1375183
0.12066154 -0.037712168 -0.14855723 0.15231626 -0.19576949 0.1123033 0.109424815 -0.11649218
-0.020180851 -0.12697963 -0.061795004 -0.072455145 -0.049338955 -0.15713845 0.1288629 0.028163249
0.039591543 0.11516393 0.097819716 -0.15319729 -0.021557793 -0.029868338 0.056920145 -0.11599017
0.085342094 0.035244823 0.11685096 0.07220192 0.08514097 0.09278457 -0.13109145 0.050798345
0.14238417 0.12465211 0.11217879 0.122364335 0.043048505 -0.08846973 0.093194775 0.055900306
0.15842813 0.07421967 0.04005696 -0.10095642 -0.05319194 -0.051655814 -0.047919728 -0.12799603
0.12331225 0.04031877 -0.122271344 -0.07452222 -0.10867384 0.023059411 0.09714864 0.056178004
-0.11038116 0.066599965 0.11215837 0.056985144 0.011989262 0.0017269105 0.022119164 -0.14959876
-0.008566901 0.04245508 0.1744605 0.046510987 -0.08321397 0.10431216 -0.17166631 -0.09768458
-0.03629051 -0.094355 -0.18189336 -0.13354224 -0.03405564 0.03772542 0.15309995 -0.12328553
0.1202605 -0.0023207453 -0.012867918 -0.09129845 0.06731851 -0.029838618 0.029696112 0.03276557
-0.026290417 -0.01867108 -0.10944265 -0.08526324 0.016545638 0.08795587 0.009345691 0.14525323

mlp.2.bias f4 [128]
00000000: 3a52 163d a848 a4bc c59c 223d f0af 9fbc
00000010: 1050 abbc a9cd 28bd 218f c43d 0a2d 813d
00000020: abb9 533d 570f d83c fdb8 88bd 6673 60bd
00000030: 8eef 26bd d39c 93bd 90bc a03b 3e35 863c
00000040: e825 89bc 767d 2ebd e951 493d 1427 c43d
00000050: a2c6 3bbd f543 183c cdae 9bbd 0537 a53d
00000060: c3b6 923d 0210 9c3d a125 17bd d6c6 4dbd
00000070: 25b1 203d 25cb 43bd 00d1 bb3d 2445 98bd
00000080: a563 983d bb28 b83d 8c49 c03d f83f c93c
00000090: fea7 2abd 4302 04bc ea9e 1bbd 692d 15bc
000000a0: 9c83 933d c0f8 933d d46d 64bd aee9 a23d
000000b0: b160 fb3c 66b7 49bd 00c7 0dbc 263b 673d
000000c0: 5031 99bd cf9a 983d 84b9 6abd 35ce 7e3d
000000d0: 5481 91bc 85b2 c8bc 7838 8e3d 8f5e 4fbd
000000e0: 06f5 853c 09a8 273d 6449 f33c bc17 27bd
000000f0: 75dc 92bd 6f71 0d3c baf8 713d ae4f 73bc
00000100: a9e7 9f3d ac42 ac3c 94cb 9c3d ea58 2abd
00000110: 8556 543b f33a c33d 7154 42bd a2c3 343c
00000120: adcf 4c3d b622 733c 5737 abbd 06b7 623d
00000130: f090 c53c ef7c 12bd d0a7 2fbd e790 85bd
00000140: 4605 ce3d b469 58bd 4eb8 b3bc b09b c83d
00000150: 21fe 8a3d 33f6 c93c 642e 063d 5ba1 063d
00000160: 3a46 74bd b3b2 a03d b7a2 813d 1ccf 403d
00000170: 877c ad3d 7272 24bd e121 a3bc 2f0b 24bd
00000180: 2b15 9539 152f a23d 84ce 7dbd be06 303d
00000190: 8e06 593d cec9 c73b d14c 12bd 506c b33c
000001a0: 8ac8 59bd 6860 80bd 7df4 66ba b0db a6bc
000001b0: d53e 923d f7cd 9a3d 33e1 0f3d 849a 0b3d
000001c0: 7a4b 553d 2568 89bd db0b c0bc 211f 313c
000001d0: 1ed8 593c ca14 d8ba be0a 9e3d 3ec4 d13b
000001e0: aef1 5ebd 6462 113d b360 d03d de14 5b3c
000001f0: aa2e a03d 9997 02bd cd80 9f3d 3665 b03c
0.03669951 -0.020054176 0.03970029 -0.019493073 -0.0209122 -0.041211758 0.09597612 0.06307419
0.05169074 0.026374502 -0.06675909 -0.054797553 -0.0407558 -0.07207646 0.004905291 0.01638281
-0.016741708 -0.042600118 0.04915038 0.09577766 -0.045843728 0.009293546 -0.076017 0.08067135
0.07163765 0.07620241 -0.03690112 -0.050238453 0.03923144 -0.047801156 0.09170723 -0.074350625
0.07440881 0.08992144 0.09389028 0.024566635 -0.041664116 -0.00805718 -0.03799335 -0.009105065
0.07202837 0.0722518 -0.055768803 0.07954727 0.030685754 -0.049247168 -0.008653402 0.056452893
-0.07480109 0.074514024 -0.057305828 0.062208373 -0.017761864 -0.024499187 0.06944364 -0.050627287
0.016352188 0.040931735 0.029698081 -0.04079412 -0.07170955 0.008633002 0.059075095 -0.01485054
0.078078575 0.021027885 0.07656017 -0.0415887 0.0032400202 0.09532728 -0.04744381 0.011032971
0.050002743 0.014839819 -0.083601646 0.055350326 0.024116963 -0.035763677 -0.042884648 -0.065217786
0.100595996 -0.05283518 -0.02193847 0.0979532 0.067867525 0.02465353 0.032759085 0.032868724
-0.059637286 0.07846584 0.063298635 0.047072515 0.08471017 -0.040148206 -0.019913616 -0.040049728
0.00028435266 0.079191364 -0.061964527 0.04297518 0.052984767 0.006097055 -0.03571779 0.021902233
-0.053169765 -0.06268388 -0.00088102353 -0.020368427 0.071408905 0.07558816 0.035126876 0.034082904
0.052073933 -0.06709317 -0.023443153 0.010810644 0.013296155 -0.0016485688 0.07716893 0.0064015677
-0.054429702 0.035494223 0.10174694 0.013371674 0.078214005 -0.031882856 0.07788239 0.021532636

mlp.4.weight f4 [128, 128]
00000000: a088 09bd 823a 09be 087e 8fbc d587 1a3e
00000010: 2af1 ae3d 94a4 04be e50d e0bd 801b 013c
00000020: fd42 8fbd 58d0 8e3c 442b bfbd f036 a03d
00000030: 2e90 c53d a8f0 c03c f796 003e 8dbf 1bbe
00000040: 6470 edbc e27d b33d a085 1cbc eb7c 13be
00000050: cab8 8d3d 3f55 02be 289e 6fbd 3b57 173e
00000060: cfc1 1abe 4094 923d 4737 f8bd 10cd 1d3d
00000070: 47bd 193e 7d72 113e d0da 723d 1517 043e
00000080: b8e1 ed3c 70d4 423c 7051 6e3d 0687 c13d
00000090: 4435 07bd da92 de3d 2aa9 cb3d 4cc6 9ebd
000000a0: abb3 12be 460a 8c3d c677 da3d 20bb 1e3d
000000b0: fe38 d53d cb69 123e eb2a 143e 56d1 cf3d
000000c0: ec3d f2bc 253f 163e 8aee 07be c415 0fbd
000000d0: 7d70 153e 64f2 333d d274 f83d 9622 dd3d
000000e0: 3a59 09be c836 ffbd c72c 073e 2a78 bdbd
000000f0: 5af6 d43d 309a 993c 7e2a 22bd b019 75bd
00000100: c0ab 62bc fad4 89bd 8e9f 7bbd 9598 0c3e
00000110: 3781 a2bd 2ef9 0bbe 20c1 053d a8f9 723d
00000120: 6e49 96bd a0cd c3bc a00a 923c 3537 0ebe
00000130: fe69 cfbd 8080 8d3d 0077 4eba 98eb f0bc
00000140: 5078 623d 666f 9a3d 73a7 06be 00d9 743a
00000150: fc3b fabd ae54 91bd 7133 073e 8cba c53d
00000160: a896 dcbc e416 143d 00fa f83b 54e0 ebbc
00000170: 6433 623d d0d4 7fbd 5499 31bd b2ab 96bd
00000180: 04c1 0a3d 862c d23d 56f4 c0bd 8bf0 8abd
00000190: e62b 5fbd 79b6 03be 86c2 90bd a0e6 b33d
000001a0: d107 143e caca d13d 5ec7 7abd c2ed d33d
000001b0: 343b 5cbd 4235 843d 96cd e5bd b3a0 92bd
000001c0: c03a b0bb e8dc 99bc da5b e73d e017 07bc
000001d0: 7197 98bd 7232 bf3d 6070 163d c8a3 b73c
000001e0: 7cc8 2abd 029e e7bd fcfb 103d 54df f9bd
000001f0: 4000 55bd 128a 8b3d c3d8 013e d222 32bd
00000200: 348d 733d bbcd 053e c4dc edbd 60b9 f9bb
00000210: aa7c a23d 1334 183e 086f ce3c 0946 0f3e
00000220: 94a7 91bd 81b2 033e 3875 5b3d d8ec 0fbd
00000230: 6a26 56bd 1a04 2cbd e559 debd aaf0 c1bd
00000240: e829 51bd e030 91bb 8054 c4bd f704 c1bd
00000250: 01ce 123e b42a 803d cc3f 3a3d 1ff0 03be
00000260: 0062 c73a d2ab fbbd 6057 afbb 721d 8b3d
00000270: 1080 9c3d acbf 3a3d 4d4d 1bbe 2ef5 cb3d
00000280: e120 0f3e fa93 f43d 6c1c 173d 3329 d6bd
00000290: 9cd8 553d 9972 143e 63a0 b1bd 9266 5bbd
000002a0: 123f 1fbd 440a fbbc ea35 02be 8009 ab3d
000002b0: 88fe 8c3d 1a59 c6bd 4212 06be 7274 0cbe
000002c0: 5076 393c 0078 d338 2866 863c 8ae0 5abd
000002d0: 22f3 b33d 40e5 e5bc 00f7 a83c 6e1a 06be
000002e0: 26e2 e33d 3922 a5bd 0c88 503d e0ac 1cbc
000002f0: 3021 39bc ead1 873d 10c6 03be b4af f3bd
00000300: 96f6 c13d 40c8 84bc a3f1 bfbd bcee e9bd
00000310: 8a88 08bd 38cf 98bc 1af5 9a3d e07f babd
00000320: 88fc b13c e4ce 143d fc06 6abd a495 873d
00000330: 8852 893d 5588 053e 259d b7bd 6c0c a73d
00000340: eea5 3cbd a85c 3abd 8149 123e 8062 3a3c
00000350: 5644 f6bd 6fac b6bd 806f 843d c2f9 f63d
00000360: 0149 bdbd 82e9 a93d cc5e c7bd 0020 9fbd
00000370: 204c 183c c7ad 0ebe 4b03 81bd 9055 f93c
00000380: 809e 873a 77db 87bd e65e 14be e478 26bd
00000390: c0ef 09be 0a84 bc3d 0467 773d c9cc 9ebd
000003a0: d0ca bebc 0afb f73d b8a5 a0bc db85 b4bd
000003b0: b2e1 8ebd ec9f 5dbd c004 fd3c b697 e6bd
000003c0: 77ae 1c3e d3b0 13be a0e1 fcbd 4d62 033e
000003d0: ba8f f13d 90f4 a6bd 3ad1 4abd ad2a 81bd
000003e0: 1ca7 873d 6219 22bd 5c53 0a3d cfb9 12be
000003f0: feab c43d 106b 873d c859 1dbd b4bb 323d
-0.03357756 -0.13401225 -0.017516151 0.15090878 0.08542092 -0.12953407 -0.1094015 0.007880092
-0.06995199 0.01743333 -0.09334424 0.078229785 0.09646641 0.023552254 0.12557589 -0.1520979
-0.028984256 0.087642446 -0.009553343 -0.14403121 0.06920011 -0.12727831 -0.05850044 0.1477937
-0.15112995 0.07157183 -0.12119918 0.03852564 0.1501361 0.1420383 0.059290707 0.1289943
0.029038295 0.011891469 0.058183134 0.09449582 -0.033009782 0.108678535 0.09944375 -0.07752666
-0.1432635 0.06837897 0.10667376 0.038752675 0.10411261 0.1429817 0.14469497 0.101473495
-0.029570542 0.14672525 -0.13274589 -0.034932867 0.14593692 0.043932334 0.12131657 0.10797612
-0.13412943 -0.124616206 0.13200675 -0.09251435 0.1039855 0.01875028 -0.039591305 -0.05983895
-0.013834894 -0.06730075 -0.06143146 0.1373008 -0.07934802 -0.13669273 0.03265488 0.059320122
-0.07338224 -0.02390176 0.017827332 -0.13888247 -0.10127638 0.06909275 -0.0007876009 -0.029409215
0.05529052 0.07540779 -0.13149814 0.0009340197 -0.12218472 -0.070962295 0.13203217 0.096547216
-0.026927307 0.036154643 0.0075981617 -0.028793491 0.05522479 -0.062458813 -0.043359116 -0.07356967
0.03387548 0.102623984 -0.094216034 -0.06784161 -0.054485224 -0.12862577 -0.070683524 0.087842226
0.14456107 0.10243757 -0.061225288 0.10348083 -0.053767398 0.064554706 -0.11220853 -0.07159557
-0.0053780973 -0.018782094 0.11296816 -0.008245438 -0.0745076 0.093357936 0.036728263 0.022416964
-0.041695103 -0.113094345 0.03539656 -0.122007996 -0.05200219 0.06813444 0.12680344 -0.04349024
0.059460834 0.13066761 -0.11614373 -0.0076209754 0.07933934 0.14863615 0.025199428 0.1399156
-0.07112041 0.12861063 0.053578585 -0.03513798 -0.05228273 -0.0419961 -0.1085699 -0.09469731
-0.051065356 -0.004430875 -0.095864296 -0.09424775 0.14336397 0.06258145 0.045470998 -0.12884568
0.0015211701 -0.122886315 -0.005350992 0.067927256 0.076416135 0.04559295 -0.15166207 0.09958874
0.13977386 0.11942287 0.03689234 -0.10457077 0.052208528 0.1449684 -0.086731695 -0.053564616
-0.038878508 -0.030644543 -0.12715879 0.08351421 0.068844855 -0.096849635 -0.13092902 -0.13716295
0.011319712 0.00010083616 0.016406134 -0.053436793 0.08786608 -0.028063416 0.020625591 -0.1309602
0.11127119 -0.08063168 0.050910994 -0.009562701 -0.011299416 0.06631835 -0.12868524 -0.11898747
0.09470861 -0.016208768 -0.093722604 -0.11422488 -0.03333334 -0.018653497 0.07566281 -0.091064215
0.021726862 0.03633012 -0.057135567 0.066203386 0.06705195 0.13040288 -0.0896552 0.08156666
-0.04605668 -0.04549852 0.14285852 0.011376023 -0.12024753 -0.08919608 0.064665794 0.12059356
-0.0924244 0.08296491 -0.09734878 -0.077697754 0.009295493 -0.13933478 -0.06299456 0.030436307
0.0010346919 -0.066336565 -0.14489326 -0.040642634 -0.13470364 0.09204872 0.060400978 -0.077539034
-0.023290068 0.12108429 -0.01961027 -0.088145934 -0.06976642 -0.05410759 0.030886054 -0.11259405
0.15300928 -0.14422922 -0.12347722 0.12830468 0.11794992 -0.08152115 -0.04951594 -0.06306968
0.066236705 -0.03957499 0.033770904 -0.14328693 0.096031174 0.066122174 -0.0384157 0.04363604

mlp.4.bias f4 [128]
00000000: 7712 aebd aa99 473d 6ae4 8f3d 6437 df3c
00000010: fd91 9fbb 06ea 983d 5c30 26bd 7391 07bd
00000020: a9a8 a43d 2631 603d f146 2dbd 9d74 13bd
00000030: 2bbd 033d b3a4 aa3d c301 063d 4c38 d8bc
00000040: 4e51 61bc df3e 78bc 6d74 ee3c a115 833d
00000050: 50b0 04bb 625a 9e3d 5aa4 843d 53f9 3dbd
00000060: 9e00 a1bd 8911 863d ffe6 533d b96f a43d
00000070: 904c 0cbd 1687 08bd 3a67 843d 619d 71ba
00000080: 4958 32bd 13b4 623d 6224 9e3d 80bf 8f3c
00000090: 2342 38bd 9d34 cb3d e868 3abd 48c4 8d3c
000000a0: 22ad a0bd 614e 8bbd 3470 8ebd 4a6f 803d
000000b0: f0d3 9f3d 70a8 19bd fc80 94bc b577 3d3d
000000c0: 68a6 9abd 2280 333d a8a6 a9bc c7ed 28bd
000000d0: d628 b33d 97be 533d 2af2 613d 8e81 da3c
000000e0: f0b7 72bd b725 823d 6934 8dbd 56fe 25bc
000000f0: d6bf 3ebd 8773 b53d c27d 41bb 8557 373d
00000100: 6791 a83d 474f c13d 3d25 b3bd 365b d1bc
00000110: 306d 3e3c 1398 683d c782 19bd 5073 e73c
00000120: cf3e 12bd cedd 6bbc e244 3bbc 80d8 5cbb
00000130: 53da 5e3d e0c8 813c ae02 c33d 20c6 75bb
00000140: 23ca 8f3c 963f c93d c8d7 023c b732 78bd
00000150: 95a9 83bd 5740 2dbc a7f9 8abd f8de 27bd
00000160: d1dd 89bd 3b15 abbb 10ca 82bb f60c 87b9
00000170: 8ac4 42bd 5e26 22bd 5c73 bd3d 3bea a7bc
00000180: ba98 25bd d9c1 533d 526f 96bd 7ef6 ecbc
00000190: 9f94 a3bc 7dd8 56bd e7f8 023d 31cd 01bd
000001a0: 8455 0f3d 0f53 663d 44b3 b1bd c88b cabc
000001b0: bf28 b3bc 0cff a13d 5807 95bd 788c 843b
000001c0: d0d0 af3d b520 393d 67fd 373d b8ed 49bc
000001d0: 32b6 823d 5da6 8c3d 5166 bf3c f9a1 183d
000001e0: 9fc0 493d a854 9bbd 972b 18bc 3a70 b13c
000001f0: 86da 25bd 2869 893d 84de b0bc 55bd 8b3d
-0.08499616 0.04873053 0.070259884 0.027248092 -0.004869698 0.074665114 -0.040573463 -0.033097696
0.08039982 0.05473437 -0.042303983 -0.035999883 0.032162827 0.08332195 0.032716524 -0.026394032
-0.013752295 -0.015151708 0.02910825 0.0640061 -0.0020246692 0.07732083 0.0647666 -0.046380352
-0.07861446 0.06546313 0.051733967 0.08029122 -0.034252703 -0.033331953 0.064650014 -0.00092168717
-0.043541227 0.055347513 0.07721783 0.017547369 -0.044984948 0.099221446 -0.045510203 0.017305508
-0.078455225 -0.06802059 -0.06954995 0.06271227 0.07804096 -0.03751415 -0.01812791 0.04625674
-0.07551271 0.04382337 -0.02070935 -0.041242387 0.08748023 0.051695433 0.055162586 0.026673105
-0.059257448 0.0635485 -0.06894762 -0.010131439 -0.046569668 0.08859926 -0.002952442 0.0447612
0.08230858 0.09438949 -0.08747337 -0.025556188 0.011622712 0.056785654 -0.037478235 0.028253227
-0.03570443 -0.014396144 -0.011429997 -0.003369838 0.05440743 0.015842855 0.095219955 -0.0037502125
0.017552441 0.09826581 0.007986017 -0.06059524 -0.064288296 -0.010574422 -0.06785899 -0.040984124
-0.06731761 -0.0052210367 -0.003991373 -0.00025758863 -0.047550716 -0.03958737 0.09250519 -0.020497432
-0.040428855 0.05169854 -0.073454514 -0.02892613 -0.019968329 -0.052452553 0.031975653 -0.031689826
0.034993663 0.056231555 -0.0867677 -0.024724856 -0.021870015 0.079099745 -0.07276791 0.0040450655
0.0858475 0.045197207 0.044919398 -0.012324743 0.06382407 0.06867669 0.023364218 0.037263844
0.049255963 -0.07584506 -0.009287736 0.02165996 -0.040491603 0.0670951 -0.021590479 0.068232216

mlp.6.weight f4 [4, 128]
00000000: d09e b3bc 7832 433d 324d 1ebe 701f 5c3d
00000010: ac9b 18be 6d2e 003d 6666 443e 25c7 3b3c
00000020: 60c8 783c 4ed0 d33d 74c8 423e 107c 9bbd
00000030: 0699 96bd 9480 953d 98e6 b33d 5ed4 bd3d
00000040: b5df 33bc 8fff d73d 5bb7 38be 2f57 98bb
00000050: 7da5 2f3e ca68 36be 5ea8 4ebd 780b bdbd
00000060: 2cb9 f03d 905f 593e f62c f2bd 1ffe 25be
00000070: d7af 42be 7c63 233e 9552 973d 8cb5 3ebe
00000080: d6b0 e5bd f44f eabd e386 3abe c486 6c3d
00000090: a0b3 303e e182 653e a648 24be 9406 013d
000000a0: c705 383e e9d1 9ebd 047f 07be 4d79 353d
000000b0: b719 e6bd 7020 cf3d c3d6 35be 1a67 a33c
000000c0: dcf7 f53d 839f 29be 24eb 49be 7401 c93d
000000d0: 3342 773d 461a bcbd d0b0 02bc 14d9 1ebe
000000e0: b88c 023e ac7f d33d 1782 ef3d ad2a 3e3e
000000f0: 5b76 803e fc46 33be 17e0 5f3e 1dfa 9bbd
00000100: 0206 c6bd d68d 8ebd ac2b e13d 2cc3 92bd
00000110: 387b cbbc 2390 d83d af2e 823e 343e 0abe
00000120: c3a5 de3c ff7e 4bbe 9079 d33d 70ac a9bd
00000130: 1236 42be 41fb 3cbe c970 0c3e 4c07 21bd
00000140: 9378 8c3e 967c 9bbd 50fc 3bbc 7bc3 583e
00000150: 5d05 b2bd 5e29 3ebe 2272 13be 48c7 6e3a
00000160: 95fa 5c3e 0a4d 39be 742a 49be a596 ca3b
00000170: a8a4 88bd 0edb 19be 97ee 023e ddca fe3d
00000180: ab66 743e a05f 64bd 8d4f 04be 70d3 1e3e
00000190: 5a7f 2fbe 8498 103e 2258 e3bd 80f7 bdbb
000001a0: 6089 49be ae0c 70bc e3e0 8fbd 7815 d93d
000001b0: abbb d8bd fad5 603d 0837 52be e9b2 4c3e
000001c0: f750 54be 759a 12be e6b8 c2bd 7e99 713e
000001d0: 9f55 c8bc afc3 563d 00fa 10be 9243 913d
000001e0: e962 8d3d e4c5 953d e1ca 40be 6678 2c3e
000001f0: 94ee 40be 772f 123e 6eb6 fe3d eea6 233d
00000200: 344c aabd 9981 f2bd bfc5 a43b 1fab be3d
00000210: 3a27 6d3d a2be a2bd a03f 153d 8fc2 e5bc
00000220: b809 333d 527c f53b 00fb 1b3e 3acb b9bd
00000230: 3708 f7bd ee3b 52be fd63 ea3d e4a2 d53d
00000240: 0a38 40be 0920 453e 797c a5bd e82d 2fbe
00000250: 59b5 073c 20bc cb3c 852e 143e a0af cb3d
00000260: b4a0 983d e2b1 13be 8fc1 dbbd 6e52 593e
00000270: 7c5f 883d 8627 7a3d 0aa2 a83d 117b b43d
00000280: 4f72 4b3e 88e5 babd 6500 f13d a245 f93c
00000290: b8bd fd3d 0b61 143e 4d42 86bd 1446 803d
000002a0: 8bdd 933d 4d83 d8bd ac7e d53d 7d01 223e
000002b0: fb14 2e3d 30b7 0f3d 12ea e73d 92fe c7bc
000002c0: fb81 27be 4df4 643e 0748 b5bd e459 23be
000002d0: 62f4 e0bd 3799 68be 1820 5fbd ea6e 99bd
000002e0: 3cb1 c63d c861 17be 813c a5bd 0b53 473e
000002f0: d4f0 1bbe e630 3dbd e1e6 2e3e 4f4b d7bd
00000300: 9a2d 09be 0b9a 6cbd a885 05be 35ef 9dbd
00000310: 725a 463e 2eb4 113e 8eaa 673e d5f8 34be
00000320: d780 22be aa16 4ebe 73ab 5c3d 1a62 3abe
00000330: 8195 543c 56a6 143e 6acc 6f3e c8ef a63d
00000340: 3ff1 5e3e 2394 ce3d 2b50 1cbe 4866 6c3d
00000350: b707 68be 445c 853d fd50 01be 3f2c a73d
00000360: daec 3ebe f225 853d e8c9 57be 5627 40be
00000370: 9cef 593e 7f15 783c 5713 083e 58a1 503e
00000380: e5d4 413d 371f 60bd 4c55 0abe 1c84 30bd
00000390: 3a61 e6bd 1e92 313e 036a 93bc 144a 3fbd
000003a0: 9bad 133c b80a 11be c6d7 0a3e fe4b 36be
000003b0: 14c0 e63d 3c6b 2b3d 68a5 f43c 010a 573d
000003c0: ca02 debd 6eb6 d9bd 3f12 baba 07ff 6d3d
000003d0: 21ca 10bd f7b6 00be f699 dd3d b154 3fbe
000003e0: 3574 3cbe 00bc 2b3b be5c 3e3e 23b6 793d
000003f0: a0fb 763d 406c b73d 7163 c7bd 5120 343e
-0.021926314 0.047655553 -0.15459135 0.05374092 -0.14903134 0.031294275 0.19179687 0.011461054
0.015184492 0.10342465 0.1902178 -0.075920224 -0.07353406 0.07299915 0.08784217 0.092690215
-0.010978629 0.10546791 -0.18038695 -0.004649065 0.17152973 -0.17813411 -0.050453536 -0.09230703
0.11754069 0.2122786 -0.11824982 -0.16210221 -0.1901239 0.15955919 0.07388798 -0.18623942
-0.112153694 -0.11441031 -0.18215518 0.05774571 0.17256021 0.22413208 -0.16043338 0.031500414
0.17970954 -0.07754881 -0.13232046 0.044305135 -0.112353735 0.10113609 -0.17757706 0.019946624
0.12010166 -0.16564755 -0.19718605 0.0981473 0.060365867 -0.09184699 -0.007976726 -0.15512496
0.12748992 0.10327086 0.116947345 0.18570967 0.25090298 -0.17507547 0.21862827 -0.07616065
-0.09669115 -0.06960647 0.10994658 -0.07166132 -0.024839029 0.10574367 0.25426242 -0.13500291
0.02717865 -0.19872664 0.103259206 -0.08284843 -0.18965939 -0.18455221 0.13714899 -0.0393136
0.2743574 -0.07592122 -0.01147373 0.2116832 -0.08692429 -0.18570468 -0.14399007 0.0009108675
0.21579964 -0.18095794 -0.19645101 0.006182509 -0.06672031 -0.15024969 0.12786327 0.12441037
0.2386729 -0.055755258 -0.12920971 0.15510345 -0.17138425 0.1412068 -0.111007944 -0.0057973266
-0.1968131 -0.014651461 -0.070253156 0.10599798 -0.1058267 0.054891564 -0.20528805 0.19990124
-0.2073401 -0.14316733 -0.09507923 0.23593709 -0.02445489 0.052432712 -0.14157867 0.07092966
0.06903631 0.07313135 -0.18827392 0.16842803 -0.1884101 0.14275919 0.124371395 0.03995412
-0.08315316 -0.11841125 0.005028456 0.093099825 0.057898737 -0.079465166 0.03643763 -0.028046874
0.04371044 0.007491627 0.15232468 -0.090719655 -0.12062114 -0.20530674 0.114448525 0.104314595
-0.18771377 0.19250502 -0.08080382 -0.17107356 0.008282983 0.024869978 0.14470871 0.09945607
0.07452527 -0.14423326 -0.10730278 0.2122285 0.06658837 0.06107285 0.082340315 0.088125356
0.19867824 -0.09125811 0.117676534 0.030428711 0.123897016 0.14490144 -0.065556146 0.06263366
0.0721999 -0.10571919 0.10424551 0.1582088 0.042500477 0.03508681 0.11323942 -0.02441338
-0.16358177 0.22358818 -0.08851629 -0.1595226 -0.10984112 -0.22714697 -0.054473966 -0.07491858
0.097017735 -0.14783394 -0.08068181 0.19465272 -0.15228587 -0.04618921 0.17080261 -0.10512411
-0.13396302 -0.057764094 -0.13039267 -0.07711641 0.1937044 0.1422889 0.22623655 -0.17673047
-0.15869461 -0.20125833 0.053874444 -0.18201485 0.012975098 0.14516577 0.23417822 0.081512034
0.21771716 0.100868486 -0.15264957 0.05771473 -0.22659193 0.06511739 -0.12628551 0.08162736
-0.18645039 0.06501378 -0.21073115 -0.18765005 0.2128281 0.015141844 0.13288628 0.20374048
0.047322173 -0.05471727 -0.135091 -0.04309474 -0.11249013 0.17340896 -0.017994886 -0.046701506
0.009013559 -0.14164245 0.13558874 -0.17802426 0.11267105 0.041850314 0.029864028 0.052499775
-0.10840376 -0.10630499 -0.0014196112 0.05810454 -0.035349015 -0.12569796 0.10820381 -0.18684651
-0.18403704 0.0026204586 0.18590066 0.060964715 0.060298562 0.08956194 -0.09735764 0.17590453

mlp.6.bias f4 [4]
00000000: d33f 5a3d 5cb1 64bd a386 dfbc 9de4 963d
0.053283524 -0.055833206 -0.02728588 0.07367823
