tmp_result/dqn.pt (torch, 12111 bytes, 8 tensors)

mlp.0.weight f4 [32, 7]
000000 d7 73 17 3e 82 1a 0b be 44 0e 81 3f bb a6 a2 3e
       0.14790283 -0.1358433 1.0082479 0.3176783
000010 a5 99 23 bf 8b eb e9 bd db 8a 57 3e b1 79 43 be
       -0.6390632 -0.114218794 0.21049063 -0.1908939
000020 0d 38 bc 3d e8 09 0b be bf 6e 1e be 98 2e 51 be
       0.09190378 -0.13577998 -0.15471934 -0.2042793
000030 0b f5 15 3f a6 42 a6 be 3e 04 73 be 90 9a b5 bd
       0.5857703 -0.32472724 -0.23732087 -0.08867371
000040 b2 6d 38 3e c7 b5 b6 be dc fb 09 be 39 5b 1b be
       0.18010595 -0.3568556 -0.13474983 -0.15171517
000050 27 4d 16 be 6b 84 81 3e 3c 0e cf be 04 e6 24 3f
       -0.14677869 0.2529634 -0.40440547 0.64413476
000060 db a0 bc 3d dd 65 81 bf 15 3e 26 3e 80 a5 75 be
       0.09210368 -1.0109211 0.1623462 -0.23988914
000070 fc 94 c8 3c b1 14 05 be 3e db c5 be bb 50 83 bd
       0.024485104 -0.12996174 -0.3864383 -0.064118825
000080 35 f0 a4 3e c3 8a 28 3e 04 6e 92 3e f6 f0 59 be
       0.32214513 0.16459183 0.2859956 -0.21283326
000090 0c 9f b6 bd 55 40 af bd 50 f2 e9 3e 8c 00 0b bf
       -0.089170545 -0.08557192 0.45692682 -0.5429771
0000a0 e1 ac cd 3e fd 5f 27 be d8 69 85 bd 32 8a 49 3e
       0.4017096 -0.1634521 -0.06514329 0.19681624
0000b0 c3 2d bf 3e 47 44 74 be 28 44 da 3d fe 15 85 be
       0.373396 -0.2385417 0.10657531 -0.2599334
0000c0 38 d7 aa bd 88 41 8d 3e 62 89 f2 3e c4 4a ea 3e
       -0.08341831 0.2758906 0.4737044 0.45760167
0000d0 ad 47 46 3d 96 43 be be 4d 2a 81 3e c0 19 26 bf
       0.0484082 -0.3716094 0.25227585 -0.6488304
0000e0 86 d8 cc be 50 3f c0 3e 03 6d 95 3d af b5 ae bd
       -0.40008944 0.37548304 0.07296183 -0.08530747
0000f0 42 c1 91 be 38 c2 e4 3e 0d ca 6c 3f e0 98 73 be
       -0.28467757 0.44679427 0.92495805 -0.23788786
000100 c6 44 16 be 14 ea 00 bf 70 dc d4 3d a9 c1 8c 3e
       -0.14674672 -0.50357175 0.103936076 0.274915
000110 79 32 43 3e 94 14 88 3d 6a ca 8a be 52 7d b7 be
       0.19062223 0.0664455 -0.27107555 -0.358378
000120 ce 87 b7 be 7e 03 98 3e 18 d2 f3 3e fa b9 e1 3e
       -0.35845798 0.29690164 0.47621226 0.440872
000130 db 50 72 3f 68 0c b2 3e 36 50 99 be 2a 17 36 be
       0.94654626 0.3477509 -0.2994401 -0.17782274
000140 3b 33 d4 3d e8 5d fb 3e ea c3 8e be da fb e3 be
       0.10361334 0.49095082 -0.27883846 -0.44528085
000150 a3 55 77 be c8 41 52 3d de 41 25 3e 00 b1 7d 3d
       -0.24153762 0.051332265 0.16138408 0.06193638
000160 25 37 bd 3e 40 7f 37 3d 22 29 3c 3e 59 36 85 3e
       0.36956134 0.04479909 0.18375066 0.26018026
000170 cd 74 8a 3e e1 a6 9b 3d 24 f0 62 3e 4c 95 5f 3e
       0.27042237 0.07600189 0.22161919 0.21834296
000180 7a a8 6e bc 23 ec 70 3f eb e0 81 3d d8 76 d3 be
       -0.014566535 0.94110316 0.06341728 -0.41301608
000190 ce 50 ad be 71 9b 82 bd af 3a 23 3f 7e 71 4c 3e
       -0.33850712 -0.06377304 0.6376142 0.19965169
0001a0 fa f5 19 3f 1f f4 05 be 5f 98 80 3e 82 3f 9b 3d
       0.60140955 -0.13081406 0.2511625 0.075804725
0001b0 f3 11 60 3e 19 63 50 be fa 9b fa 3e 59 a0 e7 bd
       0.21881847 -0.20350303 0.48947126 -0.11309881
0001c0 6d 27 00 be e0 cb b7 3d 9c 49 92 3c cd ee 37 bd
       -0.1251504 0.08974433 0.017857365 -0.044905473
0001d0 b6 5e 1e 3e c8 34 d7 be ae 82 86 be 74 cd e4 3d
       0.15465817 -0.42032456 -0.26271576 0.111719996
0001e0 c5 3c 15 be a0 8c 03 be ee 50 03 3e e7 f6 ca be
       -0.14573963 -0.12846613 0.12823841 -0.39641497
0001f0 c8 af 2e be b0 d5 a9 3d 00 f2 c9 be 08 73 a7 3e
       -0.17059243 0.08292711 -0.39442444 0.3270495
000200 d2 a3 00 bf e6 fa 9a 3e 83 24 67 be 51 9f c2 3e
       -0.5024997 0.30269545 -0.22572522 0.38012174
000210 d6 40 72 3e ed d4 f9 3e 06 20 8d be fe 6d 53 bd
       0.23657545 0.48795262 -0.27563494 -0.05161857
000220 bf 9e 8d be 52 27 70 bd e7 b6 f9 3d 48 81 27 3f
       -0.27660176 -0.05863125 0.12193089 0.6543164
000230 8f f2 b2 bd 41 9e b4 be 30 eb 9d be 1c a8 c5 be
       -0.08737671 -0.35276988 -0.30843496 -0.3860482
000240 cf 85 e6 3d dd 56 8f 3d 6f 7c ad c0 f6 47 ee 3d
       0.11255991 0.0699899 -5.4214396 0.11634819
000250 a0 7c 89 3d d0 7d 08 bf 27 ce 82 be d9 fc 77 bd
       0.067132235 -0.53316975 -0.25547907 -0.06054387
000260 ab c7 4f 3e bd c1 1e be 99 d8 ab 3e 4e e2 91 be
       0.20291011 -0.15503593 0.33563688 -0.2849297
000270 f7 07 e5 bd 00 e9 02 be c5 c4 0a 3f 2d 1d 3a 3c
       -0.1118316 -0.12784195 0.54206496 0.011359495
000280 07 a0 f8 be e1 88 3d bd 52 d7 6b 3e c5 76 8a 3e
       -0.4855959 -0.046273116 0.23031357 0.2704374
000290 9a 1a 5d be 08 9c 31 bf 83 ed bf 3d 2c 30 0c be
       -0.21592179 -0.6937871 0.09371474 -0.13690251
0002a0 a1 db 9e 3e d0 9d c4 be 99 a3 5b be 80 39 b8 bb
       0.3102694 -0.3840165 -0.21449126 -0.005622089
0002b0 f9 e2 b5 be 04 5d a0 be 3b e7 a1 3e 3b 22 9d 3e
       -0.3552473 -0.31320965 0.31621727 0.30690178
0002c0 2b 1d 61 be fd c4 97 3d d4 54 a9 3e ef a6 a6 bc
       -0.21983783 0.074106194 0.3307253 -0.020343272
0002d0 01 11 b8 3e eb 5c 1f be 34 22 b2 be 40 ef 56 be
       0.35950473 -0.15562789 -0.3479172 -0.20989704
0002e0 e9 09 92 3e 5b 99 38 be 4b f2 a8 be 05 1f bd be
       0.28523186 -0.1802725 -0.32997355 -0.3693773
0002f0 33 71 86 3e ba fe d2 3d 0b 8f 3b be 01 17 e3 3d
       0.2625824 0.103024915 -0.18316285 0.11088372
000300 5f b2 30 3c 2a 3c 0c 3f 76 6d e9 3e 51 bf af 3d
       0.0107847145 0.54779303 0.45591325 0.085814126
000310 3b 6c 7c be 27 d3 12 be dc ec ba be 98 9d 9a be
       -0.24650662 -0.1433836 -0.36508834 -0.3019836
000320 eb c6 4e be 1c 20 04 be a7 76 ba 3e 5d 3d 0e 3f
       -0.20193069 -0.12902874 0.3641865 0.5556238
000330 cb 85 5d 3e 9f b4 16 3e cb 7f 8d be fc 3e ed bd
       0.21633069 0.14717339 -0.2763656 -0.11584279
000340 26 d9 17 bf 75 84 29 3f 9d 4c ac 3e ff 4e 63 be
       -0.5931572 0.6621774 0.336522 -0.22198103
000350 41 f2 7c bd 9c c1 34 3b 5f 27 d5 3e 59 39 8b 3e
       -0.06175447 0.002758122 0.416316 0.2719219
000360 3b 1d 94 3f 72 45 de 3e 0d 50 a1 bd 3e 64 30 3f
       1.157142 0.43412358 -0.078765966 0.6890296
000370 4b 68 73 3e a2 34 5c be b6 d1 72 bd bb 11 8e bf
       0.23770253 -0.21504453 -0.059282027 -1.1099161

mlp.0.bias f4 [32]
000000 89 97 3f bd 2f db 2d 3e 0e e8 08 be 5d d0 98 bd
       -0.046775375 0.16978143 -0.13369772 -0.07461617
000010 8d 02 18 3d ee fa 23 be 3a 2c a3 be a2 de b9 3e
       0.037111808 -0.16013691 -0.3186968 0.36302668
000020 b5 82 ab 3d 91 01 92 3e f2 e4 96 3e 4c ce c4 3e
       0.0837454 0.2851682 0.29471546 0.38438642
000030 be fc 9c be 3b 7a 82 be 96 80 92 3e 40 b1 dd bc
       -0.30661577 -0.2548388 0.28613728 -0.027062058
000040 e2 ba 0e 3e c9 a5 35 bd a4 68 5c 3c 84 07 b8 be
       0.13938478 -0.04434756 0.013452683 -0.35943234
000050 5b 9c 95 3e 78 8e 80 3e b3 d6 aa 3e 94 74 85 3e
       0.29220852 0.25108695 0.33366928 0.26065505
000060 02 64 44 be 73 ca 13 be 04 e9 8b bd aa 4b 67 3e
       -0.19178775 -0.14432697 -0.068315536 0.22587457
000070 0c cb b4 be 50 92 7d 3e 58 42 8f 3d cd ec 4f 3d
       -0.35311162 0.24762845 0.06995076 0.05076294

mlp.2.weight f4 [32, 32]
000000 c0 65 5e be b6 b7 88 bd 79 5f 89 3e 18 3a 57 bd
       -0.21718502 -0.06675665 0.26830652 -0.052545637
000010 2c eb 17 be 2c e8 39 be 82 72 23 3e aa 58 84 be
       -0.14835805 -0.18154973 0.1596165 -0.25848895
000020 d2 ea 1d be 53 b1 68 be 48 9a 77 be b7 5c 08 be
       -0.15421608 -0.22723894 -0.24179947 -0.13316618
000030 58 1e 00 3e a3 c6 91 3e 8c 56 f3 bd 0a 8b 86 bd
       0.12511575 0.2847186 -0.11881742 -0.06569488
000040 ac 9e 1c 3e 72 aa 31 3e 7a 4d 88 be 28 24 2f bd
       0.15294904 0.17350176 -0.2662161 -0.04275909
000050 e8 c5 d3 bd 61 e5 86 3e 42 b7 9e bd a6 d4 20 3e
       -0.10340482 0.26346877 -0.077497974 0.15706119
000060 2c 87 d3 3d 4a b4 5b 3e 10 08 f1 bd 35 c2 26 be
       0.10328516 0.21455494 -0.11769116 -0.16285022
000070 e9 c0 9a be 66 47 28 3e c6 72 46 be 64 cb 50 be
       -0.30225304 0.16433486 -0.1937972 -0.20390087
000080 f5 82 b3 3e c5 f0 59 bf 8d f7 94 3e 7f 1c c1 3d
       0.3506085 -0.8513301 0.29095116 0.09429263
000090 76 a5 23 be be 86 46 be 3c d6 42 3e f1 3e 8c bf
       -0.15981087 -0.19387338 0.19027036 -1.0956708
0000a0 db 25 b5 3d 1e 54 2e be 23 1b c7 3e 3f d9 28 bf
       0.08845111 -0.17024276 0.3888789 -0.6595649
0000b0 d6 e3 05 be 8e 01 83 3e 6d 7b 35 3d 64 f3 ef bc
       -0.13075194 0.25587124 0.04430716 -0.029290862
0000c0 40 59 e9 3c 0f 55 97 3d 85 10 8a be 1e cd e3 3e
       0.02848494 0.073892705 -0.26965728 0.4449243
0000d0 b8 10 56 3d 63 3b b5 be 0a 61 1c bf 45 a2 60 bd
       0.052262038 -0.3539687 -0.6108557 -0.054842252
0000e0 e6 01 59 3e 83 c5 b8 be 15 48 97 3e 23 a9 ac 3d
       0.2119213 -0.3608819 0.29547182 0.08430698
0000f0 73 12 84 3e 03 06 af 3f e2 46 b4 3e ae 4e dd bc
       0.25795326 1.367371 0.3521033 -0.027015056
000100 f0 7f 9e 3c 10 63 5a be ae b0 0f 3e b2 eb 78 be
       0.019348115 -0.21326852 0.14032242 -0.2430866
000110 3e 0e 71 be 57 36 63 3d 18 ad e3 bd 75 b4 0a bd
       -0.23540589 0.055471744 -0.111169994 -0.033863503
000120 7b 14 a4 be 88 ad 86 3e af 6e 31 be 1d 8f 59 3d
       -0.32046875 0.2630427 -0.17327379 0.053115
000130 c9 42 9a be c2 58 e1 bd d0 4f 14 3e 49 71 d0 bc
       -0.30129078 -0.11003257 0.14483571 -0.025444644
000140 66 5c 4d be 7e 8a 18 3e b4 80 33 3e 28 6c 8c bd
       -0.20054778 0.1489658 0.17529565 -0.06856567
000150 59 5a 65 3e a6 7b 36 3e 1e 8e e4 3c dc 18 ee 3d
       0.22397746 0.17820606 0.027899798 0.11625835
000160 20 d3 e2 3c fb 2f 7a bd a5 6f 8c 3e 10 14 1a 3e
       0.027688563 -0.061080914 0.27428928 0.15046716
000170 bc 93 c4 3d 08 93 a3 be 5e 96 77 be d9 17 2a bd
       0.095984906 -0.31948113 -0.24178454 -0.04152665
000180 3d 5d 9c be 93 e6 ce bd 7a 9d 6d 3e ad 7e 96 be
       -0.30539885 -0.10102572 0.23204604 -0.2939352
000190 c6 19 88 be 3d ea 0d 3d 27 b2 95 be 04 79 60 bd
       -0.26582164 0.034647215 -0.29237482 -0.05480291
0001a0 b2 8e 13 bb 80 7d 1f 3e c6 3a c5 bd 26 08 17 bd
       -0.0022515473 0.15575218 -0.09630351 -0.036873005
0001b0 0a 48 2d 3e 73 87 de bd c8 f7 93 3e bb 6b 42 3e
       0.16922012 -0.10865679 0.2889998 0.18986408
0001c0 80 ff 9b 3c d9 39 0e be d7 88 0a be ce d6 96 3e
       0.01904273 -0.13889255 -0.13528763 0.29460758
0001d0 29 4c 27 be b8 cc 9e 3d 89 b5 80 3d 3d 9f 5d be
       -0.16337647 0.07753891 0.06284625 -0.21642776
0001e0 d0 a9 98 be 50 fa 86 3d f4 fb b7 3d 31 44 f3 bd
       -0.29817057 0.06590712 0.08983603 -0.11878241
0001f0 ba fc 66 3e 9e c6 97 be f9 ab 75 be 54 88 a6 be
       0.22557345 -0.2964372 -0.23991384 -0.32525885
000200 6e 90 b7 3f fd 3d a9 3e 68 ca d7 bd 95 f5 c0 3f
       1.4340951 0.33055106 -0.10536653 1.5074946
000210 d6 d4 4a 3d 87 bb 68 bd 40 1b 50 3d 2c 37 20 3d
       0.049519382 -0.056819465 0.050807238 0.039115116
000220 d1 8c 1b 3e a6 f6 c6 bd 5c 0d 4c 3e bc 84 c5 be
       0.15190436 -0.09715013 0.19926971 -0.3857783
000230 50 a4 0a bd 6d 7d a5 bd 8e 07 0b 3e f1 9b 8b be
       -0.033848107 -0.08080564 0.135771 -0.2726741
000240 d3 bc ef 3d 43 c3 22 3d c8 a4 2a be 4a 67 11 3f
       0.11705937 0.039736997 -0.16664422 0.5679823
000250 ee a1 8c 3f 62 4e 30 be 1e f7 93 be a3 25 02 3f
       1.0986917 -0.172174 -0.28899473 0.5083868
000260 5a f2 7a 3e 55 6f 9e 3d b8 1e 1e 3e 92 44 24 bd
       0.24506512 0.07736079 0.15441406 -0.040104456
000270 a1 ba 89 3e 01 b8 31 3e 7d dc 82 be b5 96 80 3f
       0.269002 0.17355348 -0.25558844 1.0045992
000280 a4 f0 4e bf 32 41 81 bb a0 a5 26 3e 7b b3 b0 bf
       -0.8083594 -0.0039445395 0.16274118 -1.3804773
000290 c0 a1 6e 3e 8f cf ab be 34 39 04 3e cc 40 8a be
       0.2330389 -0.33556792 0.12912446 -0.2700256
0002a0 ae f3 52 be 2d 52 30 bd 89 d4 6a 3e 1a 05 a2 bd
       -0.20600769 -0.04304712 0.22932638 -0.07911129
0002b0 2d b0 66 be 5e 64 a7 3d d5 b9 b2 3e da a2 9f 3d
       -0.22528143 0.081734404 0.34907404 0.07794733
0002c0 30 df b1 3e f5 35 bb 3d 09 38 14 3d 6d 09 7c 3d
       0.3474059 0.09141151 0.03618625 0.061532427
0002d0 e5 38 a4 bf a3 cf ff bd 4d e4 a4 3e ef 7e 73 bf
       -1.2829863 -0.124907754 0.3220543 -0.9511556
0002e0 ee 4f 82 bd c8 e7 0b 3e 46 74 48 3e 8d f8 51 3e
       -0.06362902 0.13662636 0.19575605 0.20504971
0002f0 32 1c ef bd 5d 87 28 bf a2 38 33 3e 64 03 39 bf
       -0.116753 -0.6583155 0.17502072 -0.722708
000300 37 cf 5c bf 03 bc 81 3e c4 1c 0b 3e d4 db 82 bf
       -0.86253685 0.25338754 0.13585192 -1.0223336
000310 32 bb a5 3e 03 19 dd bd 1d 1a 94 3e b5 2c 20 be
       0.3236938 -0.10795786 0.28926173 -0.15642054
000320 7c 70 08 be bf 13 b0 3d 3c a3 26 3e bb 0a bb bd
       -0.1332416 0.08597516 0.16273206 -0.09132906
000330 ea 25 20 be ac 5d a7 3e 79 64 5c 3e 7c 42 b4 3d
       -0.15639463 0.32688653 0.21522702 0.088017434
000340 19 27 86 be 05 fd f7 bd 23 7e 10 be ce a4 8a be
       -0.26201704 -0.121088065 -0.14110617 -0.2707886
000350 ae f4 2f bf 6b ce 52 be 6a 17 fd bd 96 a9 33 3d
       -0.68732727 -0.20586555 -0.123579815 0.0438629
000360 f6 e2 45 3e 04 b7 a6 3d 10 a7 5c 3d 39 3a a9 3e
       0.1932486 0.08140376 0.05387026 0.33052233
000370 8d 49 28 be 7b 34 9d 3c ca d7 a7 3e de 5b 67 be
       -0.16434307 0.019190064 0.3278182 -0.22593638
000380 b4 94 1c be f2 0e 85 3e ae cc 57 3e 5d ad 92 be
       -0.152911 0.25987965 0.21074173 -0.2864789
000390 11 f9 5b bd 47 e8 25 3e 39 1e 91 be bd 52 de 3d
       -0.053704325 0.16201888 -0.2834337 0.10855625
0003a0 78 63 3e be 1d f0 31 bc 0a ad 77 be 91 b5 1c bd
       -0.18592632 -0.01086047 -0.24187103 -0.038259093
0003b0 04 e8 e7 bd 55 9d 3b 3c 29 5c b2 3d f6 7b 66 3e
       -0.1132355 0.011451085 0.087089844 0.22508225
0003c0 ce ea 72 3e 98 27 56 be d6 a0 91 be c0 8b b4 bb
       0.23722383 -0.20913541 -0.2844302 -0.0055098236
0003d0 c5 90 48 be e8 34 98 bc 48 50 3b 3d 97 0b ff bc
       -0.19586475 -0.018579915 0.04573086 -0.031133456
0003e0 16 69 c5 bd f6 eb bc 3d 62 7a e1 bd d9 ed 29 bd
       -0.09639184 0.092246935 -0.11009671 -0.041486595
0003f0 98 36 24 3d 9b f7 7a 3e 62 39 a4 be af 59 8b be
       0.040091127 0.24508516 -0.3207503 -0.2721686

mlp.2.bias f4 [32]
000000 38 b1 f2 3c 37 be 47 bc 7e 65 d4 bd dd ba e0 3d
       0.02962552 -0.012191347 -0.103709206 0.10973141
000010 39 cb a0 3c 64 f6 a0 3d 7e 79 6f 3e 9a 12 56 bd
       0.019628154 0.07859495 0.2338619 -0.052263834
000020 75 b2 e2 bd 2c 42 43 3e f7 dd bb 3c cb 92 aa bd
       -0.11069194 0.19068211 0.02293299 -0.0832878
000030 fb ef 8e bd 2a 08 ff bd d3 f8 99 bc 3a 42 a6 3d
       -0.069793664 -0.12452729 -0.018795406 0.081181005
000040 cc 22 33 3d 0a 95 08 be 64 1f 84 bd 0d d3 ea 3d
       0.043734357 -0.13338104 -0.064513 0.11466036
000050 5e e5 33 be 17 f0 90 bd 6a ba 08 3e 77 6f 53 3e
       -0.17567965 -0.070770435 0.13352361 0.20647989
000060 e0 fa 0f bb 5b 59 91 bc d0 5d 56 3e 97 68 8a 3d
       -0.0021969602 -0.017742803 0.20934224 0.0675823
000070 35 14 d4 3c 52 91 48 3e 7f c8 16 3e 32 15 17 be
       0.025888542 0.19586685 0.1472492 -0.14754179

mlp.4.weight f4 [32, 32]
000000 a6 2c 92 bd 0d 0a 00 3e 5a ee 74 be 07 b0 a6 be
       -0.07137422 0.12503834 -0.23919049 -0.32556173
000010 81 8a 84 be 48 8b c0 3d 43 25 d0 3d 5a 1c b7 3d
       -0.2588692 0.09401566 0.10163357 0.089409545
000020 5a 71 54 3e 4e 73 bd 3d ad c6 26 be 91 6a 87 be
       0.20746365 0.09250508 -0.16286726 -0.2644849
000030 6b 2a 85 3e fb 29 b1 bd 40 b5 33 bd eb d2 88 3d
       0.26008925 -0.08650585 -0.043874025 0.066808544
000040 48 3f 58 3d 76 59 82 be e9 68 a4 3d 73 ee 57 3e
       0.052794725 -0.25458878 0.080278225 0.21087055
000050 83 ea 04 be 9a 0a 2c 3e 4b a1 3c 3e f8 1d c9 be
       -0.12980084 0.16800919 0.18420903 -0.39280677
000060 d6 56 a8 be 60 db 59 be 68 df 67 3e 4c 95 d7 b8
       -0.3287875 -0.21275091 0.22643816 -0.000102798076
000070 98 4b 8a bd bd 2a b8 be 4b 68 9b 3e ef d1 a7 bd
       -0.067526996 -0.35970107 0.30353007 -0.081943385
000080 25 8c 92 3e ff 34 48 be d8 83 aa 3d 1a 0e 23 be
       0.28622547 -0.19551466 0.083259284 -0.15923348
000090 3f 0a 0d be d2 c3 b0 3d 2c ff 35 bc d8 7a c4 bd
       -0.1377344 0.086311 -0.011108201 -0.09593743
0000a0 bf 25 0d be 88 7e 9d 3d f4 72 86 bd 89 9f 93 3e
       -0.1378393 0.076901495 -0.06564894 0.28832653
0000b0 24 93 b1 3d c9 d6 3f be 78 7b b5 3d 45 07 cb bd
       0.08670643 -0.18734278 0.088614404 -0.09913496
0000c0 bc 66 d6 3d da e9 1a 3e 2e 4a 7b be 95 2f d6 3d
       0.10468814 0.1512827 -0.24540016 0.10458294
0000d0 10 03 94 3c 9c a3 9f be 27 5b 8a bd 2c 7d 3a 3d
       0.018067867 -0.31179512 -0.06755667 0.04552953
0000e0 cd 86 91 3e 06 fc 13 3d a4 ae 7d 3d 7d e6 45 be
       0.28423157 0.03612902 0.06193413 -0.19326206
0000f0 c6 69 73 3e df b2 89 be 5d 5b e7 bc b5 8e 5e be
       0.23770818 -0.2689428 -0.028241808 -0.21734126
000100 6c b4 34 3e 71 29 2d bf 99 c4 88 bc 43 af 88 3e
       0.1764695 -0.6764136 -0.016695308 0.26696214
000110 97 0d 4f bf be 92 d8 3e 8e 97 ec 3e ff 82 31 3e
       -0.8088011 0.42299455 0.46209377 0.17335127
000120 32 19 7f be b3 d0 af 3e 1f 51 98 3e 78 5e dc 3d
       -0.24911955 0.34338912 0.2974939 0.10760206
000130 0e c2 23 3e ec d0 d2 be 96 65 4a 3e f0 90 e2 bc
       0.15991995 -0.4117502 0.19765314 -0.027657002
000140 02 1d 4b 3e 88 b7 68 3d 40 e7 0a bf f5 f0 a9 bd
       0.19835284 0.056815654 -0.5425911 -0.08297912
000150 3b 10 4a be 35 e1 97 bd 67 e5 af bd 97 88 eb bd
       -0.19732754 -0.07416002 -0.08588677 -0.11500662
000160 3f 31 03 bf b5 3b e1 3d 3d cb fd 3d 15 04 94 3d
       -0.5124702 0.10997716 0.1239228 0.07227341
000170 61 95 92 3e 0b 55 f4 3d ad f6 50 3e ca 8e a4 3d
       0.28629592 0.11930283 0.204066 0.08035047
000180 d2 b1 91 be b4 f5 80 3d e0 17 7a bc 76 38 72 3e
       -0.2845598 0.06296864 -0.015264481 0.2365435
000190 69 48 c8 3d 00 93 14 bd c7 6c 7b be c0 2f 07 3e
       0.09779436 -0.036273003 -0.24553214 0.13201809
0001a0 37 82 87 be aa 46 89 be ee b4 50 3e da 3f ba bd
       -0.26466534 -0.26811725 0.20381519 -0.0909421
0001b0 3f af 93 3e f3 ef 94 3e c8 d0 b7 3d 4e e3 cf 3d
       0.2884464 0.29089317 0.08975369 0.10150777
0001c0 69 64 83 3e 94 53 e3 3d fd 54 2f be 28 b5 67 bd
       0.25662544 0.11099926 -0.17122264 -0.05656925
0001d0 fe 3e 1e 3e 4c a4 26 bd 55 f1 36 3e 00 b8 0c b9
       0.15453717 -0.04068403 0.17865498 -0.00013419986
0001e0 11 e9 82 3e c6 42 a0 be 48 93 dc 3d 60 ce 77 bc
       0.2556844 -0.31300944 0.10770279 -0.015124887
0001f0 da d8 aa be 46 27 d1 bc 68 95 45 bd 31 0a 85 be
       -0.3336857 -0.025531422 -0.048238188 -0.25984338
000200 38 94 12 bd 1f c6 be 3d 39 92 f5 3a c3 b0 89 bd
       -0.035785884 0.09315132 0.0018735594 -0.06723168
000210 cf 02 13 be e5 df 9f bd ca 95 16 be eb 8c b8 3c
       -0.1435654 -0.07806376 -0.14705577 0.022528132
000220 c7 59 9e 3e 6c a5 bc 3d cf b1 ad 3d e8 d9 83 be
       0.3092787 0.09211239 0.0848118 -0.25752187
000230 ba 96 3c be ee c0 b0 bc 2f 41 87 3e e1 e5 a8 be
       -0.18416873 -0.021576371 0.2641692 -0.32987884
000240 80 32 fa 3c ca b7 6a 3e cd 2e 92 be 01 2c 8c bd
       0.030541658 0.22921672 -0.2855133 -0.068443306
000250 14 37 04 3e c9 52 1a 3e d9 eb 28 3e a1 44 18 be
       0.12911636 0.15070643 0.16496219 -0.1486993
000260 9f da bb be e4 e3 3e 3e 4b 93 01 be fc 4d 9d 3e
       -0.36690232 0.18641621 -0.12653844 0.3072356
000270 0c f0 42 3e ae 77 6b 3e b8 ab 28 be 7c e4 85 3e
       0.19036883 0.22994873 -0.16471756 0.26150882
000280 aa cf 0b 3e bf c3 23 bf d8 8d 9a be 2f bb 8e 3e
       0.13653436 -0.6397056 -0.30186343 0.27877185
000290 83 ae 3c bf 44 3f ed 3e 74 d7 58 3e 1e 1a e6 bc
       -0.73703784 0.4633733 0.21175939 -0.028088626
0002a0 25 cf 12 3e df 6a 82 3e 4e 55 a3 3d d0 a4 1b bd
       0.14336832 0.2547216 0.07975255 -0.037998974
0002b0 50 c5 b1 3c 22 58 1d bf 08 6f 2e be ed a8 b2 bd
       0.021700531 -0.61462605 -0.17034543 -0.08723626
0002c0 a4 83 12 be e8 ad 42 bd 62 fd 36 be a2 b8 09 3e
       -0.1430803 -0.04752913 -0.17870095 0.13449338
0002d0 db fa 03 be 93 32 bb 3d c8 8c 8e be 52 56 38 be
       -0.12888663 0.09140506 -0.27841783 -0.18001679
0002e0 fb 23 93 be 07 50 0f 3e 39 76 f9 3e 63 5e b1 3e
       -0.28738388 0.13995372 0.4872301 0.34642324
0002f0 cf f9 1e 3e 25 5d 02 be 13 24 c1 3e de 79 ea 3d
       0.15524982 -0.12730844 0.37722835 0.114490256
000300 44 ac 2e 3e ac 92 06 3d 92 e7 20 be 57 d4 44 be
       0.17057902 0.03285472 -0.15713337 -0.19221626
000310 17 25 f8 be b5 6b d8 3e 20 cc 38 bc c4 b7 ec 3d
       -0.48465797 0.42269674 -0.011279136 0.11558488
000320 32 7d fb 3a 95 b6 82 3d 93 e0 de bd 42 eb 65 be
       0.0019187091 0.06382481 -0.10882678 -0.22453025
000330 12 5a 2f 3e 5e 38 15 be 1c 0f 99 3d b6 49 f6 bd
       0.17124203 -0.14572284 0.07473585 -0.12025778
000340 ea 1a 97 bd 43 84 70 be 0d f5 f5 bc 3c b1 ab bc
       -0.0737818 -0.23487954 -0.030024076 -0.020958535
000350 5b e1 07 be 89 97 d3 3e c3 19 9c 3d 5e c9 ca be
       -0.1326956 0.4132655 0.07622101 -0.39606756
000360 06 78 83 be b8 da 31 3e ed 8d 37 3e 5c 04 e6 bd
       -0.25677508 0.17368591 0.17925234 -0.112313
000370 3e 6a 40 3e b8 7e 96 bc d7 18 95 3e a0 8b 53 3c
       0.18790528 -0.018370971 0.29120514 0.012911707
000380 f0 f8 5c 3d 96 e1 05 bf ba a8 b1 bd 6b 5f 73 be
       0.053948343 -0.5229734 -0.0867476 -0.23766868
000390 7c 5c 83 bf 92 a7 0e 3f 6b c3 34 3e 06 ed 2f bd
       -1.0262599 0.5572444 0.17652671 -0.042950653
0003a0 bf 24 f2 bd 64 33 29 3d 50 4a 72 3e 98 1e ba 3d
       -0.11823415 0.041308776 0.2366116 0.090878665
0003b0 40 05 87 3b 24 40 2f bf 80 cc bb bc 05 52 93 be
       0.004120499 -0.68457246 -0.022924662 -0.28773513
0003c0 c5 b1 75 be 50 5c 8a 3c 79 3c 18 be 0a 71 f3 bc
       -0.23993595 0.016889721 -0.14866818 -0.029716987
0003d0 d7 ec 81 3e f4 43 03 3f f5 76 24 bd 40 b7 9e be
       0.25376007 0.51275563 -0.04015251 -0.30999184
0003e0 a8 57 a6 be 5d 6e d5 3e f4 17 a6 3e 46 f8 94 3e
       -0.3248875 0.41685763 0.3244015 0.29095668
0003f0 ec f6 b2 3e d5 88 c1 be ca d8 a5 3c e7 74 dd 3e
       0.3495401 -0.37799707 0.020244975 0.43253252

mlp.4.bias f4 [32]
000000 17 e2 47 bc 22 18 34 3d e4 70 10 bd ac 46 0b 3d
       -0.0121999 0.043968327 -0.03526391 0.034002945
000010 56 bd 25 3e d7 b9 58 bd b0 c6 15 bd 43 63 e3 3d
       0.16185507 -0.052911606 -0.036566436 0.11102917
000020 0d 5e 45 3c ac 3b dd 3d e4 d5 9c 3d 32 52 68 3d
       0.012046349 0.10802397 0.07657984 0.056719013
000030 e3 50 8c 3e 0d 65 21 be 49 cb da 3c 92 d7 95 bd
       0.27405462 -0.15761204 0.026708262 -0.073165074
000040 d2 72 18 3e 5f 2f 0c 3e 8d fd 5e 3e f3 f0 40 3e
       0.1488755 0.13689946 0.2177641 0.18841915
000050 3c 06 21 be d9 82 4b 3d e1 c6 20 3e 30 07 56 be
       -0.15725034 0.049685333 0.15700866 -0.2090118
000060 c9 e2 5e be 81 47 05 be 2b bd 25 3e 40 2a b7 bb
       -0.21766199 -0.13015558 0.16185443 -0.0055897534
000070 51 71 88 bd 87 1e 02 be d0 60 09 be 09 de fb bc
       -0.066622384 -0.12706958 -0.13415837 -0.030745523

mlp.6.weight f4 [2, 32]
000000 de 35 6e 3e 11 60 22 be 69 d9 9a 3e 14 11 99 3d
       0.23262736 -0.15856959 0.30243996 0.074739605
000010 95 0d 05 bd b5 bf 96 3e 4b e2 78 3e 4e d7 0a 3f
       -0.032483656 0.29443136 0.24305074 0.5423478
000020 33 3f d9 3e c2 53 b6 be 00 4f de 3e 36 bf 3a bf
       0.4243103 -0.35610777 0.43419647 -0.72948015
000030 1a 54 12 3f 29 bd 1c be e1 0e 9b be 71 0f 47 bd
       0.5715958 -0.15306534 -0.3028479 -0.04859871
000040 0b 54 a0 3e f2 53 6b bf 51 9f 0e be 57 e1 f8 be
       0.3131412 -0.91924965 -0.13927962 -0.4860942
000050 5c da 60 3d a5 f1 88 bf 43 80 97 3e 79 ee 89 3e
       0.054895744 -1.0698744 0.29590043 0.26939753
000060 2e 70 0e bf c8 41 d2 bd 2f 9d 8b 3e 00 71 94 be
       -0.5563992 -0.10266453 0.2726836 -0.28992462
000070 bb f8 51 3e 7f b0 b9 3e 8f 29 bf 3e db 61 de 3e
       0.2050504 0.36267468 0.37336394 0.43434033
000080 1b d3 9b bc 71 c4 e3 bc 84 57 1f 3f 9f c3 91 bd
       -0.019021561 -0.027803631 0.62242913 -0.0711739
000090 b9 96 4b 3e 87 7a da 3e 31 ba 0d 3f 9c 0a 18 3f
       0.19881715 0.42671606 0.5536223 0.5939119
0000a0 78 9d e8 3e 5b 59 0b bf 65 66 7d 3c c0 41 10 be
       0.4543264 -0.5443322 0.015466307 -0.14087582
0000b0 e5 81 6c 3e b6 25 ce be 31 da 7b bc 87 eb 7e 3d
       0.23096426 -0.40263146 -0.015371845 0.062236335
0000c0 eb 57 11 3e 8d 4d 3e bf d5 06 32 bf 05 2d 25 bf
       0.14193694 -0.74337083 -0.69541675 -0.6452182
0000d0 c8 54 01 3e 19 63 2d bf 36 f7 eb 3e b7 43 cc 3c
       0.12629998 -0.67729336 0.46087044 0.024934633
0000e0 b4 ad 9d be 4e d8 45 3e 21 47 c8 be f8 ac 11 3d
       -0.30796587 0.19320795 -0.39116767 0.035565346
0000f0 87 fb 06 3f dc 94 83 3e 5f e5 00 3e 49 37 2a 3f
       0.5272755 0.25699508 0.12587498 0.6649061

mlp.6.bias f4 [2]
000000 72 fa ab 3d eb ba 23 3d
       0.08397378 0.03997318
