tmp_result/dqn.pt (torch, 21953 bytes, 12 tensors)

mlp.0.weight f4 [32, 7]
00000000: 6e6e 59be 476b 2bbe 6255 583e 800a 673c
00000010: d4ea c5bd a0c4 b7be d2fa 573e 68e5 863e
00000020: 2033 78bd 435a 33be 3068 023e 9712 8c3e
00000030: 5deb 1b3d 1a90 0a3e 4712 ec3d 7818 a43e
00000040: 9117 7abe 5568 043b 43ac 813e e780 1bbe
00000050: 6f7e ebbd 5f54 d4bd 1b3d 403e ea05 a0be
00000060: 3e85 0e3e c7d2 26bb 39ba 323e 2f85 1f3e
00000070: 274f 67be a969 453e 2d86 b13c 932a 853c
00000080: 4b3d 9f3e a1a8 38be 9b04 86bd 3b1d 9e3e
00000090: dc47 0c3e 3e98 413e 005f bd3e 807f 363e
000000a0: 8ea8 ae3e 7a60 d2be 936b b5be 021b 2a3e
000000b0: 20a5 9a3d ad98 803e 1da7 70be e9c9 c03e
000000c0: a25f c3be 4bfb 55be 920d df3d 0f43 973e
000000d0: bfc4 9bbe c061 543e c048 c13e 26d8 833e
000000e0: f4a9 37be 50c5 233c 2907 bfbd 982f a03e
000000f0: 4f99 bd3c 7e03 a73e 182f 903d 2f06 2e3d
00000100: ef03 fc3d e3df 77be 4429 d0bd 571a 893e
00000110: 06d1 dd3d efbc 2ebc 1cd0 733e f4be b7be
00000120: 4295 8b3e 9647 e03e 4269 d93e a351 6bbe
00000130: a503 2d3e 6fe6 bd3d 4b12 db3d efda 70bd
00000140: 1ada 913e 02e8 c1bd 23a5 c93e 1f3d fc3e
00000150: 70fc a6bd 0938 63be 2896 873d 508d f4bd
00000160: 45a1 933e bc1d ae3d 90f6 05be 6af8 2fbe
00000170: c0ff c83d cff3 1cbe d2de 063e 7546 26be
00000180: 8cfb 813d 14eb 8e3d a4be 0dbe 7ca3 ba3c
00000190: ead1 71be a7e8 3c3e c565 f83d 06f4 04be
000001a0: bd8a 4f3e 2d0c a3be 0da6 8f3e db2b 47be
000001b0: e3e7 92be fc25 80bd 04bb bf3d 8436 9fbd
000001c0: bd45 29be 96b3 403d 7a2f 953d 070a 9dbe
000001d0: c013 673d 7bf1 b43e be25 fcbd b4f1 93bd
000001e0: 28b5 7a3e 8791 81be e75c aabd 548c ed3e
000001f0: 8f5a 7f3e 914c 393e 8563 1abe bd16 3f3d
00000200: 8a4c af3e 17f1 e8bd 826f 3e3e 333d 143e
00000210: e372 bb3e 090e 9c3e 2e3f 103e f872 a6bd
00000220: 9042 63be 9a94 153e 401e 7cbd 5bad c3be
00000230: 212f 983c 3a82 933d a6ba f2bd f070 c03c
00000240: e58a 49be 3d9c a3bd f215 fd3d 8fec f1bb
00000250: 974e 833e f84e 553d f13b 823d 91a3 713e
00000260: 69e4 7abe c29d 023e 8f92 d93e 8a2f 7f3e
00000270: c0c7 b4bd 96f7 bf3e 4772 ce3e 9185 f6bd
00000280: 3ee6 d7be fafe c6be c38b 533e bce6 843e
00000290: f6ae 883e e54a 313e 8591 223e 9145 fa3d
000002a0: 4077 e1bb 0266 043e f8dd d1bd 3330 853e
000002b0: 06ac c7be ec24 c13d ec2e f1bd 34eb 22bd
000002c0: 1807 c23e 72ce 23be 3b80 c2ba 6c6a d23d
000002d0: be89 de3e 54f6 c33e e4f6 54be d382 f53e
000002e0: 62a6 6bbe 1039 95be 04ff b33e c16c dc3e
000002f0: 3fa8 8fbe c453 4e3e 1960 1e3d ab8a 2d3e
00000300: af65 b4be e1c2 b03e a3f0 dc3d 8e11 0cbe
00000310: b6f2 1e3e e2b9 84be 9534 bf3e 103d c4bd
00000320: 401a b13c eee1 bfbe 9d12 9abe afb1 f6bc
00000330: c8e1 01be cb11 8ebe 9cce 863e 7477 b4bd
00000340: f499 b43e 6947 eabd d830 2a3e eb07 2abc
00000350: 6ce3 1aba 1479 a73e 801d dc3e 1a6e 9abe
00000360: 5e67 01be 3c95 323e 81c9 62be 9782 a13e
00000370: c43e 953e 3a78 48be d976 5c3e 9e81 953d
-0.21233532 -0.16740142 0.21126321 0.0141016245 -0.096639305 -0.358922 0.21091774 0.26346898
-0.06059563 -0.17514901 0.12735057 0.27357933 0.038066257 0.13531533 0.115269236 0.32049918
-0.24423052 0.0020203788 0.25326738 -0.15185891 -0.11498725 -0.10367655 0.1877331 -0.31254512
0.13918015 -0.0025455223 0.17453851 0.1557815 -0.22588788 0.19278587 0.021670425 0.016255653
0.3110145 -0.18033077 -0.06543847 0.30881676 0.13699287 0.18905732 0.36986542 0.17822075
0.34112972 -0.4108923 -0.35433635 0.16611865 0.07551026 0.25116482 -0.23501249 0.37654045
-0.381589 -0.20896642 0.1089126 0.2954335 -0.30423543 0.20740414 0.37750816 0.25750846
-0.17935926 0.009995773 -0.093275376 0.3128631 0.023144392 0.32619852 0.070402324 0.042486366
0.12305438 -0.242065 -0.10164121 0.26777908 0.10830884 -0.0106651625 0.23809856 -0.35887873
0.27262312 0.43804616 0.42463118 -0.2298036 0.16895922 0.09272467 0.106968485 -0.05880254
0.2848671 -0.0946808 0.39383802 0.49265382 -0.081536174 -0.22189344 0.06620437 -0.11941016
0.28833976 0.08501765 -0.13082337 -0.17184606 0.098144054 -0.1532738 0.13170937 -0.16237815
0.06346807 0.06978431 -0.13842255 0.022783034 -0.23615232 0.18448125 0.12128786 -0.12983713
0.20267768 -0.31845227 0.28056374 -0.19450323 -0.2869254 -0.06257245 0.09361842 -0.0777407
-0.1653051 0.047046266 0.07284446 -0.30671713 0.05641532 0.35340485 -0.12311886 -0.072238356
0.24483168 -0.2530634 -0.08318501 0.46396124 0.24936889 0.18095614 -0.15077026 0.046652544
0.34238082 -0.11374109 0.18597224 0.1447647 0.3661109 0.30479458 0.14086601 -0.08127397
-0.2219336 0.14607468 -0.061552286 -0.38218197 0.01857716 0.07202573 -0.118520066 0.023491353
-0.1968189 -0.079887845 0.12357701 -0.0073829363 0.25645897 0.052077264 0.06359089 0.23597552
-0.24501194 0.12755492 0.42494628 0.24920478 -0.08827162 0.3749358 0.40321562 -0.120371945
-0.42167848 -0.38866407 0.20658784 0.25957286 0.26695985 0.17313726 0.15875824 0.122203
-0.006880671 0.12929538 -0.10247415 0.26013336 -0.3899843 0.094308704 -0.11776528 -0.03977509
0.37896037 -0.15996721 -0.0014839241 0.102742046 0.43464464 0.3827387 -0.20797306 0.47951373
-0.23012689 -0.29145098 0.351555 0.43051723 -0.2805805 0.20149142 0.038665865 0.16947429
-0.35233828 0.3452368 0.10788085 -0.13678572 0.15522274 -0.25923067 0.37344804 -0.09581959
0.021618962 -0.37477058 -0.30092326 -0.030114023 -0.12683785 -0.2774795 0.26329505 -0.088118464
0.35273707 -0.11439402 0.16620195 -0.010377864 -0.0005908522 0.32709563 0.42991257 -0.30162126
-0.12637088 0.17439741 -0.2214718 0.31544945 0.2914945 -0.19577113 0.21529712 0.07300113

mlp.0.bias f4 [32]
00000000: 84f5 a5bd e811 b23d 5c9f 17be 6d63 6d3d
00000010: 721d 1b3e 4fb2 0bbe 3a2c a3be bbc0 743e
00000020: 0693 bd3d 506f 653e dbbf 783e 4a96 b43e
00000030: befc 9cbe f9fc 2dbe 4292 d73d 6809 96bd
00000040: fd05 443e f2b8 cb3c bc03 873d 53aa b7be
00000050: 23e2 923e a670 7b3e f17a c03e 9f9c 823e
00000060: 0264 44be aa66 9cbd 4d8d 8d3d 6fe8 193e
00000070: 0ccb b4be fb81 603e 7295 083e 6a28 b43d
-0.08103469 0.086948216 -0.14806885 0.057956148 0.15147951 -0.13642238 -0.3186968 0.23901646
0.09256558 0.22405744 0.24291937 0.3527091 -0.30661577 -0.16991033 0.10525943 -0.07326013
0.1914291 0.024868462 0.06592509 -0.35872135 0.28688154 0.2455469 0.37593797 0.25510117
-0.19178775 -0.07636769 0.069117166 0.15030073 -0.35311162 0.21924584 0.13338259 0.08796771

mlp.2.weight f4 [32, 32]
00000000: 7a50 f5bd fe8b b73d 0a5e db3d 8084 793d
00000010: 7214 a83e f9ea 023e 8059 34bc dfde e03c
00000020: 85d4 c8bd 4163 843e e6e0 443e b105 ffbd
00000030: bf7f 44be f0aa 05bd df6d 74be 8488 943d
00000040: 0c6b 33be 2d52 3d3e 27a7 55bc e015 62bd
00000050: b4ea 18be df3e dabd 6a51 553e 27bb dabd
00000060: 4043 8f3d c29e ad3e e632 333e df6f 7dbe
00000070: c4c9 0cbe 52da 78be 4b90 65be 9c33 25be
00000080: 3ff3 8b3e e6ca 6a3e 2032 cc3d 88f8 e93d
00000090: 291d 3bbe 9c23 7ebe 5072 e73c 9640 4f3e
000000a0: c615 4a3e f228 793e 6fe1 83be 60d2 81be
000000b0: f4e4 18be a0f7 4cbc acc5 8abe 2cca 65be
000000c0: b00a 2f3e 645c 133e a4b9 97be c287 6e3e
000000d0: 46cf 0abe 6dd3 92be 96ce d4bd 98af 06be
000000e0: 207a 83bc 60af 763d 1487 973d 7ab2 2bbe
000000f0: 34e2 d8bd 803d 5fbd f07f 383d f5cd 0dbe
00000100: adb6 873e 6076 87bc 9a54 233e d0e8 bcbd
00000110: 00fe 37ba ca86 97be 006a de3b 539e 3ebe
00000120: f210 acbd cfdf 913e 14eb 51be 28d7 49bd
00000130: 054f 82be aa0c 86bd c844 7dbe 460c 4e3e
00000140: c205 5d3e 6c39 96be 1544 883e 75fd 1abe
00000150: 7ec5 4abe 0c7a 1ebe 2024 aebc d5bb 26be
00000160: ba5e 94bd 7476 41be fce8 65be b0d8 813d
00000170: 4ea3 313e 9d2a 38be 8099 6bbe a663 143e
00000180: 86f0 723e 2847 4e3e 29ac 823e cba8 c33e
00000190: 6ce3 8d3e 15b2 35be 66fb 47be 7ac6 d0bc
000001a0: ce9e 8e3e e6f0 cfbc ac68 883e ca01 863d
000001b0: 8109 03be fab7 7fbe ff57 39bd a608 5e3e
000001c0: 45c0 8c3e ecbf 113e 06f8 373e d8c8 4a3d
000001d0: fbf6 623e 8395 38bc b126 81be 6cab 0f3c
000001e0: 988e d2bd 7a9a f73d 2649 c63e dfdc 39be
000001f0: b8a7 da3d 0da5 f03b 9f54 f9bd 792a 893e
00000200: d08c 383e 5bbe 05be 2ab4 593e c302 d43e
00000210: cce6 6f3e 7f53 873e 9887 73be f80b 793e
00000220: 98ba a93e b4ca 2b3e 1eb0 8a3e 4b5f 873e
00000230: dc72 e93d 7203 cebd cc83 aabd aae6 443e
00000240: b9b4 6cbe 0f47 4d3e 4ba4 2cbe a01f 08bc
00000250: 500d 853e 3eb4 4e3d a4f4 dc3d 910b 98bd
00000260: 07e7 8b3e b54c 37be 0271 3a3e dd63 8ebd
00000270: d527 8b3e 9f3b a5bd dc15 c9be 92fa 1b3e
00000280: 402b 3d3e 0a92 3ebe ea00 46be f58b 84bc
00000290: 584c 02be a403 a73e ce9f 543e a611 423e
000002a0: 0a82 203e e4f2 aabc 6ade b03e 8ec7 c23d
000002b0: c626 5e3e 36f7 583e b0b9 843e 1a86 6b3e
000002c0: 88bb 1d3e 0e1c c73e 8328 1bbe d06a 423d
000002d0: 517f 6a3e 2ab8 5e3d 2da7 663e 1e85 80be
000002e0: a287 f5bd 3172 9e3e d42e 9f3d c558 2f3d
000002f0: a0d2 023d f4d2 983e 839e 573e 6444 20be
00000300: e274 90be a23c 263e 6580 a03d f3ca afbc
00000310: 5a4c 413d e326 14bd 908f 6ebe 27e0 d4bd
00000320: f579 b23b b129 3d3e 46d3 233e 9797 a33e
00000330: 7edf 7b3e d0ae fa3c 0bc5 08be 882b 973d
00000340: 3340 403e 0064 ca3e 6bff 203e 0058 4d3a
00000350: 5654 66be f562 9a3d 57bf 6e3e e9e5 4ebe
00000360: 4d98 93be 6498 c33e 99ee 12bd fa0d 80be
00000370: 5ad0 c9bd 681d 23be 7c90 0bbe 23c3 be3d
00000380: 7cb1 acbd a546 8cbe 3e71 a8bd f042 bcbc
00000390: c5d1 4cbe a99b 15be 22ee 6c3e bb0b 89be
000003a0: 580d 053d f0ab b33c 527d 223e c731 65be
000003b0: 1cd8 27be 7f61 883e d27e 113e fa8c 98be
000003c0: e0b3 063d 7416 0e3e 26db c7bd a2a0 e3bd
000003d0: d076 a73c 80ad 013d 43b9 10be 388d fc3d
000003e0: e10a 813e 320c 763e 009f febc 094c 9c3e
000003f0: 5883 113e 840c 61be 7e6e 5d3e d209 323e
-0.1197824 0.08962248 0.10711296 0.060917377 0.328281 0.12784947 -0.011007667 0.027450023
-0.0980616 0.25856975 0.19226417 -0.124522574 -0.19189356 -0.03263372 -0.23870037 0.07252601
-0.17521304 0.18488379 -0.0130403405 -0.055196643 -0.14933282 -0.10656523 0.20831838 -0.10680228
0.06995249 0.33910185 0.17499885 -0.24749707 -0.13748842 -0.24302033 -0.22418325 -0.16132969
0.2733402 0.22928962 0.09970498 0.11424357 -0.18272842 -0.24818271 0.02825275 0.20239481
0.19734868 0.24332026 -0.2575793 -0.25355816 -0.14931089 -0.01251021 -0.27103937 -0.22440404
0.1709392 0.14390713 -0.2963382 0.23293975 -0.13555631 -0.2867693 -0.10390966 -0.13152921
-0.016049445 0.060225844 0.07398811 -0.16767302 -0.1059002 -0.05450201 0.045043886 -0.13848098
0.26506558 -0.016535938 0.15950242 -0.09224093 -0.0007018745 -0.29595023 0.0067875385 -0.18615083
-0.084016696 0.28491065 -0.20499831 -0.049277455 -0.25450912 -0.06545384 -0.24733269 0.2012187
0.21584228 -0.29340684 0.26614442 -0.15135749 -0.198019 -0.15476245 -0.02125746 -0.1628259
-0.0724463 -0.18892843 -0.22452158 0.06340158 0.17347452 -0.17985006 -0.23007774 0.14491138
0.23724565 0.20144331 0.25521973 0.38214716 0.27712572 -0.17743714 -0.19529495 -0.025485266
0.27855533 -0.025383424 0.26642358 0.0654331 -0.12796594 -0.24972525 -0.045249935 0.21682987
0.2749044 0.14233369 0.17965707 0.049507946 0.22164528 -0.011266115 -0.25224832 0.0087688975
-0.10281104 0.12090011 0.38727683 -0.18150662 0.10676521 0.0073438943 -0.12174343 0.26790217
0.18022466 -0.13060896 0.21260133 0.41408357 0.23427886 0.2643089 -0.23782194 0.24320972
0.33150172 0.16776544 0.27087492 0.2643989 0.11398861 -0.10059251 -0.083259195 0.19228616
-0.23115815 0.20046638 -0.16859548 -0.008308321 0.2598672 0.05046486 0.10788849 -0.07424081
0.27324697 -0.17900355 0.18207172 -0.06952641 0.27178827 -0.080680124 -0.3927449 0.15232304
0.1847353 -0.18610397 -0.19336286 -0.016180018 -0.12724435 0.32619965 0.20764086 0.18952045
0.15674606 -0.020867772 0.34544688 0.09510718 0.21694478 0.21188053 0.25922918 0.23000374
0.15403569 0.38888592 -0.15152173 0.047465146 0.2290013 0.05437485 0.2252471 -0.2510156
-0.119887605 0.30946496 0.07772604 0.042809267 0.03193915 0.29848444 0.21056561 -0.15651089
-0.28214175 0.16234067 0.07836989 -0.021459078 0.047191955 -0.036169898 -0.23296952 -0.10394316
0.0054466673 0.18472935 0.15998563 0.3195159 0.24596974 0.030600935 -0.13356416 0.0738135
0.1877449 0.3952942 0.15722434 0.00078332424 -0.22493109 0.07538406 0.23315178 -0.20204891
-0.28827134 0.38202202 -0.035872076 -0.25010663 -0.09854193 -0.15929186 -0.13629335 0.09314563
-0.0843229 -0.27397648 -0.08224724 -0.022981137 -0.20001896 -0.14610161 0.23137715 -0.26766762
0.03248343 0.021932572 0.15868118 -0.2238227 -0.16391033 0.26636884 0.14208534 -0.29795057
0.032886386 0.13875753 -0.09758596 -0.11114623 0.020442396 0.031659603 -0.14133172 0.12331623
0.25203612 0.2402809 -0.031081676 0.3052676 0.1421026 -0.2197743 0.2162418 0.17386559

mlp.2.bias f4 [32]
00000000: 617a 423d 4035 31bb e573 a9bd f9bb 083e
00000010: 2950 0d3e 0ea8 0f3e cbc0 173e b8c4 d3bc
00000020: 2ae7 b1bd fb4b 263e ad1f 8ebb b952 b0bd
00000030: 4c52 2cbd 5b04 d8bd 85cd 933c c461 913d
00000040: 5f7c b03d 0a95 08be 70e8 dbbc 2158 023e
00000050: 5901 07be d989 a7bd 4dc1 4a3e b76e 5c3e
00000060: d8a8 5a3b 86fd 22bd bee4 2c3e 0550 ce3d
00000070: ba53 b2bc 7e7a 5f3e 0862 863e 031b 3bbe
0.04747999 -0.0027039796 -0.08274058 0.13352956 0.1380011 0.14028952 0.14819638 -0.025850639
-0.08686669 0.16239922 -0.004337272 -0.08609528 -0.042070672 -0.10547706 0.018042335 0.070987254
0.08617472 -0.13338104 -0.026844233 0.12728931 -0.13184108 -0.08180589 0.19800301 0.2152661
0.00333648 -0.03979256 0.16884133 0.10073856 -0.02176844 0.21824071 0.26246667 -0.18272023

mlp.4.weight f4 [32, 32]
00000000: 2ba9 fcbc 2c6b 5bbe f0f1 0fbd bfac 86bd
00000010: 1e24 c2bd 3e26 0c3e c062 18be 86e7 6d3e
00000020: 483c 5e3e 91ba 7fbe 477d 013e 32c3 4e3e
00000030: 5b82 cdbd 8093 b0bd 7ea3 dabd 503b 1b3d
00000040: e280 7c3e 3ea4 80bd 2b5d 17be 9ea7 283e
00000050: e96e 853e 284e 223e f42f 633e 178b 4a3e
00000060: 81b1 2fbe 692e ef3d 17f9 8bbe cfc7 8ebe
00000070: 1567 f03d 4bdd 083e 6d89 9fbd dcfb 67be
00000080: 17d0 98be 1a3e 323e b39c 983e 946a a23d
00000090: b044 37be 4a2a 94be 0810 84be 4257 bcbd
000000a0: 4031 91bd 00f8 ecba bffe 953e 20bf ebbc
000000b0: 3b1d 823e 58dd 203d 5f15 04be a692 4bbe
000000c0: bae3 29be 102e 193d f61b 683e 9b90 2dbe
000000d0: 371b 913e d078 7d3d fc08 8bbd 88f4 5c3d
000000e0: ee46 333e 9001 383e aea2 d9bd dc7c d13d
000000f0: e08b ef3c 40d9 58bd 5e6a 96be 2cc1 873d
00000100: ad2b 193e 629e 40be d4fe d53d c1ec 22be
00000110: 4536 d7bd 52e4 1f3e 8342 ef3d 3859 753d
00000120: 1910 8a3e d2c7 173e d31c 193e f1ae 993e
00000130: 8b86 edbd c6d3 39be a1d7 f63d e49d 4e3d
00000140: e3e3 8fbe 960e 83be 12d4 8dbe bb8f 773e
00000150: 8630 45be 6afc 18be d64d 48be 8755 2dbe
00000160: fdcd 8f3e 40c7 70bc b3a9 f83d 7858 1cbd
00000170: 144f 6abe 65b1 52bc 9a57 b13b 9e4f a2bd
00000180: 5ddc 67be 3077 f8bc 2f2a 39be 4c14 74bd
00000190: 32ee 14be 7119 0fbe cf7d 05be 607a 473d
000001a0: 980c 94be 4648 c7bd 8518 8e3e 689f af3d
000001b0: ff19 813e c71f 8c3e 7ee1 85bd bf81 803e
000001c0: 4c94 423e 4470 80bd cafb 473e 613d 8f3e
000001d0: 2067 47bd ccf1 8dbd 0e46 573e 3200 7bbe
000001e0: 01da 8f3e 2fee 40be aeaa 3fbe e012 71bc
000001f0: 65d5 9b3e 7062 6f3d 41e2 48be 3735 8c3e
00000200: 499c f63d c0a2 243d e8b0 83be a5ae 813d
00000210: 633d 523e 46d8 50be 1bc7 09bd d0a2 3ebe
00000220: b7e2 c53e 8f67 8bbd d72d d6be 8158 32be
00000230: 611e 90be f0ad d4bd b3ef e3bd dc40 923e
00000240: 4c09 bcbe 3851 1dbe 88ca 5bbe 3451 aebe
00000250: cc3e 6fbe 24ef 84bd a5d7 033e 2bb2 1b3d
00000260: 12ab a13e 21ae 12be 9133 873e 46e5 4d3e
00000270: b0e3 93be 09cc afbd 5913 3bba 9121 a6bd
00000280: a352 9bbe 7414 92be a1f2 36be be10 94be
00000290: f8d1 433d 7f03 83be 7b57 0bbe 72b1 193e
000002a0: a00e 993c 1de9 5bbe f25b e0bd 8ea0 613e
000002b0: 2b1d 8c3e 4a8d 4ebe 2090 dc3d 6c52 7bbd
000002c0: fe8c 88bd 8010 9e3c f013 5bbd 8129 0ebe
000002d0: 04b7 03be 10ae 7d3d 9875 4fbd c0a5 bf3c
000002e0: 72db 743e a2c6 533e a1b8 823e acb9 803d
000002f0: b835 d9bd 3ee4 59be 9caf 313e d068 7fbd
00000300: c950 993e d047 f3bc 0014 e739 da9e ab3e
00000310: 4b3b 8e3e 9924 463e c2ad 923e 60fb f03c
00000320: 8c28 8f3e 2907 223b 4a0d 04bf 08d3 35be
00000330: 7568 dfbd 370c 9a3e bbce 253e d9b0 a13d
00000340: 756c 88be 4ddc 843e 763c 3bbe 059a 9fbe
00000350: 1e81 1dbe 306e dfbe 9cb8 213e ac37 acbc
00000360: 009c 863e ddac 2b3d a0ba 983d 2656 05be
00000370: a2a0 8cbe f335 5abe 72e0 593e 88e4 173e
00000380: 9f26 8ebc ddee 26be 00d1 56be 09ae 74be
00000390: 580c 783e 39a0 873e b4d3 8b3e 72b3 4e3e
000003a0: 806c a93d a4c8 f3bb 16f6 94be 6d3c 3f3e
000003b0: f7eb b2be 059d 85be 5212 3e3e 8997 dd3d
000003c0: c8f0 90be 004a 5e3d e3d7 9bbe c39b 00be
000003d0: 39b6 95be 892d b8be f808 8c3d c901 77be
000003e0: 2cf1 1d3e c2f4 afbd 8796 d23d 1fdb fabb
000003f0: 501a 3c3e bbe0 9abd a65a 25bd bfe6 183e
-0.030842384 -0.21427602 -0.03514284 -0.065759175 -0.09479545 0.13686463 -0.1488142 0.2323285
0.21702683 -0.24973513 0.12645446 0.20191649 -0.10034629 -0.086218834 -0.10675715 0.03789836
0.2465854 -0.06281327 -0.14781635 0.16470191 0.2606118 0.15850127 0.22186261 0.19779621
-0.17157556 0.11678774 -0.27338478 -0.27886817 0.11738411 0.13365667 -0.07789884 -0.2265467
-0.2984626 0.17406502 0.29807052 0.079304844 -0.17897296 -0.28938514 -0.2579348 -0.091963306
-0.07089472 -0.0018079281 0.29295918 -0.028777659 0.25412926 0.03927359 -0.12898777 -0.1988016
-0.16590777 0.037397444 0.22666916 -0.16949694 0.28341076 0.061882794 -0.06788823 0.05394414
0.17507526 0.17969346 -0.10626732 0.10228893 0.029241502 -0.05294156 -0.29378027 0.066286415
0.14958067 -0.18810418 0.10448995 -0.15910627 -0.10508398 0.15614441 0.11682608 0.05989954
0.26965407 0.14822319 0.14952402 0.30016282 -0.11597928 -0.18147191 0.12052847 0.050443545
-0.2810355 -0.25597066 -0.2770086 0.24175923 -0.19256791 -0.14940038 -0.19560942 -0.16927157
0.28086844 -0.014695942 0.121417426 -0.038170308 -0.22881728 -0.012859677 0.0054120542 -0.07925342
-0.22642656 -0.03033027 -0.18082498 -0.05958967 -0.1454399 -0.13974549 -0.13036273 0.04870069
-0.28915858 -0.09730582 0.27753082 0.08575326 0.25215146 0.27367994 -0.0653715 0.25098988
0.19001883 -0.06271413 0.19529644 0.27976516 -0.048682332 -0.06930885 0.21022817 -0.24511793
0.2809601 -0.1884086 -0.18717453 -0.014713973 0.30436245 0.058443487 -0.19617559 0.2738435
0.12041528 0.040194273 -0.25720906 0.06332139 0.2053123 -0.20395002 -0.033637147 -0.18616796
0.38649532 -0.068068616 -0.41831848 -0.17416574 -0.28148177 -0.103847384 -0.111297034 0.2856511
-0.36725843 -0.15363014 -0.21463978 -0.34046328 -0.23363799 -0.06490925 0.1287523 0.03801171
0.3157583 -0.14324237 0.2640653 0.20106992 -0.2888465 -0.085838385 -0.0007136367 -0.08111871
-0.30336484 -0.2853123 -0.17865993 -0.28919023 0.047807664 -0.25588605 -0.1360759 0.15009096
0.018683732 -0.21475644 -0.10955037 0.22033903 0.27366003 -0.20171085 0.10769677 -0.0613579
-0.06667517 0.019294977 -0.05348581 -0.1388302 -0.12862784 0.061933577 -0.050649256 0.023394465
0.23911837 0.20681241 0.25531486 0.06285414 -0.10605949 -0.21278474 0.17352146 -0.062355816
0.29944447 -0.029697329 0.00044074655 0.33519632 0.27779612 0.19349898 0.28648192 0.02941674
0.27960622 0.0024723506 -0.5158278 -0.17756283 -0.109085955 0.30087444 0.16192143 0.07895059
-0.26645246 0.25949326 -0.18284783 -0.31172195 -0.15381286 -0.43638754 0.15793079 -0.02102264
0.26290894 0.041912902 0.07457471 -0.13021144 -0.27466303 -0.21309642 0.21277025 0.14833272
-0.0173524 -0.16302057 -0.20978165 -0.23894514 0.24223459 0.26489428 0.27309954 0.2018564
0.08272648 -0.0074396897 -0.29094 0.18675394 -0.34945652 -0.2609636 0.18561676 0.10819919
-0.28308702 0.05426979 -0.30438146 -0.12559418 -0.29240587 -0.3597224 0.06837648 -0.24121775
0.15424031 -0.08591606 0.10282617 -0.007655516 0.18369412 -0.07562395 -0.040369652 0.14931773

mlp.4.bias f4 [32]
00000000: 81c7 453d c012 733d f78c e5bd 2eb6 b13d
00000010: 7f80 1b3e 3563 15be 6d97 00be 6aac b83d
00000020: 3d07 733c bf83 073e 20b3 66bc 825d c03d
00000030: 8db7 4a3e 157c d7bd 18c7 9f3d 0a89 0f3d
00000040: 24a7 863e b822 18bc 67bb d73d 4cb4 aa3d
00000050: d613 0bbe 61c0 b9bd f7e9 293e cc63 2abe
00000060: f5c8 d6bd 9e8c dcbd ed69 263e 131d 2b3d
00000070: 4947 b9bd 2dd5 80bc 9502 b4bd 3ef9 3dbc
0.048285965 0.059344053 -0.112085275 0.08677326 0.15185736 -0.14588626 -0.12557764 0.090172604
0.014833269 0.13233851 -0.014080793 0.09392835 0.19796582 -0.10521714 0.07801646 0.0350428
0.26299393 -0.009285621 0.10533791 0.0833517 -0.13581786 -0.090698965 0.16593157 -0.16639632
-0.10487548 -0.10769008 0.16251345 0.041775774 -0.090468 -0.01572665 -0.08789555 -0.0115950685

mlp.6.weight f4 [32, 32]
00000000: 5a50 d8bd 76a6 99be c937 1dbe cd8c 8b3e
00000010: ef81 0a3d 1c98 d83d 2d29 72bd 11b8 0d3e
00000020: a07d 983d e670 34be b034 433d 60d9 963e
00000030: fad5 9d3e 14c3 f6bd 0658 dabd 1aac 63be
00000040: d48b 96be e1db 923e b967 8e3e 3000 823e
00000050: ae11 783e a07f 223e 7475 9b3e b6ff 90bc
00000060: 684d 4fbe 7d2e 2b3e ac85 c9bd eae2 eb3c
00000070: e5bb 14be c85d d7bd e5e7 a43e 87c4 03be
00000080: de4c 0f3e 1e32 203e b7db 043e 38de da3d
00000090: 8723 913e 2060 673c e093 cdbd e05e 413c
000000a0: de2d a93d 01bd 3cbe 527a 123e 840e 893e
000000b0: 4596 923d 446d 403e f60f 673e 1452 9cbe
000000c0: a1fa c7be 4c14 723d 6d69 623e 11b0 dc3d
000000d0: 256d 8c3e b6e8 4c3e 19a3 213d 70d7 ca3c
000000e0: 44d3 ccbc ca16 f33c a208 893e b823 17be
000000f0: 0060 d9bb 3953 92bd f6a7 8bbd 1d60 833e
00000100: 5c82 83bd 0095 63bc 2051 6dbc 1cca a4bd
00000110: 649d f9bd e0d0 c4bc 7a68 3a3e 04c7 62be
00000120: 8ce7 f23d ba29 54be 2607 18be 78a7 2ebd
00000130: 10de f23d c82c 5b3d b8f0 d5bd 8824 4bbd
00000140: d150 813e 663d 373e 5077 c63d 41dd 36be
00000150: 9807 3b3e 52bd 47be b7e5 3fbe da4e 72be
00000160: f415 133e 7aaa 583e 9829 673d e32f 8e3e
00000170: ccf5 21be 6246 8bbe 6b1e 17be 8f96 2ebe
00000180: 5afd 56bd 9ba9 29be 51ac 81bd ee55 4ebe
00000190: 8c68 223e 883c 2b3e 1949 2cbe be32 a33d
000001a0: 1122 1a3d 49a0 913e 00ed cc3b f3ad 883e
000001b0: f741 6bbe 3ed8 073e f8c1 383e e715 833e
000001c0: 919c 5abd f662 20be e106 a3be c092 77be
000001d0: c0b6 1a3c 5494 ad3d 0ab7 9c3e 163e 88be
000001e0: 2220 873e 5f45 553e 9167 9fbd 6f4e a83e
000001f0: fe9e 053e 6266 043e c76d 2e3e 9b00 7dbd
00000200: b39d 04be 284a 8e3d 08e6 2b3e 54ff 6bbd
00000210: e6e3 a53d 40c9 e03c 39a0 92be 58ce 8c3d
00000220: 42ae 90be c641 80bd 500a b1bc 8cda b43d
00000230: d3e7 93be da5b 213e 0743 a1bd d0a5 f5bc
00000240: b0fc a03d 6a1e b03d 3390 8cbe 75a8 48be
00000250: b6c8 793e 8b85 943e 8165 71bd 5c34 67bd
00000260: 8069 f0bd fcc4 9fbc c768 153e c32c b0bd
00000270: 7bc1 833e b79c ec3b d6d1 05be 0e19 3abe
00000280: 3b14 7d3d d2ca 8fbd 472d 14be 401e 1c3d
00000290: 7be7 e03d fb41 8fbe c41d ab3e d585 973d
000002a0: 1ced ca3e a004 013d 20fb 313e c9b1 6cbd
000002b0: 046b 643d 40af aa3d afd2 323e 58b6 80be
000002c0: 86c7 3d3d c64f b93e 17f7 0d3e ffd7 b53e
000002d0: 924d 41be de5c 55be 6f93 29bd 99f2 283e
000002e0: c3f8 cd3d eb61 ebbc ca6b 283e 6685 6dbe
000002f0: c857 e93d bad6 003e 11ba 1c3e f154 283d
00000300: 0f0f 4a3e 98df ccbd f2ad 7ebe 8e8d 113e
00000310: 64cb 5bbe 277c 2fbe a86f 093e 4762 debd
00000320: 8830 78be 2f7f f43d b009 a2bd 02ab 04bc
00000330: f9e5 eebd c71f 823e e208 f2bc 5ee8 5c3e
00000340: e527 a03e 5bd8 ee3d 2b1b 55be 35af 2a3e
00000350: 8888 3c3e ad55 853e b885 0f3e 303c d13c
00000360: ab53 493d 7af3 803d 902d 8abd e5f7 f93d
00000370: cafc 5b3e e6b2 a23d f7fb de3d 5a29 943c
00000380: d9be 6fbe 516f 8dbe a05a 473d 53b4 863e
00000390: e9e6 72be 20a3 40bc da2b 75bd 6258 1e3e
000003a0: c502 7bbe 7268 c9bc 1653 87be 93fc 85be
000003b0: 3a35 1e3e 2693 7f3e b6b8 123e 3d6a 60be
000003c0: 23e9 5abd df11 903e 97aa 9b3e 26ae 40bd
000003d0: 26f9 91bd b05f 153e 678f 70be d81c 003d
000003e0: 283b 6bbe 972b 1a3e 46ba 7e3d c0aa 7d3c
000003f0: 3ac0 463e d6aa 69be ce25 0d3e b0f1 58be
-0.10562201 -0.30009812 -0.15353312 0.2725586 0.03381532 0.105758876 -0.0591213 0.13839747
0.07445836 -0.17621192 0.04765767 0.2946272 0.30827314 -0.12048927 -0.106613204 -0.2223362
-0.29403555 0.2868338 0.2781351 0.25390768 0.24225494 0.15868998 0.30363047 -0.017700057
-0.20244372 0.16716953 -0.09839949 0.028794724 -0.14524801 -0.10515934 0.3220817 -0.12867938
0.13994166 0.15644118 0.1297444 0.10686916 0.28347418 0.014122039 -0.100379705 0.011802405
0.082607016 -0.18431474 0.14304474 0.26768887 0.07157568 0.18791682 0.22564682 -0.3053137
-0.39058402 0.059101388 0.22110529 0.107757695 0.2742702 0.20010647 0.039462183 0.024760932
-0.025003083 0.029673953 0.267644 -0.1475972 -0.0066337585 -0.0714478 -0.068191454 0.25659266
-0.064213485 -0.013890505 -0.014484674 -0.08046362 -0.12188223 -0.02402538 0.18203917 -0.22146231
0.1186057 -0.20719042 -0.14846477 -0.04264018 0.11858761 0.053509504 -0.10446304 -0.049595386
0.2525697 0.17894515 0.09690726 -0.17857839 0.18264616 -0.19505814 -0.18739973 -0.23662892
0.14363843 0.21158782 0.05643615 0.2777091 -0.1581642 -0.27202135 -0.14757697 -0.17049621
-0.05248771 -0.16568606 -0.06331695 -0.20149967 0.15860194 0.1672231 -0.1682476 0.07968663
0.037630145 0.284426 0.0062538385 0.26695213 -0.22974382 0.13266084 0.18042743 0.25602648
-0.05337197 -0.1566275 -0.31841186 -0.24177074 0.009442985 0.08475557 0.30608398 -0.26609868
0.26391703 0.20827244 -0.077834256 0.3287234 0.13048932 0.12929681 0.17034064 -0.061768156
-0.12950782 0.06947738 0.16786969 -0.057616547 0.08100109 0.027439713 -0.28637865 0.068752944
-0.28257948 -0.06262545 -0.021611363 0.08830747 -0.28887805 0.15757695 -0.078741126 -0.029986292
0.07860696 0.08599551 -0.27453765 -0.19595511 0.24392971 0.29008135 -0.058934692 -0.05644642
-0.117388725 -0.01950311 0.1459075 -0.086022876 0.2573355 0.0072208303 -0.13068327 -0.1817362
0.06178687 -0.07021107 -0.14470397 0.038114786 0.109816514 -0.27980027 0.33421147 0.07398573
0.39634025 0.03149855 0.17380953 -0.057786737 0.05576612 0.083342075 0.17463182 -0.25139117
0.04633286 0.36193675 0.13863789 0.35516354 -0.18877247 -0.20836207 -0.04140037 0.16498794
0.10057213 -0.028733214 0.16447368 -0.23195419 0.11393696 0.12581912 0.15305354 0.04109663
0.19732307 -0.100035846 -0.24871042 0.14214155 -0.21464306 -0.17137204 0.134215 -0.10858589
-0.24237263 0.11938321 -0.07912004 -0.008097412 -0.116649576 0.2541487 -0.029545251 0.21573016
0.31280437 0.1166236 -0.20811145 0.16668399 0.18411458 0.26041928 0.14015853 0.025541395
0.049152058 0.062964395 -0.067469716 0.12205485 0.2148315 0.079442784 0.10887902 0.018086124
-0.23412646 -0.2762399 0.04867041 0.2630945 -0.23720898 -0.011757642 -0.059856273 0.15463403
-0.24512775 -0.024585936 -0.26430577 -0.2616926 0.15449992 0.24958476 0.14328274 -0.21915527
-0.053444993 0.28138635 0.30403587 -0.04704108 -0.071275994 0.14587283 -0.23492204 0.031277508
-0.22971785 0.1505569 0.062189363 0.0154826045 0.19409266 -0.22819075 0.13783953 -0.21185946

mlp.6.bias f4 [32]
00000000: ef50 0c3a d46d b03d 6064 21be 7ec4 f03c
00000010: 9f08 1a3e 3cb2 9dbc 9269 c4bc bc5b a73d
00000020: 7d13 59bd 23fd 07be 232d 8e3e 0058 783c
00000030: 2bc8 02bc 7442 4dbd 8352 1ebc 3620 813c
00000040: 9afb 07be 088a 36bd 5097 10be c153 903d
00000050: 9239 1c3d e658 523d 7f38 083e 8850 eebd
00000060: d275 2cbc 2478 d53d 5276 e63d 98ff 8e3d
00000070: a79e 0b3e e259 2ebd 00e8 3fbe 85bf 4f3e
0.0005352636 0.08614698 -0.15760946 0.02939057 0.15042351 -0.019250028 -0.023976121 0.08171794
-0.0529971 -0.13280158 0.27768812 0.0151577 -0.007982294 -0.050112203 -0.009663227 0.01576243
-0.13279572 -0.04456523 -0.14120221 0.07047225 0.03814084 0.05135431 0.13302802 -0.11636454
-0.010526137 0.10423306 0.112530366 0.069823444 0.1363474 -0.042566188 -0.18740845 0.20287903

mlp.8.weight f4 [32, 32]
00000000: 39f6 3c3d 6a3c 6f3e 7a85 423e b406 8e3e
00000010: 64fe fbbd d9f9 3abe 77fa 1c3c d3af 0d3e
00000020: 2a61 7ebe 7fce 113e de0f 903c 5469 75be
00000030: 6aaa 293e 1c9d aa3d eceb f93d aca9 ec3d
00000040: 8e82 f8bd 90dc aebd 5da5 563d 5472 4e3d
00000050: 2098 2fbe 3180 143e df07 853e 8066 763d
00000060: d540 aebd d5df bebc 2e9a dcbd 0086 87bb
00000070: 78e5 c83d 1c9e 193d cd2c 803e 991c 5abc
00000080: 6385 1d3e d9ef 6c3e 4e31 793e 0c1c acbd
00000090: c3b7 683e 3471 84be 1f30 733d 7021 59be
000000a0: 6da7 5bbe ac05 813e ae58 673e 40fc 2bbd
000000b0: 427d a53c 2073 15bd 11c8 d2bd 3d34 973e
000000c0: 167b 493e c657 2f3e 2272 fcbd af6d 3abe
000000d0: 9df4 113e 0c0e ff3d b69e 93be f848 47be
000000e0: e044 30be cde7 6abe b6f2 6b3e 1085 9dbc
000000f0: 8607 5dbe 7ff5 043e b357 b2bc 6c61 1c3e
00000100: 2cd4 71bd 42f9 203d b083 d2bd 8851 aabe
00000110: fe89 bebb ff97 d53d 4280 3cbe 9b5f 96be
00000120: 90e3 803e 6afc 853e f004 3ebe 40b7 85bb
00000130: b8c0 153e be07 12be 5430 42bd 18ab 983c
00000140: b7e7 3e3e 59a2 883e 63ea 823d fcda 8b3e
00000150: 2e52 66be ab42 f83d d0c9 ccbc 761a 493e
00000160: 7d85 293e dd2f 423e e918 b03e d819 10bd
00000170: c9e4 6f3e 0e6f b6bd 27d4 c43d 5ed8 30be
00000180: 2ad2 1ebe ff6c 62be 6c5a f6bd 3aa3 50be
00000190: 48db 35be f22f aabd 7d77 b13e d52a e93d
000001a0: 2fab cb3c 03c2 74be 1254 b03e e0ff 2a3c
000001b0: 6e57 99bb a0a2 b7bc d9bc c23d ec5c a73d
000001c0: bee7 0abd 85e9 8a3e 2e89 a93d a827 233d
000001d0: 7a82 a0be 357a b83e 3b9b 883e f684 a7bd
000001e0: e2c5 933e 2eb8 173e e18e 9bbd bf39 823e
000001f0: 7036 283e d837 51be b4a4 9cbd 09ef 0d3e
00000200: 3384 9e3e fd9c 923d e009 c53c d983 193e
00000210: 6dcc 293e c066 b53d 1562 573d 7e92 80be
00000220: 2d38 81be 4b5a 23bd 6637 7a3e 8ac1 0e3e
00000230: bb70 573e 79f5 993e 275c fabd df51 8abe
00000240: 0358 273d 260c 83be 4b5d 20be ae78 bf3d
00000250: c168 74be 1d66 423e 683d 9d3d ddbf 9c3e
00000260: a5b4 eebd ef66 2b3e e4d5 8c3e b84a 113e
00000270: 6e89 0cbe 53e9 fc3d 166c a53e bdbe 85be
00000280: e91e a7bd d534 a9be 86e5 003e 442e d03e
00000290: 8acb 363e a0a9 553d a59b 2e3e 882c 59be
000002a0: 10fb 0d3e 8ae7 6e3e 2196 053e 600c 1abc
000002b0: eb8f 1ebd f81f 95bd 0f0c f13e 01bc 1dbe
000002c0: 70fe a43c 681b 023d 1a45 dbba 10a7 c73d
000002d0: 5a5f 8fbe 3a82 283e 9e56 6fbe dc18 0b3e
000002e0: 5e3a 173e 010c 2dbd 6900 02be 80db d53c
000002f0: 7d60 213d 607e 02be feab f1bd 648c bd3e
00000300: 5fec 93be b0b3 dfbc fe4f 503e bb9f 933e
00000310: bef5 483e 1e7f 43be ba4d cbbd 480f 73be
00000320: 9c52 843d 1081 35bd 4887 0a3e f062 f8bd
00000330: 0054 0f3b 89a8 8b3e 977a 8a3e af81 06be
00000340: 0f6b 923e c70c 4ebe 98e1 7b3d e244 6c3e
00000350: c649 94bd 90d4 4abe 90bb fb3c 5028 633d
00000360: e420 023e 0ed4 88be 00c9 e0bb 40f5 893b
00000370: 48a8 18bd 00ab dabb 4afb 4f3e e89d 88be
00000380: 8743 1ebe 5449 ae3d 40a2 87be 42e7 513e
00000390: e50a 8a3e cad2 44be 1ba9 89be 281f 2f3e
000003a0: de0d 91be f0a6 dc3c 36e8 dcbd 98c8 61be
000003b0: 7008 f43d 8050 f9bd 2f2b 1abe 10cf 7abd
000003c0: b5ce 8abe deae 783e 4822 1dbd 524b 6a3e
000003d0: 869d 6d3e 983f 2dbe acb3 d33d d093 433d
000003e0: f83f 68bd 4279 28be f00b 5dbd cba1 8cbe
000003f0: 3ef9 85bd c2fd 133e 0047 d93d 8b9e 93be
0.046133254 0.2336289 0.1899623 0.2773949 -0.123043805 -0.18259372 0.0095812 0.13836603
-0.24841753 0.14238928 0.017585691 -0.2396596 0.16568914 0.083307475 0.12203202 0.115558
-0.12134276 -0.08538163 0.052403796 0.050402 -0.17147875 0.14502026 0.25982568 0.060156345
-0.085084595 -0.02330009 -0.10771595 -0.004135847 0.09809393 0.0375043 0.2503418 -0.013312482
0.15382914 0.2313837 0.24335214 -0.08403787 0.2272635 -0.25867617 0.059372064 -0.21204162
-0.21450587 0.2519964 0.22592422 -0.04198861 0.02020133 -0.036486745 -0.10292066 0.29532042
0.1967586 0.17123327 -0.123264566 -0.18205903 0.14253469 0.12453851 -0.28832024 -0.19461429
-0.17213774 -0.22939987 0.23041806 -0.019228488 -0.21584901 0.12984274 -0.021770334 0.15271538
-0.059040233 0.03930021 -0.10279024 -0.33265328 -0.00581479 0.104293816 -0.18408301 -0.29369816
0.25173616 0.2616914 -0.18556571 -0.004080683 0.14624298 -0.14260766 -0.04740937 0.018636271
0.1864308 0.2668636 0.06392362 0.2731551 -0.22492287 0.12122091 -0.024998575 0.19639
0.16554828 0.18963571 0.34394005 -0.035180897 0.23427118 -0.08907901 0.09610777 -0.17270038
-0.15509859 -0.22111891 -0.12028965 -0.20374766 -0.1775943 -0.08309926 0.34661475 0.11385123
0.0248619 -0.23902135 0.3443914 0.010436982 -0.004679612 -0.022416413 0.09508676 0.0817202
-0.033912413 0.27131286 0.08278118 0.03983274 -0.31349546 0.36030737 0.2668093 -0.08179657
0.2886191 0.14816353 -0.07595611 0.25434682 0.16427016 -0.20431459 -0.07648602 0.13860716
0.30960235 0.071588494 0.02405256 0.14991702 0.16581888 0.08857489 0.052583773 -0.25111765
-0.2523817 -0.039881032 0.24435195 0.13941017 0.21039097 0.30070093 -0.12224608 -0.27015588
0.04085542 -0.25595206 -0.15660588 0.0934919 -0.23868085 0.18984266 0.07677728 0.3061513
-0.11655549 0.16738485 0.27506936 0.14188659 -0.137243 0.123491906 0.32309026 -0.26122084
-0.081601925 -0.3304812 0.12587556 0.40660298 0.17851081 0.05216372 0.17051561 -0.21208394
0.13865304 0.23330513 0.13045551 -0.0094023645 -0.03871147 -0.07281488 0.47079512 -0.15403749
0.020140857 0.031764418 -0.0016728968 0.097486615 -0.28002435 0.16455927 -0.23372886 0.13583702
0.14768359 -0.042247776 -0.12695469 0.026105642 0.03939866 -0.1274352 -0.11800383 0.37021172
-0.28891274 -0.027307361 0.20343015 0.28832802 0.19624993 -0.1909146 -0.099269345 -0.23736298
0.06461069 -0.044312537 0.13528168 -0.12128246 0.0021870136 0.2727702 0.27046654 -0.13135408
0.28597304 -0.20122062 0.06149444 0.23073152 -0.07240634 -0.19807649 0.030729085 0.055458367
0.1270786 -0.26724285 -0.0068598986 0.0042101443 -0.03726986 -0.006673217 0.20310703 -0.26682973
-0.15455447 0.0851008 -0.26490974 0.20498374 0.26961437 -0.19221035 -0.2688683 0.17101729
-0.28330892 0.02693507 -0.10786478 -0.22049177 0.11915672 -0.12173557 -0.15055536 -0.061232626
-0.2711083 0.24285457 -0.03836277 0.22880295 0.23204622 -0.1691879 0.10337004 0.047748387
-0.05670163 -0.16452506 -0.053966463 -0.27467188 -0.0654168 0.1445227 0.10609245 -0.28831896

mlp.8.bias f4 [32]
00000000: 9794 203e 10e2 37be c083 273e 65a5 7d3e
00000010: 8db9 d83d 415c 9a3c 5424 5abd 0e20 e53d
00000020: 4b89 a53d 14fd 78bd e3a2 ed3c db1f 1f3d
00000030: 7e59 183e b5a8 58bc 4720 4a3e 58ff bfbd
00000040: 0be9 933c f062 1bbe e3cc 353e 889a 01be
00000050: eb3d 07bc dff7 30be 62d9 493e d42f 6abd
00000060: d80f 64bd b2c8 863e 7488 44be 0436 6abd
00000070: eab1 3ebd 9dd3 ee3d 9c02 043e 9d4e dcbd
0.15681683 -0.1795733 0.16358852 0.24770124 0.10582266 0.018842818 -0.0532573 0.111877546
0.08082827 -0.06078823 0.029008335 0.03884874 0.14877889 -0.013223817 0.19738875 -0.09374875
0.01805546 -0.1517446 0.1775394 -0.12656605 -0.0082545085 -0.17282055 0.19711831 -0.05717452
-0.055679172 0.26324993 -0.19192678 -0.05718042 -0.04655639 0.11661456 0.1289162 -0.10757182

mlp.10.weight f4 [4, 32]
00000000: 3733 b6be 264b eb3c dbd8 5e3e 9a7b 553d
00000010: 2134 a33e c846 43be 82a0 c1be db15 c3be
00000020: d5eb 4a3e 6052 80be 6ee3 583e 00ac 52be
00000030: 217d bb3d 5827 c23e b4e9 ddbe 000f bb3e
00000040: bf7c ab3e 043d d9bd 2831 6a3e 2a42 113e
00000050: 6c73 513e 4663 913e d4bf ce3d 5639 a03e
00000060: b3cc cdbe 8c17 9fbe b965 68bd fde7 64be
00000070: d998 013f 695e 47bd 0f52 07be a2db bc3d
00000080: 0c3d 0fbe cb66 863e 9c6b d83c 4017 25be
00000090: 8388 8e3d ad06 c7be b083 52bd 9354 c1be
000000a0: ab8c 51bd 7237 8c3e 1301 b93e 0fff b63e
000000b0: b4bc 553d 61a5 873d 0ca4 823d 84e7 373e
000000c0: 3c23 9d3e f680 c5be 5450 4a3e 42a5 79be
000000d0: 42a7 32be 750e bf3e c06c 823e 64b5 81be
000000e0: 5030 c4be 6688 93be 2e80 bcbe cdb3 46be
000000f0: 6284 a43e 7f54 88be 7080 0f3e a846 bd3d
00000100: fb4e c23e 4f4b 7a3e 4c51 e63e c69e 8ebe
00000110: 3165 5dbe b838 9bbe b44a 81be d42d c53e
00000120: 450b 2a3e 7cab 53be 55f0 a53d 2db3 e93d
00000130: 6484 babe aeaf 8e3e b3bc 14be 403e 0b3d
00000140: 0894 613e b284 903e bfd6 473d 6823 283e
00000150: 09bb d53e d0c2 82be 5d60 7c3e cc94 c1bd
00000160: 646f 19bd fc3b 28be f0ba 3bbe fc18 333e
00000170: 8bb9 6bbd f1f5 e53e 0196 f3be bf0f c63e
00000180: 47c8 be3d e338 c3bd 03c5 ba3e 64d5 ddbe
00000190: 2420 9b3e f1f8 04be a2bc a93e 0c83 8f3e
000001a0: d849 d0be 69c0 acbb 88fe 27bd bec0 b43e
000001b0: 970d d5be e7c8 863e e061 8a3e c1f3 75be
000001c0: 1b37 4dbe c85e e23d 96c4 7e3e b4c1 c3be
000001d0: 2b85 8abd ee0a 94bd 2e9b ae3e 10a5 df3d
000001e0: a7a1 083e 56c0 bcbe 561f 29be 9fd4 40be
000001f0: f2c7 e0bb 461f a73e 9481 c1be f0f9 e1bd
-0.3558595 0.028722357 0.21762411 0.05211983 0.3187571 -0.1906997 -0.3781777 -0.38102612
0.19816525 -0.25062847 0.21180508 -0.20573425 0.09154726 0.37920642 -0.43342364 0.36534882
0.3349361 -0.10607341 0.22870314 0.14185396 0.20454186 0.28396052 0.10095182 0.31293744
-0.40195236 -0.31072652 -0.056737635 -0.22354122 0.5062385 -0.04867402 -0.13214897 0.09221579
-0.13988131 0.262503 0.0264185 -0.1612215 0.06959631 -0.3887228 -0.05139512 -0.37759838
-0.051159542 0.2738605 0.36133632 0.3574147 0.052181914 0.066233404 0.06378946 0.1795941
0.30690944 -0.38574952 0.19757205 -0.24379447 -0.17446616 0.37315717 0.25473595 -0.25333703
-0.3831811 -0.28815 -0.36816543 -0.19404526 0.3213225 -0.26626965 0.14013839 0.09241992
0.37950882 0.2444279 0.449839 -0.2785551 -0.21620633 -0.3031671 -0.25252306 0.38511527
0.16605861 -0.20670885 0.0810248 0.11411128 -0.3642913 0.27868408 -0.14525108 0.033994913
0.22029126 0.28226238 0.048788782 0.16419756 0.4174426 -0.25539255 0.24646135 -0.09452209
-0.037459746 -0.16429132 -0.1833303 0.1749 -0.057549994 0.449142 -0.4757538 0.38683888
0.093155436 -0.09532335 0.36478433 -0.43326867 0.3029796 -0.12985589 0.33151728 0.28029668
-0.40681338 -0.0052719605 -0.041014224 0.353033 -0.4161193 0.2632515 0.27027798 -0.24018766
-0.20040552 0.11053234 0.24879679 -0.3823372 -0.06763681 -0.07228647 0.34102768 0.10920155
0.13342915 -0.3686549 -0.1651586 -0.18831109 -0.006859773 0.32641047 -0.37794173 -0.11034

mlp.10.bias f4 [4]
00000000: 290b 983d 3d27 d73d bdbf b4bd 611f 0d3e
0.07424004 0.10505531 -0.08825634 0.13781501
