tmp_result/dqn.pt (torch, 140623 bytes, 8 tensors)

mlp.0.weight f4 [128, 7]
-0.07403701 -0.0902027 -0.14881825 -0.009035794 -0.08469172 0.006730649 -0.13663846 -0.19783112
0.19590639 -0.09115978 0.086731896 0.1354769 0.0012705922 0.08482055 -0.07730208 -0.07858391
0.0024712384 -0.08818512 -0.018224984 0.21011378 -0.10220619 -0.105455026 0.19736111 -0.14733225
-0.17044184 0.0791149 -0.18484347 0.19312416 -0.013821799 0.039202727 -0.116332814 0.19915807
0.109710455 -0.038630173 0.0023450244 -0.18686993 -0.07898441 0.024705768 -0.07334374 0.047444418
0.119249895 0.097567394 -0.16479316 -0.06349525 -0.12528145 0.18666281 -0.17122558 0.08245231
0.1806358 -0.09541281 -0.06168136 -0.02783148 -0.054948628 -0.1691486 0.015023798 -0.19671981
0.021256402 -0.18804821 0.084934756 -0.12576053 0.13270025 -0.041891634 -0.022338957 0.20819293
-0.10510635 -0.04127169 -0.021633651 0.037186142 -0.16119666 0.020760052 -0.16171204 0.23753206
0.13205698 -0.0047395765 -0.05417099 0.070405155 -0.014639219 0.061116356 -0.0917447 0.15444891
-0.06470807 -0.1228133 -0.11062662 0.23008649 0.05360441 -0.14043176 0.072577044 -0.16363716
0.17698862 0.1974593 -0.185216 0.18257083 -0.13946353 -0.09785045 0.025875494 -0.009168565
0.056168243 -0.016683936 -0.21753012 0.19539453 0.15070198 -0.12652728 -0.16494565 -0.038058415
0.20107226 -0.037933636 0.22182712 0.034408998 -0.058651898 0.08177104 0.16509412 0.105428636
-0.04740796 0.12621827 0.13753313 -0.010419325 -0.12254633 -0.19201376 0.07967251 -0.17714997
0.016673645 -0.032522615 0.13206513 0.17203443 -0.13413237 -0.20771909 0.11638377 0.06828905
0.17797138 0.010666319 0.05577499 0.064621545 0.21882556 -0.20303144 0.11080027 -0.022903627
-0.07004135 0.07328989 0.2619251 0.25423002 -0.04230258 0.067579985 -0.038614985 0.2025525
-0.18217936 -0.07168325 0.22285916 -0.013066669 0.13697653 -0.017488113 -0.20754464 0.038896397
-0.022196863 -0.16706482 -0.08061698 0.04934825 -0.0020936579 0.12236892 0.017124176 -0.11723718
0.13642345 -0.16406372 -0.16132703 -0.11227197 0.17946504 0.18532114 0.024271548 0.03415543
-0.12829308 0.1929658 -0.044623543 0.108453155 -0.1650197 0.22020248 -0.08488343 0.1578543
0.103064075 -0.037679926 -0.042215154 -0.015033349 0.18958943 -0.09530329 -0.08737621 -0.06106943
-0.012923941 0.04109265 0.16933762 -0.043526992 0.1541221 0.19977249 -0.083681345 -0.18816946
-0.11623847 0.21594715 0.20411758 0.12209852 0.17280453 -0.030138455 0.2271351 -0.16680603
-0.19348142 -0.18026331 0.042769924 -0.11428494 0.16430537 0.16822948 0.17233622 -0.032375794
-0.018401084 0.17020953 -0.011373212 0.07025556 0.04537913 0.057322115 0.10609115 0.21100262
-0.079777844 -0.10913181 0.13456853 -0.08952805 -0.14982139 0.2085468 0.16680737 -0.037306562
0.052601382 0.120433375 0.15385403 -0.18922162 -0.19382857 -0.13703766 0.14524616 0.066595495
0.11501669 -0.06616858 0.09214454 -0.059337836 0.26212546 0.028396169 -0.05137975 0.008057717
0.16683008 0.17431317 0.17844215 -0.022268232 -0.088057734 -0.14235714 0.017351806 -0.10492962
-0.20952813 0.15969466 0.057977214 -0.030238003 0.034141257 0.04755616 0.13474056 0.16500281
00000000: b7a0 97bd 31bc b8bd d063 18be de0a 14bc
00000010: da72 adbd c78c dc3b f4ea 0bbe 3e94 4abe
00000020: af9b 483e fbb1 babd 7ea0 b13d 75ba 0a3e
00000030: 008a a63a 66b6 ad3d 8e50 9ebd 9af0 a0bd
00000040: 80f4 213b 669a b4bd 904c 95bc 1128 573e
00000050: 7b51 d1bd cef8 d7bd 0819 4a3e 44de 16be
00000060: 4e88 2ebe fe06 a23d 9b47 3dbe 57c2 453e
00000070: d474 62bc 0a93 203d e63f eebd 18f0 4b3e
00000080: e0af e03d ac3a 1ebd fbae 193b d55a 3fbe
00000090: 94c2 a1bd c063 ca3c 3e35 96bd 1455 423d
000000a0: 4a39 f43d 6ad1 c73d 8abf 28be cc09 82bd
000000b0: c849 00be 8924 3f3e c255 2fbe c2dc a83d
000000c0: 97f8 383e cb67 c3bd 98a5 7cbd d8fe e3bc
000000d0: d011 61bd 4a35 2dbe 6026 763c eb70 49be
000000e0: e821 ae3c b68f 40be 46f2 ad3d 5ec7 00be
000000f0: 93e2 073e 9096 2bbd 3000 b7bc 8730 553e
00000100: ff41 d7bd 810c 29bd 0e39 b1bc 7f50 183d
00000110: bd10 25be fc10 aa3c d797 25be 9b3b 733e
00000120: f239 073e 734e 9bbb 66e2 5dbd 9430 903d
00000130: 56d9 6fbc 2555 7a3d a5e4 bbbd db27 1e3e
00000140: aa85 84bd 8a85 fbbd 3690 e2bd cb9b 6b3e
00000150: 4c90 5b3d 58cd 0fbe 46a3 943d 8090 27be
00000160: 813c 353e c532 4a3e 43a9 3dbe d9f3 3a3e
00000170: 87cf 0ebe d165 c8bd d8f8 d33c c037 16bc
00000180: ac10 663d c0ac 88bc 37c0 5ebe 8115 483e
00000190: 9f51 1a3e 5e90 01be 83e7 28be 24e3 1bbd
000001a0: e3e5 4d3e 4d60 1bbd a626 633e 73f0 0c3d
000001b0: f93c 70bd 9377 a73d 6f0e 293e f8ea d73d
000001c0: d92e 42bd 5d3f 013e 7cd5 0c3e d1b5 2abc
000001d0: 92f9 fabd 419f 44be 572b a33d cd66 35be
000001e0: 2b97 883c 6f36 05bd 153c 073e cb29 303e
000001f0: ff59 09be 50b4 54be 9d5a ee3d 21db 8b3d
00000200: 213e 363e c9c1 2e3c 5174 643d 4d58 843d
00000210: cf13 603e 79e7 4fbe 41eb e23d 63a0 bbbc
00000220: d771 8fbd 0319 963d 0c1b 863e 702a 823e
00000230: 7845 2dbd 6067 8a3d bf2a 1ebd ec69 4f3e
00000240: 3a8d 3abe abce 92bd 3135 643e 9515 56bc
00000250: 9343 0c3e 3b43 8fbc 9586 54be d451 1f3d
00000260: 32d6 b5bc 0a13 2bbe 841a a5bd 6421 4a3d
00000270: c035 09bb 8e9c fa3d 0048 8c3c 0c1a f0bd
00000280: 97b2 0b3e 5200 28be ea32 25be d9ee e5bd
00000290: afc5 373e d3c4 3d3e 20d5 c63c 90e6 0b3d
000002a0: 435f 03be d498 453e 2dc7 36bd b01c de3d
000002b0: edfa 28be c27c 613e 5dd7 adbd 8fa4 213e
000002c0: 4213 d33d 4456 1abd cce9 2cbd 704e 76bc
000002d0: bb23 423e 5f2e c3bd 4cf2 b2bd f023 7abd
000002e0: f0be 53bc c450 283d d766 2d3e 5c49 32bd
000002f0: 2fd2 1d3e 2991 4c3e 2061 abbd 7faf 40be
00000300: 6f0e eebd 4021 5d3e 3304 513e ca0e fa3d
00000310: acf3 303e ece4 f6bc 1b96 683e 33cf 2abe
00000320: fe1f 46be f296 38be 842f 2f3d 390e eabd
00000330: ab3f 283e 5944 2c3e e878 303e 7b9c 04bd
00000340: dfbd 96bc 684b 2e3e b556 3abc 26e2 8f3d
00000350: 77df 393d 98ca 6a3d 5146 d93d 1211 583e
00000360: 9162 a3bd 8080 dfbd 55cc 093e 7b5a b7bd
00000370: c76a 19be 4b8d 553e 8dcf 2a3e c4ce 18bd
00000380: 8c74 573d c6a5 f63d e98b 1d3e 50c3 41be
00000390: ff7a 46be 9a53 0cbe 69bb 143e 3863 883d
000003a0: df8d eb3d 6483 87bd 47b6 bc3d 3b0c 73bd
000003b0: 4f35 863e 159f e83c 9373 52bd 8404 043c
000003c0: 81d5 2a3e 277f 323e 8ab9 363e de6b b6bc
000003d0: 9d57 b4bd 12c6 11be 6025 8e3c 57e5 d6bd
000003e0: 8b8e 56be ff86 233e 8479 6d3d b0b5 f7bc
000003f0: b4d7 0b3d 3fca 423d 6ef9 093e 7ff6 283e

mlp.0.bias f4 [128]
0.24093285 -0.19195522 -0.22279364 0.13090058 0.3542065 -0.2098788 -0.25318158 -0.08787581
-0.083578706 -0.023961898 0.22105873 0.10529808 -0.36711374 -0.2416353 0.35452664 0.34135258
0.17739835 0.13282199 -0.11801221 0.31632188 0.20903857 0.013672965 -0.3165784 -0.36130694
0.32830536 -0.2679318 -0.3579667 -0.2111427 0.018897098 0.34485662 0.13977171 -0.2780738
-0.18209551 0.30305135 0.10276005 -0.11011505 -0.26819655 -0.3545171 0.1290139 -0.116238445
0.21498244 0.31569943 -0.0673005 0.1008937 0.17449747 0.29309073 0.19098203 0.047886144
-0.04270809 -0.06955514 -0.13295907 0.08228479 -0.25473225 -0.11197354 0.30222878 0.30856088
0.07377863 -0.16474645 0.38236248 -0.36668408 0.13843197 -0.36548164 -0.35416314 0.17478976
0.35497501 0.22493492 -0.018870905 0.3266855 0.20365795 -0.28946036 -0.096359335 -0.0736219
0.06673929 0.08352801 0.3666364 0.00704787 0.25235775 -0.019792983 0.010331035 -0.18623647
0.14762434 0.06659292 -0.21816796 -0.14578463 0.20719287 0.043057226 -0.3725108 -0.303519
0.39972222 -0.16031224 -0.36381984 0.34440017 0.22104676 -0.21123789 -0.23052467 0.30827615
-0.19098338 0.21447285 0.06300739 0.09426168 0.13960266 -0.11272991 -0.22664706 -0.32213598
-0.310073 -0.011415333 0.24300471 -0.15788263 0.2655413 0.1363277 0.0219722 0.2635448
0.25313944 0.21531616 -0.014590703 -0.015997624 0.062272448 0.31260455 0.11382968 0.15372597
0.09314899 -0.29176134 0.28658447 -0.2864477 -0.23600462 0.2231802 0.36866614 -0.11218016
00000000: 1ab7 763e e98f 44be 0424 64be cd0a 063e
00000010: 8e5a b53e 78ea 56be 04a1 81be 3cf8 b3bd
00000020: 502b abbd be4b c4bc 385d 623e 85a6 d73d
00000030: 55f6 bbbe 3e6f 77be 8484 b53e c4c5 ae3e
00000040: eaa7 353e 7d02 083e 63b0 f1bd f1f4 a13e
00000050: 350e 563e 9204 603c 9016 a2be 39fd b8be
00000060: a417 a83e 5b2e 89be 6947 b7be cb35 58be
00000070: 16ce 9a3c 0c91 b03e 5120 0f3e b05f 8ebe
00000080: 3f77 3abe 8c29 9b3e dc73 d23d 0084 e1bd
00000090: 0f51 89be 4483 b5be 381c 043e 6c0e eebd
000000a0: 5b24 5c3e 5ba3 a13e d8d4 89bd 5ba1 ce3d
000000b0: 77af 323e fd0f 963e cb90 433e 4324 443d
000000c0: aeee 2ebd ed72 8ebd 6c26 08be ee84 a83d
000000d0: 446c 82be 6252 e5bd bbbd 9a3e b1fb 9d3e
000000e0: 4019 973d 4bb3 28be 04c5 c33e 04be bbbe
000000f0: 1cc1 0d3e 6920 bbbe df54 b5be 16fc 323e
00000100: 49bf b53e 5755 663e 2897 9abc 5243 a73e
00000110: b68b 503e 2634 94be 0b58 c5bd 14c7 96bd
00000120: 9cae 883d bc10 ab3d c4b7 bb3e d2f1 e63b
00000130: 0935 813e e524 a2bc 8043 293c c6b4 3ebe
00000140: d62a 173e de61 883d 6c67 5fbe 9148 15be
00000150: 5e2a 543e c65c 303d bcb9 bebe d866 9bbe
00000160: 64a8 cc3e e428 24be 9846 babe 3855 b03e
00000170: 155a 623e bf4e 58be a90e 6cbe 5fd6 9d3e
00000180: 2691 43be c59e 5b3e 050a 813d 450c c13d
00000190: 00f4 0e3e f0de e6bd 2b16 68be 02ef a4be
000001a0: e3c1 9ebe 6007 3bbc 3ad6 783e fcab 21be
000001b0: 07f5 873e 7d99 0b3e 0bff b33c 58ef 863e
000001c0: 7e9b 813e d77b 5c3e d80d 6fbc 730d 83bc
000001d0: 6511 7f3d b40d a03e 891f e93d 576a 1d3e
000001e0: e6c4 be3d be61 95be 33bb 923e 46a9 92be
000001f0: 32ab 71be 5a89 643e cfc1 bc3e b6be e5bd

mlp.2.weight f4 [128, 128]
-0.11035527 -0.10955303 0.03598614 -0.09931364 -0.14378071 0.13345827 0.061720014 0.0041640997
0.06541398 -0.026940932 -0.09292592 0.13348173 -0.124789186 1.9147992e-05 -0.14665018 -0.055469822
-0.0024624537 0.10607205 0.087510824 -0.123210765 0.011540249 0.088469386 -0.023798808 -0.035935037
0.03405909 0.091419145 -0.1401116 0.12850569 -0.059411585 0.14712943 0.14617819 0.08582196
0.06282918 0.013470022 -0.043388914 0.054524958 -0.1359017 -0.044787534 0.10962845 -0.022634298
-0.08248972 0.043594398 -0.12692018 -0.11703648 0.12708302 0.023589969 0.004261251 0.014816925
0.028104164 0.0069674617 0.059004918 0.120695956 0.1415688 0.017600432 0.038683783 -0.060920063
0.07796946 0.08412859 0.121520214 0.079988435 -0.052108824 0.09112315 0.028824314 0.055450745
0.085776225 -0.05803081 0.014780687 0.032082904 -0.1434206 -0.03972984 -0.018625157 0.08685103
-0.12254407 0.13919024 0.09484909 0.08876745 -0.050338794 0.060843542 -0.07791665 0.026556866
0.008368509 -0.05362493 -0.027632982 -0.0069902837 0.15070021 0.028289914 -0.08899228 -0.07064014
-0.12888876 0.13805534 0.104157105 0.014404139 -0.11888531 0.09515914 0.04307334 -0.07544215
-0.076336645 -0.13315873 -0.120807186 0.10304793 0.07776222 0.115584604 -0.057304196 -0.117560744
-0.11212674 0.120596394 -0.10917931 0.100485876 0.0044005737 0.0010310774 0.07418079 -0.067931615
-0.12077915 0.14189659 -0.15205236 0.06775574 -0.03827963 -0.01614748 -0.11643336 -0.059083
-0.12857054 0.10739316 -0.072155595 0.082433164 -0.033998407 -0.14694174 0.01347963 0.012766799
-0.014775072 0.15111338 0.01955691 0.12407165 -0.14427215 0.07280666 -0.13229364 -0.0541284
0.06574489 -0.08573838 -0.11960922 0.06702333 -0.07686698 0.11404206 0.16315438 -0.07356285
-0.16680141 -0.0867985 -0.10135582 0.06015629 0.14339179 0.12733656 0.074435145 -0.08123996
0.054324523 0.07055387 -0.030776165 0.09289862 -0.21385142 0.05027027 -0.00030906635 0.1375183
0.12066154 -0.037865393 -0.14449014 0.15231626 -0.18811545 0.1123033 0.12732491 -0.11649218
-0.01538363 -0.12603466 -0.061795004 -0.057294723 -0.050501786 -0.15755384 0.13313442 0.07430301
0.040855024 0.11462176 0.16021472 -0.15478984 -0.021557793 -0.014937732 0.058923535 -0.11738471
0.08984295 0.035244823 0.112899095 0.07220192 0.086225644 0.09278457 -0.13109145 0.051023852
0.14195473 0.12538245 0.11037772 0.12195218 0.04307166 -0.08846973 0.10960417 0.055900306
0.15885876 0.075668596 0.040069256 -0.1047583 -0.051354963 -0.036847394 -0.047919728 -0.123421624
0.12320767 0.04171818 -0.122271344 -0.07452222 -0.10824178 -0.07855919 0.09714864 0.056178004
-0.109862804 0.066599965 0.11215837 0.05745735 0.025389707 0.0017269105 0.022119164 -0.15238978
-0.008566901 0.04330814 0.17428428 0.050016828 -0.15224521 0.11079625 -0.14751048 -0.09768458
-0.03629051 -0.094355 -0.18138883 -0.13354224 -0.03662106 0.039437193 0.15291749 -0.12351322
0.119247995 -0.002194629 0.019967487 -0.0726217 0.074778184 -0.036205877 0.036028378 0.058352776
-0.022460587 -0.01867108 -0.101370886 -0.08526324 0.016545638 0.085676156 0.010313456 0.14657722
00000000: f201 e2bd 575d e0bd 3466 133d f364 cbbd
00000010: 403b 13be 49a9 083e 20ce 7c3d 0073 883b
00000020: c4f7 853d 3bb3 dcbc f24f bebd 6faf 083e
00000030: 7991 ffbd 00a0 a037 772b 16be 5334 63bd
00000040: 1e61 21bb 4e3c d93d e038 b33d ed55 fcbd
00000050: 5013 3d3c 702f b53d b8f5 c2bc 9e30 13bd
00000060: 8b81 0b3d f639 bb3d 6a79 0fbe ff96 033e
00000070: 9059 73bd 19a9 163e bcaf 153e 6cc3 af3d
00000080: 96ac 803d 5eb1 5c3c 93b8 31bd 9055 5f3d
00000090: d129 0bbe 2273 37bd e184 e03d 906b b9bc
000000a0: 5ff0 a8bd 0a90 323d 5df7 01be d2b0 efbd
000000b0: 0d22 023e c03f c13c f7a1 8b3b b0c2 723c
000000c0: b43a e63c 4e4f e43b 24af 713d 712f f73d
000000d0: 69f7 103e c82e 903c e372 1e3d 5187 79bd
000000e0: 74ae 9f3d 9c4b ac3d 97df f83d fad0 a33d
000000f0: 1070 55bd c69e ba3d f820 ec3c 5220 633d
00000100: 72ab af3d b7b1 6dbd b22a 723c 5d69 033d
00000110: dadc 12be c2bb 22bd c993 98bc f4de b13d
00000120: 63f8 fabd e387 0e3e 3d40 c23d b5cb b53d
00000130: 0d30 4ebd 1437 793d c492 9fbd c98d d93c
00000140: 121c 093c d1a5 5bbd 905e e2bc c00e e5bb
00000150: 2851 1a3e 40c0 e73c 9641 b6bd c7ab 90bd
00000160: 6afb 03be 615e 0d3e 5250 d53d 56ff 6b3c
00000170: 247a f3bd cce2 c23d ac6d 303d 6a81 9abd
00000180: 6356 9cbd c35a 08be c269 f7bd cb0a d33d
00000190: cc41 9f3d 9fb7 ec3d ceb7 6abd b0c3 f0bd
000001a0: b4a2 e5bd 3efb f63d 6799 dfbd 8acb cd3d
000001b0: b032 903b 3725 873a 19ec 973d bb1f 8bbd
000001c0: 0f5b f7bd 574d 113e 9db3 1bbe 85c3 8a3d
000001d0: 1acb 1cbd b847 84bc 9d74 eebd 0401 72bd
000001e0: ffa7 03be f2f0 db3d 50c6 93bd b8d2 a83d
000001f0: ea41 0bbd e577 16be abd9 5c3c d62b 513c
00000200: 2513 72bc 77bd 1a3e d035 a03c 4719 fe3d
00000210: 14bc 13be a81b 953d fc77 07be beb5 5dbd
00000220: 42a5 863d 9b97 afbd aef5 f4bd 8743 893d
00000230: 6f6c 9dbd e28e e93d f111 273e 1fa8 96bd
00000240: fdcd 2abe 69c3 b1bd a493 cfbd 7166 763d
00000250: 4cd5 123e 8464 023e 7471 983d 2361 a6bd
00000260: 6483 5e3d 8c7e 903d 4c1e fcbc a241 be3d
00000270: defb 5abe 33e8 4d3d 2f0a a2b9 99d1 0c3e
00000280: 661d f73d be18 1bbd 39f5 13be cbf8 1b3e
00000290: 56a1 40be 46ff e53d 7661 023e 7493 eebd
000002a0: 9f0b 7cbc 3b0f 01be c21c 7dbd dfad 6abd
000002b0: f6da 4ebd cb55 21be 6454 083e 2d2c 983d
000002c0: 9957 273d d0be ea3d 540f 243e 3a81 1ebe
000002d0: f899 b0bc 64bd 74bc ce59 713d 6567 f0bd
000002e0: 95ff b73d e05c 103d a437 e73d 9ade 933d
000002f0: 1297 b03d d605 be3d d63c 06be 63fe 503d
00000300: 955c 113e 4264 003e b70d e23d 11c2 f93d
00000310: e96b 303d 9e2f b5bd 2778 e03d b8f7 643d
00000320: dfab 223e 23f8 9a3d a91f 243d 858b d6bd
00000330: 9559 52bd 4bed 16bd 7a47 44bd 7ac4 fcbd
00000340: 4e54 fc3d afe0 2a3d 6669 fabd 1b9f 98bd
00000350: dead ddbd a4e3 a0bd def5 c63d e81a 663d
00000360: c0ff e0bd 9065 883d 4ab3 e53d 6658 6b3d
00000370: 13fe cf3c 8059 e23a 4033 b53c 110c 1cbe
00000380: 305c 0cbc e063 313d 9477 323e 72de 4c3d
00000390: 2be6 1bbe 25e9 e23d fd0c 17be da0e c8bd
000003a0: 5ca5 14bd 323d c1bd febd 39be 4cbf 08be
000003b0: f7ff 15bd e588 213d 6796 1c3e 80f4 fcbd
000003c0: 4b38 f43d c4d3 0fbb db92 a33c b0ba 94bd
000003d0: 4e25 993d 9d4c 14bd 7e92 133d 5203 6f3d
000003e0: 44ff b7bc 18f4 98bc 8a9b cfbd 7e9e aebd
000003f0: b88a 873c fb76 af3d c5f9 283c 5718 163e

mlp.2.bias f4 [128]
0.03778179 -0.020707682 0.025495157 -0.019493073 -0.0209122 -0.041211758 0.09076051 0.0624422
0.050287552 0.02980124 -0.06675909 -0.054797553 -0.0407558 -0.08775298 0.004905291 0.010495222
-0.016741708 -0.042600118 0.04931501 0.09094618 -0.04731679 0.008880093 -0.076017 0.078989886
0.07196814 0.078073226 -0.036632247 -0.050238453 0.037372757 -0.046345614 0.08892998 -0.074350625
0.07703054 0.09075211 0.08790536 0.022472655 -0.046032082 -0.010531949 -0.03799335 -0.014054408
0.07164764 0.07030501 -0.06854404 0.07246601 0.028876744 -0.049247168 -0.007913965 0.056452893
-0.07480109 0.074514024 -0.057305828 0.056188565 -0.017761864 -0.026034947 0.07219912 -0.050627287
0.018751085 0.035931572 0.029698081 -0.035041265 -0.07170955 0.0065622604 0.059075095 -0.019805817
0.07564984 0.021027885 0.07618617 -0.03795518 0.0036422363 0.09249072 -0.045187294 0.012962023
0.043320123 0.012329916 -0.08313582 0.056150805 0.022124974 -0.035763677 -0.042884648 -0.08215243
0.09944413 -0.05185312 -0.04740601 0.09433636 0.06767781 0.028046645 0.029061997 0.03291836
-0.059637286 0.07397042 0.059041247 0.052665226 0.0839621 -0.039886404 -0.019325506 -0.04418328
-0.0043530134 0.078783505 -0.061964527 0.04297518 0.052984767 0.0039103944 -0.035019282 0.020921815
-0.04731823 -0.062308706 -0.0017807187 -0.019832393 0.07078948 0.07234846 0.035973504 0.032510977
0.052073933 -0.06637601 -0.029250516 0.009010736 0.015938967 -0.004096698 0.06807004 0.009590633
-0.052850075 0.03761605 0.096338436 0.009688177 0.079317 -0.031882856 0.07788239 0.016690025
00000000: 14c1 1a3d 28a3 a9bc 38db d03c f0af 9fbc
00000010: 1050 abbc a9cd 28bd a5e0 b93d 64c3 7f3d
00000020: 52fa 4d3d bb21 f43c fdb8 88bd 6673 60bd
00000030: 8eef 26bd d6b7 b3bd 90bc a03b 27f4 2b3c
00000040: e825 89bc 767d 2ebd 89fe 493d fe41 ba3d
00000050: 40cf 41bd cf7d 113c cdae 9bbd 73c5 a13d
00000060: 0864 933d dbe4 9f3d b20b 16bd d6c6 4dbd
00000070: 2d14 193d e6d4 3dbd ec20 b63d 2445 98bd
00000080: 30c2 9d3d 3edc b93d ba07 b43d 9318 b83c
00000090: 238c 3cbd 328e 2cbc ea9e 1bbd 7644 66bc
000000a0: ffbb 923d 13fc 8f3d d160 8cbd 0f69 943d
000000b0: ec8e ec3c 66b7 49bd 93a9 01bc 263b 673d
000000c0: 5031 99bd cf9a 983d 84b9 6abd fb25 663d
000000d0: 5481 91bc 3e47 d5bc 22dd 933d 8f5e 4fbd
000000e0: e09b 993c fc2c 133d 6449 f33c 6e87 0fbd
000000f0: 75dc 92bd 3b08 d73b baf8 713d cf3f a2bc
00000100: 4eee 9a3d ac42 ac3c 7f07 9c3d e476 1bbd
00000110: 96b2 6e3b c66b bd3d 5016 39bd aa5e 543c
00000120: 7170 313d 6a03 4a3c 1d43 aabd 63fe 653d
00000130: 6f3f b53c ef7c 12bd d0a7 2fbd 893f a8bd
00000140: 5da9 cb3d f063 54bd ce2c 42bd 6c33 c13d
00000150: aa9a 8a3d 14c2 e53c 6d13 ee3c 67d5 063d
00000160: 3a46 74bd ce7d 973d 3cd5 713d 7eb7 573d
00000170: 52f4 ab3d ed5f 23bd 8650 9ebc 87f9 34bd
00000180: b9a3 8ebb 3f59 a13d 84ce 7dbd be06 303d
00000190: 8e06 593d c422 803b 6170 0fbd 3a64 ab3c
000001a0: c3d0 41bd 6a37 7fbd 0167 e9ba 8b77 a2bc
000001b0: 13fa 903d 6e2b 943d f458 133d 3b2a 053d
000001c0: 7a4b 553d 25f0 87bd c79e efbc c4a1 133c
000001d0: 7092 823c 983d 86bb 4e68 8b3d 0822 1d3c
000001e0: 5279 58bd 4a13 1a3d 164d c53d 29bb 1e3c
000001f0: f470 a23d 9997 02bd cd80 9f3d 85b9 883c

mlp.4.weight f4 [128, 128]
-0.03357756 -0.13401225 -0.017516151 0.15090878 0.08542092 -0.12953407 -0.1094015 0.007880092
-0.06995199 0.01743333 -0.09334424 0.078229785 0.09646641 0.023552254 0.12557589 -0.1520979
-0.028984256 0.087642446 -0.009553343 -0.14403121 0.06920011 -0.12727831 -0.05850044 0.1477937
-0.15112995 0.07157183 -0.12119918 0.03852564 0.1501361 0.1420383 0.059290707 0.1289943
0.029038295 0.011891469 0.058183134 0.09449582 -0.033009782 0.108678535 0.09944375 -0.07752666
-0.1432635 0.06837897 0.10667376 0.038752675 0.10411261 0.1429817 0.14469497 0.101473495
-0.029570542 0.14672525 -0.13274589 -0.034932867 0.14593692 0.043932334 0.12131657 0.10797612
-0.13412943 -0.124616206 0.13200675 -0.09251435 0.1039855 0.01875028 -0.039591305 -0.05983895
-0.013834894 -0.06730075 -0.06143146 0.1373008 -0.07934802 -0.13669273 0.03265488 0.059320122
-0.07338224 -0.02390176 0.017827332 -0.13888247 -0.10127638 0.06909275 -0.0007876009 -0.029409215
0.05529052 0.07540779 -0.13149814 0.0009340197 -0.12218472 -0.070962295 0.13203217 0.096547216
-0.026927307 0.036154643 0.0075981617 -0.028793491 0.05522479 -0.062458813 -0.043359116 -0.07356967
0.03387548 0.102623984 -0.094216034 -0.06784161 -0.054485224 -0.12862577 -0.070683524 0.087842226
0.14456107 0.10243757 -0.061225288 0.10348083 -0.053767398 0.064554706 -0.11220853 -0.07159557
-0.0053780973 -0.018782094 0.11296816 -0.008245438 -0.0745076 0.093357936 0.036728263 0.022416964
-0.041695103 -0.113094345 0.03539656 -0.122007996 -0.05200219 0.06813444 0.12680344 -0.04349024
0.059460834 0.13066761 -0.11614373 -0.0076209754 0.07933934 0.14863615 0.025199428 0.1399156
-0.07112041 0.12861063 0.053578585 -0.03513798 -0.05228273 -0.0419961 -0.1085699 -0.09469731
-0.051065356 -0.004430875 -0.095864296 -0.09424775 0.14336397 0.06258145 0.045470998 -0.12884568
0.0015211701 -0.122886315 -0.005350992 0.067927256 0.076416135 0.04559295 -0.15166207 0.09958874
0.13977386 0.11942287 0.03689234 -0.10457077 0.052208528 0.1449684 -0.086731695 -0.053564616
-0.038878508 -0.030644543 -0.12715879 0.08351421 0.068844855 -0.096849635 -0.13092902 -0.13716295
0.011319712 0.00010083616 0.016406134 -0.053436793 0.08786608 -0.028063416 0.020625591 -0.1309602
0.11127119 -0.08063168 0.050910994 -0.009562701 -0.011299416 0.06631835 -0.12868524 -0.11898747
0.09470861 -0.016208768 -0.093722604 -0.11422488 -0.03333334 -0.018653497 0.07566281 -0.091064215
0.021726862 0.03633012 -0.057135567 0.066203386 0.06705195 0.13040288 -0.0896552 0.08156666
-0.04605668 -0.04549852 0.14285852 0.011376023 -0.12024753 -0.08919608 0.064665794 0.12059356
-0.0924244 0.08296491 -0.09734878 -0.077697754 0.009295493 -0.13933478 -0.06299456 0.030436307
0.0010346919 -0.066336565 -0.14489326 -0.040642634 -0.13470364 0.09204872 0.060400978 -0.077539034
-0.023290068 0.12108429 -0.01961027 -0.088145934 -0.06976642 -0.05410759 0.030886054 -0.11259405
0.15300928 -0.14422922 -0.12347722 0.12830468 0.11794992 -0.08152115 -0.04951594 -0.06306968
0.066236705 -0.03957499 0.033770904 -0.14328693 0.096031174 0.066122174 -0.0384157 0.04363604
00000000: a088 09bd 823a 09be 087e 8fbc d587 1a3e
00000010: 2af1 ae3d 94a4 04be e50d e0bd 801b 013c
00000020: fd42 8fbd 58d0 8e3c 442b bfbd f036 a03d
00000030: 2e90 c53d a8f0 c03c f796 003e 8dbf 1bbe
00000040: 6470 edbc e27d b33d a085 1cbc eb7c 13be
00000050: cab8 8d3d 3f55 02be 289e 6fbd 3b57 173e
00000060: cfc1 1abe 4094 923d 4737 f8bd 10cd 1d3d
00000070: 47bd 193e 7d72 113e d0da 723d 1517 043e
00000080: b8e1 ed3c 70d4 423c 7051 6e3d 0687 c13d
00000090: 4435 07bd da92 de3d 2aa9 cb3d 4cc6 9ebd
000000a0: abb3 12be 460a 8c3d c677 da3d 20bb 1e3d
000000b0: fe38 d53d cb69 123e eb2a 143e 56d1 cf3d
000000c0: ec3d f2bc 253f 163e 8aee 07be c415 0fbd
000000d0: 7d70 153e 64f2 333d d274 f83d 9622 dd3d
000000e0: 3a59 09be c836 ffbd c72c 073e 2a78 bdbd
000000f0: 5af6 d43d 309a 993c 7e2a 22bd b019 75bd
00000100: c0ab 62bc fad4 89bd 8e9f 7bbd 9598 0c3e
00000110: 3781 a2bd 2ef9 0bbe 20c1 053d a8f9 723d
00000120: 6e49 96bd a0cd c3bc a00a 923c 3537 0ebe
00000130: fe69 cfbd 8080 8d3d 0077 4eba 98eb f0bc
00000140: 5078 623d 666f 9a3d 73a7 06be 00d9 743a
00000150: fc3b fabd ae54 91bd 7133 073e 8cba c53d
00000160: a896 dcbc e416 143d 00fa f83b 54e0 ebbc
00000170: 6433 623d d0d4 7fbd 5499 31bd b2ab 96bd
00000180: 04c1 0a3d 862c d23d 56f4 c0bd 8bf0 8abd
00000190: e62b 5fbd 79b6 03be 86c2 90bd a0e6 b33d
000001a0: d107 143e caca d13d 5ec7 7abd c2ed d33d
000001b0: 343b 5cbd 4235 843d 96cd e5bd b3a0 92bd
000001c0: c03a b0bb e8dc 99bc da5b e73d e017 07bc
000001d0: 7197 98bd 7232 bf3d 6070 163d c8a3 b73c
000001e0: 7cc8 2abd 029e e7bd fcfb 103d 54df f9bd
000001f0: 4000 55bd 128a 8b3d c3d8 013e d222 32bd
00000200: 348d 733d bbcd 053e c4dc edbd 60b9 f9bb
00000210: aa7c a23d 1334 183e 086f ce3c 0946 0f3e
00000220: 94a7 91bd 81b2 033e 3875 5b3d d8ec 0fbd
00000230: 6a26 56bd 1a04 2cbd e559 debd aaf0 c1bd
00000240: e829 51bd e030 91bb 8054 c4bd f704 c1bd
00000250: 01ce 123e b42a 803d cc3f 3a3d 1ff0 03be
00000260: 0062 c73a d2ab fbbd 6057 afbb 721d 8b3d
00000270: 1080 9c3d acbf 3a3d 4d4d 1bbe 2ef5 cb3d
00000280: e120 0f3e fa93 f43d 6c1c 173d 3329 d6bd
00000290: 9cd8 553d 9972 143e 63a0 b1bd 9266 5bbd
000002a0: 123f 1fbd 440a fbbc ea35 02be 8009 ab3d
000002b0: 88fe 8c3d 1a59 c6bd 4212 06be 7274 0cbe
000002c0: 5076 393c 0078 d338 2866 863c 8ae0 5abd
000002d0: 22f3 b33d 40e5 e5bc 00f7 a83c 6e1a 06be
000002e0: 26e2 e33d 3922 a5bd 0c88 503d e0ac 1cbc
000002f0: 3021 39bc ead1 873d 10c6 03be b4af f3bd
00000300: 96f6 c13d 40c8 84bc a3f1 bfbd bcee e9bd
00000310: 8a88 08bd 38cf 98bc 1af5 9a3d e07f babd
00000320: 88fc b13c e4ce 143d fc06 6abd a495 873d
00000330: 8852 893d 5588 053e 259d b7bd 6c0c a73d
00000340: eea5 3cbd a85c 3abd 8149 123e 8062 3a3c
00000350: 5644 f6bd 6fac b6bd 806f 843d c2f9 f63d
00000360: 0149 bdbd 82e9 a93d cc5e c7bd 0020 9fbd
00000370: 204c 183c c7ad 0ebe 4b03 81bd 9055 f93c
00000380: 809e 873a 77db 87bd e65e 14be e478 26bd
00000390: c0ef 09be 0a84 bc3d 0467 773d c9cc 9ebd
000003a0: d0ca bebc 0afb f73d b8a5 a0bc db85 b4bd
000003b0: b2e1 8ebd ec9f 5dbd c004 fd3c b697 e6bd
000003c0: 77ae 1c3e d3b0 13be a0e1 fcbd 4d62 033e
000003d0: ba8f f13d 90f4 a6bd 3ad1 4abd ad2a 81bd
000003e0: 1ca7 873d 6219 22bd 5c53 0a3d cfb9 12be
000003f0: feab c43d 106b 873d c859 1dbd b4bb 323d

mlp.4.bias f4 [128]
-0.08499616 0.04873053 0.06767055 0.027100585 -0.0105434675 0.07998226 -0.040573463 -0.030470243
0.08039982 0.05508931 -0.042303983 -0.038606606 0.032126285 0.08332195 0.02883611 -0.021952376
-0.008894114 -0.01747657 0.030239023 0.06518736 -0.0057826038 0.07417215 0.07450124 -0.046380352
-0.07861446 0.06546313 0.051216774 0.08029122 -0.03404062 -0.03418389 0.065138444 0.0031755522
-0.035609104 0.0529913 0.071988165 0.013778893 -0.051188495 0.09729358 -0.045388587 0.017305508
-0.080661 -0.07878992 -0.06954995 0.061566334 0.074941434 -0.03751415 -0.017544325 0.046708282
-0.07551271 0.04500327 -0.02070935 -0.041242387 0.083814844 0.051494572 0.055162586 0.020885838
-0.059257448 0.0635485 -0.06682886 -0.012521698 -0.050568014 0.08485284 -0.005223992 0.04242996
0.08266001 0.09614766 -0.08747337 -0.024519347 0.025699725 0.057302557 -0.03943778 0.028264428
-0.01645476 -0.014019315 -0.0026322359 -0.00612172 0.056745246 0.015175744 0.09430494 -0.0037502125
0.010991205 0.09848653 0.007986017 -0.06446769 -0.06222255 0.0033663467 -0.06785899 -0.044562746
-0.05028979 -0.0036481044 -0.003991373 -0.0034637917 -0.048812114 -0.0429515 0.09057241 -0.019390851
-0.0443233 0.053233072 -0.073454514 -0.027557196 -0.02042286 -0.052452553 0.0500783 -0.031689826
0.029964084 0.05926029 -0.08220036 -0.024724856 -0.022970531 0.075252354 -0.07276791 0.0035078975
0.08849773 0.03892969 0.046165098 -0.016760636 0.06436606 0.06870185 0.021921726 0.032551922
0.049534943 -0.07584506 -0.01139761 0.021599254 -0.040491603 0.06521122 -0.018974515 0.06682522
00000000: 7712 aebd aa99 473d db96 8a3d 0c02 de3c
00000010: 82be 2cbc bdcd a33d 5c30 26bd bb9c f9bc
00000020: a9a8 a43d 54a5 613d f146 2dbd f621 1ebd
00000030: da96 033d b3a4 aa3d b539 ec3c 78d5 b3bc
00000040: 9eb8 11bc 062b 8fbc d4b7 f73c f380 853d
00000050: ff7b bdbb 91e7 973d 1b94 983d 53f9 3dbd
00000060: 9e00 a1bd 8911 863d aec8 513d b96f a43d
00000070: 2d6e 0bbd 6804 0cbd 4e67 853d ed1c 503b
00000080: dada 11bd 680d 593d 886e 933d dec0 613c
00000090: 07ab 51bd db41 c73d 62e9 39bd 48c4 8d3c
000000a0: 9831 a5bd 9c5c a1bd 3470 8ebd fb2c 7c3d
000000b0: e57a 993d 70a8 19bd 1eb9 8fbc 2f51 3f3d
000000c0: 68a6 9abd 5955 383d a8a6 a9bc c7ed 28bd
000000d0: 1ea7 ab3d f9eb 523d 2af2 613d c718 ab3c
000000e0: f0b7 72bd b725 823d 92dd 88bd cf27 4dbc
000000f0: 6820 4fbd 53c7 ad3d 052e abbb 0acb 2d3d
00000100: a749 a93d 10e9 c43d 3d25 b3bd ccdc c8bc
00000110: 3b88 d23c 16b6 6a3d 8289 21bd cd8a e73c
00000120: 22cc 86bc 45b1 65bc 9781 2cbb b698 c8bb
00000130: b46d 683d afa3 783c f322 c13d 20c6 75bb
00000140: 7514 343c 4eb3 c93d c8d7 023c a307 84bd
00000150: 13dd 7ebd ed9d 5c3b a7f9 8abd 6d87 36bd
00000160: abfc 4dbd 0915 6fbb 10ca 82bb c800 63bb
00000170: 36ef 47bd e9ed 2fbd 077e b93d 90d9 9ebc
00000180: 598c 35bd ec0a 5a3d 526f 96bd a1bf e1bc
00000190: d74d a7bc 7dd8 56bd e71e 4d3d 31cd 01bd
000001a0: 3d77 f53c ebba 723d aa58 a8bd c88b cabc
000001b0: b22c bcbc e81d 9a3d 5807 95bd c1e4 653b
000001c0: 4c3e b53d bd74 1f3d 9d17 3d3d 9a4d 89bc
000001d0: 5ad2 833d 8eb3 8c3d 3195 b33c 2a55 053d
000001e0: 27e5 4a3d a854 9bbd 0bbd 3abc ebf0 b03c
000001f0: 86da 25bd 768d 853d 7170 9bbc a9db 883d

mlp.6.weight f4 [4, 128]
-0.021926314 0.047655553 -0.16616766 0.054779697 -0.13652918 0.026167057 0.19179687 0.008717505
0.015184492 0.097874455 0.1902178 -0.07887696 -0.06234845 0.07299915 0.08961625 0.09512311
0.0061681257 0.107502885 -0.17858091 0.0046691913 0.17585167 -0.17781821 -0.10712774 -0.09230703
0.11754069 0.2122786 -0.114809334 -0.16210221 -0.18917498 0.15491274 0.0727117 -0.18238638
-0.08472956 -0.107980065 -0.17583574 0.06127934 0.12122148 0.22450165 -0.15908304 0.031500414
0.1851424 -0.066210374 -0.13232046 0.0477874 -0.1257605 0.10113609 -0.17296417 0.019309761
0.12010166 -0.1646809 -0.19718605 0.0981473 0.046780363 -0.0899322 -0.007976726 -0.14655094
0.12748992 0.10327086 0.12255292 0.18634848 0.24756613 -0.17969866 0.21965618 -0.08676276
-0.10309335 -0.06638106 0.10994658 -0.05334124 0.03298501 0.1025029 0.25793332 -0.13525099
-0.0080094375 -0.1963724 0.11538408 -0.08284843 -0.18586105 -0.18763985 0.13550791 -0.0393136
0.20210937 -0.074975245 -0.01147373 0.22050057 -0.086889796 -0.23012084 -0.14399007 -0.0020168861
0.21920711 -0.16946113 -0.19645101 0.0034904333 -0.06407078 -0.1486984 0.12861401 0.12182802
0.24242774 -0.055095486 -0.12920971 0.14690702 -0.17744057 0.1412068 -0.12935087 -0.0057973266
-0.20018622 -0.015017818 -0.06210459 0.10599798 -0.09836912 0.054496925 -0.20528805 0.19897027
-0.21405183 -0.1392313 -0.08654635 0.24023597 -0.031685423 0.052389443 -0.15464927 0.05737931
0.058362007 0.07313135 -0.21779896 0.16961405 -0.1884101 0.14422819 0.1270068 0.041083153
-0.08315316 -0.11841125 -0.002961568 0.091355115 0.07147302 -0.07642277 0.03643763 -0.036858708
0.04371044 0.01057138 0.15232468 -0.09128028 -0.11654735 -0.20530674 0.114392616 0.104314595
-0.19286408 0.18913318 -0.08556258 -0.16890796 0.0066547454 0.02148687 0.10828278 0.09945607
0.07452527 -0.14423326 -0.11223376 0.2122285 0.068817995 0.073585935 0.07771302 0.088565975
0.23703523 -0.081301704 0.119652785 0.036200143 0.061166372 0.14416805 -0.06564052 0.06263366
0.07763244 -0.09434254 0.10424551 0.16173203 0.043922946 0.03508681 0.11214277 -0.02448995
-0.16358177 0.22917296 -0.08851629 -0.1595226 -0.11836012 -0.22936091 -0.054473966 -0.06806659
0.097017735 -0.14783394 -0.07959619 0.19652885 -0.1500544 -0.047442198 0.17160843 -0.115609646
-0.13746352 -0.056570683 -0.13039267 -0.06218852 0.25403646 0.13561067 0.22395323 -0.17688748
-0.20142788 -0.18745878 0.074798055 -0.18201485 0.012200481 0.14347576 0.23027177 0.081512034
0.16789313 0.09562841 -0.15264957 0.06060029 -0.22577912 0.013520338 -0.12628551 0.07872207
-0.1854821 0.07162138 -0.21073115 -0.18780465 0.2135667 0.022882892 0.12984115 0.20624541
0.046723798 -0.055543557 -0.135091 -0.04779379 -0.11584931 0.17340896 -0.035495296 -0.046701506
0.0049153846 -0.14189625 0.13759646 -0.17802426 0.11398852 0.04016232 0.029864028 0.04774868
-0.117604874 -0.09639392 0.0025415043 0.058957644 -0.045084115 -0.12581597 0.10609539 -0.1820543
-0.19903223 0.0026204586 0.15672244 0.05906897 0.060298562 0.087912135 -0.09514089 0.17220171
00000000: d09e b3bc 7832 433d db27 2abe ad60 603d
00000010: 4ece 0bbe 4c5c d63c 6666 443e ded3 0e3c
00000020: 60c8 783c 6772 c83d 74c8 423e 3e8a a1bd
00000030: 1761 7fbd 9480 953d b988 b73d e8cf c23d
00000040: fd1d ca3b 792a dc3d eadd 36be 0400 993b
00000050: 7612 343e fa15 36be ca65 dbbd 780b bdbd
00000060: 2cb9 f03d 905f 593e 2821 ebbd 1ffe 25be
00000070: 16b7 41be 72a1 1e3e dfe9 943d 7fc3 3abe
00000080: b186 adbd a724 ddbd 490e 34be 0c00 7b3d
00000090: f842 f83d c3e3 653e aae6 22be 9406 013d
000000a0: f895 3d3e 4e99 87bd 047f 07be b9bc 433d
000000b0: 5cc7 00be 7020 cf3d 851d 31be 812f 9e3c
000000c0: dcf7 f53d 1ca2 28be 24eb 49be 7401 c93d
000000d0: c49c 3f3d 602e b8bd d0b0 02bc 7311 16be
000000e0: b88c 023e ac7f d33d 06fd fa3d 23d2 3e3e
000000f0: fa81 7d3e ed02 38be 8ded 603e adb0 b1bd
00000100: 9b22 d3bd cbf2 87bd ac2b e13d 587c 5abd
00000110: 4a1b 073d 0aed d13d d60f 843e 3c7f 0abe
00000120: 043a 03bc d915 49be 7d4e ec3d 70ac a9bd
00000130: 5c52 3ebe a924 40be 96c2 0a3e 4c07 21bd
00000140: c2f5 4e3e 9f8c 99bd 50fc 3bbc e7ca 613e
00000150: 47f3 b1bd cca4 6bbe 2272 13be bc2d 04bb
00000160: d477 603e 3887 2dbe 742a 49be c1bf 643b
00000170: 8b37 83bd 6544 18be 64b3 033e f880 f93d
00000180: fa3e 783e ceab 61bd 8d4f 04be cb6e 163e
00000190: fbb2 35be 8498 103e 8e74 04be 80f7 bdbb
000001a0: 9efd 4cbe 4b0d 76bc 6261 7ebd 7815 d93d
000001b0: c075 c9bd 2b38 5f3d 0837 52be ddbe 4b3e
000001c0: 6730 5bbe a692 0ebe 363f b1bd 6b00 763e
000001d0: 93c8 01bd 5096 563d 615c 1ebe 9106 6b3d
000001e0: 000d 6f3d e4c5 953d b106 5fbe 4eaf 2d3e
000001f0: 94ee 40be 8eb0 133e 120e 023e cf46 283d
00000200: 344c aabd 9981 f2bd de16 42bb 6418 bb3d
00000210: 7260 923d 8b83 9cbd a03f 153d 28f9 16bd
00000220: b809 333d 9533 2d3c 00fb 1b3e 28f1 babd
00000230: 61b0 eebd ee3b 52be ad46 ea3d e4a2 d53d
00000240: 297e 45be 21ac 413e 6f3b afbd 35f6 2cbe
00000250: 0d10 da3b 3b05 b03c 5dc3 dd3d a0af cb3d
00000260: b4a0 983d e2b1 13be d0da e5bd 6e52 593e
00000270: 73f0 8c3d 39b4 963d 0128 9f3d 1462 b53d
00000280: 5db9 723e 8281 a6bd 850c f53d 9a46 143d
00000290: 9789 7a3d caa0 133e 896e 86bd 1446 803d
000002a0: c2fd 9e3d a936 c1bd ac7e d53d 159d 253e
000002b0: 8ce8 333d 30b7 0f3d 1cab e53d 269f c8bc
000002c0: fb81 27be 51ac 6a3e 0748 b5bd e459 23be
000002d0: ca66 f2bd 96dd 6abe 1820 5fbd 7f66 8bbd
000002e0: 3cb1 c63d c861 17be 5403 a3bd dc3e 493e
000002f0: dca7 19be c052 42bd 1fba 2f3e c0c4 ecbd
00000300: 3dc3 0cbe a9b6 67bd a885 05be 64b9 7ebd
00000310: 1111 823e 86dd 0a3e ff53 653e fe21 35be
00000320: 1c43 4ebe 32f5 3fbe b92f 993d 1a62 3abe
00000330: 87e4 473c 4feb 123e 5dcc 6b3e c8ef a63d
00000340: 2dec 2b3e d4d8 c33d 2b50 1cbe 0238 783d
00000350: a432 67be 6884 5d3c fd50 01be 0939 a13d
00000360: 05ef 3dbe 3bae 923d e8c9 57be dd4f 40be
00000370: 3bb1 5a3e e774 bb3c 14f5 043e ff31 533e
00000380: 7461 3f3d a481 63bd 4c55 0abe 6cc3 43bd
00000390: 6742 edbd 1e92 313e 8463 11bd 144a 3fbd
000003a0: 3c11 a13b 404d 11be 16e6 0c3e fe4b 36be
000003b0: d072 e93d 3f81 243d 68a5 f43c 1f94 433d
000003c0: d3da f0bd 2d6a c5bd 5e8f 263b 927d 713d
000003d0: 1faa 38bd e7d5 00be 8a48 d93d 716c 3abe
000003e0: 1bcf 4bbe 00bc 2b3b d97b 203e 4ef2 713d
000003f0: a0fb 763d 470b b43d 3ad9 c2bd a555 303e

mlp.6.bias f4 [4]
0.051937222 -0.05775275 -0.02683126 0.07068336
00000000: 20bc 543d 268e 6cbd 3bcd dbbc 70c2 903d
