tmp_result/dqn.pt (torch, 22209 bytes, 12 tensors)

mlp.0.weight f4 [32, 7]
000000 e0 b5 9a bd 7a 4a 7e 3e fe 53 4b 3e 6a 3f 09 3e
       -0.07554221 0.24833098 0.19856259 0.13403097
000010 82 6b 64 3e bf 93 aa be 92 1a 35 3e 63 cf d7 3e
       0.22306636 -0.33315846 0.17685917 0.4215041
000020 0a 32 8c 3e 58 c6 e7 bd 6f 56 4f 3e 57 1d 12 be
       0.27381927 -0.11317128 0.20247816 -0.14269005
000030 80 3e 1f 3d 21 e9 bc bc e0 ee cf 3e 90 1d 02 be
       0.038877964 -0.023060383 0.40611935 -0.1270659
000040 09 c9 ef 3e a2 d0 00 3f 89 30 c0 be fd e5 58 be
       0.46833065 0.5031835 -0.3753703 -0.21181484
000050 a8 3e f5 3d bc d6 82 bd 3e 07 c6 3e 7e 35 fd 3d
       0.11974841 -0.063886136 0.386774 0.123637185
000060 f0 30 da bd 83 8f 4a be 30 0e e8 3d 81 76 db bf
       -0.10653865 -0.19781308 0.11330831 -1.714554
000070 4d a8 30 3e 76 1a 86 bd ce aa bb 3d 8b 5d af 3d
       0.17251702 -0.06548016 0.09163438 0.08562764
000080 4a 15 28 be a7 89 39 bc 0b 85 d1 bf 30 35 94 3e
       -0.16414371 -0.011324323 -1.6368726 0.2894683
000090 03 a2 22 3e 2a 97 56 bd 97 57 4a 3e 78 b3 16 bf
       0.15882115 -0.052390255 0.19759975 -0.588676
0000a0 75 4f 66 3e a1 35 5f be e3 e7 92 be fc 25 80 bd
       0.22491248 -0.21797802 -0.2869254 -0.06257245
0000b0 04 bb bf 3d 84 36 9f bd e0 2c ef bd 40 95 fd bb
       0.09361842 -0.0777407 -0.11678481 -0.0077387393
0000c0 b8 d4 89 3d 08 c5 70 be c9 ac f4 3d ff 7a 82 3e
       0.06730026 -0.23512661 0.11947019 0.25484464
0000d0 d8 fc 80 be 97 a1 0e be de 7d 37 3e 12 f7 0d bf
       -0.25192904 -0.13928829 0.17919108 -0.55455124
0000e0 7c 8f da bd d5 68 ac 3e 80 ff 82 3e 29 cc 2a 3e
       -0.10671899 0.3367373 0.25585556 0.16679443
0000f0 41 90 b8 be 45 a1 ba bc 79 f9 b2 3e 42 9f 50 be
       -0.36047557 -0.022781977 0.34955958 -0.20373252
000100 9a a7 7e 3d 09 83 88 ba cc 7b 86 3e 2b 51 f3 3e
       0.062171556 -0.0010415028 0.26266325 0.47522864
000110 f7 ef 1e 3e 0d f9 80 bd 38 bd 5c be 8f 3e 7c 3e
       0.15521227 -0.06297503 -0.21556556 0.24633239
000120 82 84 fd bd 2f c9 ce be 95 f0 5b 3e ca 2d 3e 3e
       -0.123787895 -0.40387866 0.21478494 0.18572155
000130 bc 43 8c bd 3e 76 35 bd a3 1b 9d be 3c f4 4d be
       -0.06848857 -0.044302218 -0.30685148 -0.201127
000140 23 26 bd 3d 16 c8 88 3e 90 b5 78 3e 0f bd b5 3d
       0.092357896 0.26715153 0.2428801 0.08873951
000150 f5 24 e0 bb e6 4e 5f 3e ff c3 d9 be 29 40 b8 bc
       -0.006840343 0.21807441 -0.42532346 -0.022491531
000160 7c 58 15 3f 9c d8 a9 3e 81 d9 c4 bd b9 6b e9 3e
       0.5833814 0.33173072 -0.09611798 0.45589998
000170 c1 d7 bc 3e ed ed f5 3c 36 01 8a be 69 16 09 bf
       0.36883357 0.030020678 -0.2695405 -0.5354982
000180 44 b3 20 3e a2 96 9e 3e a9 e3 8c 3e 65 a2 a8 3c
       0.15693384 0.309743 0.2751744 0.020585248
000190 76 22 7b 3d f0 60 b9 3c 41 13 01 3d dd a7 08 3e
       0.06131216 0.022629231 0.031512503 0.13345285
0001a0 2c 52 0e 3b 3e 9e 5b 3e 76 a9 f0 be 1f d9 31 3d
       0.0021716459 0.21447083 -0.47004288 0.043419953
0001b0 78 8a 04 be 59 a7 1a 3e 89 94 b2 3e bb 7e ca bd
       -0.12943447 0.151029 0.34878948 -0.09887453
0001c0 76 20 19 3c 0c 81 b2 bd 14 fd 92 3e 74 f7 6b 3e
       0.009346118 -0.0871602 0.28708708 0.23043615
0001d0 dc 41 b6 be ab bc 97 3e 79 c3 bf be b1 e5 e4 be
       -0.35597122 0.2963613 -0.3745382 -0.4470649
0001e0 87 4b 60 3e 39 73 93 3e 69 a0 b5 be d8 69 1e 3d
       0.21903811 0.28798845 -0.35473946 0.03867516
0001f0 6a 42 08 3d e9 cc 45 3e cd e0 ab be 84 f8 aa 3e
       0.033266462 0.19316448 -0.33569947 0.33392727
000200 8a 42 09 3e 39 e7 a3 bc 49 a2 a1 3e 99 94 82 be
       0.13404289 -0.020007716 0.31569126 -0.25503996
000210 f5 89 e3 3e 10 3d c4 bd 40 1a b1 3c ee e1 bf be
       0.4444119 -0.09581959 0.021618962 -0.37477058
000220 9d 12 9a be 10 27 dc 3c 5f fa 22 be c1 4b 59 be
       -0.30092326 0.026874095 -0.15915821 -0.21220304
000230 35 91 48 3e ef 81 a3 bd 42 58 91 3e 2c 9c ec bd
       0.19586642 -0.07983767 0.28387648 -0.11553225
000240 55 32 96 3e 91 b2 e7 3c 57 4f 36 bd b3 fa 7b 3e
       0.29335275 0.02828339 -0.044509258 0.24607353
000250 a9 9b 78 3e 1c 50 36 be 3c 99 ca 3c 87 d4 57 3e
       0.2427813 -0.17803997 0.024731271 0.21077166
000260 6e f3 99 be d7 c9 9d 3e 4b 59 45 3e 04 1f cb be
       -0.30068535 0.30818054 0.19272344 -0.396721
000270 66 a7 2d 3e e1 43 7e 3c de 4a 38 be 13 5b e7 3d
       0.16958389 0.015519113 -0.1799731 0.11296668
000280 76 bb 3e 3e e3 1c 75 bd 7c d2 8a 3e a6 33 c0 3d
       0.18626198 -0.059842 0.27113712 0.09384851
000290 40 45 26 bd 8b f9 6e 3e c6 8f ec bd 6e 3d b9 3e
       -0.040593386 0.2333738 -0.1155086 0.3617968
0002a0 07 f7 74 3e 01 6c 4a be bf cf 86 be 0e ac 78 bd
       0.23922358 -0.19767763 -0.26330373 -0.06071096
0002b0 e9 a5 d1 be 65 87 97 3d 3a 71 8e be cb 3b 7d 3e
       -0.40946892 0.07398871 -0.2782076 0.2472984
0002c0 60 6e 06 3d 74 36 23 be 5f d1 97 be 76 56 3e be
       0.032820106 -0.15938741 -0.29651925 -0.1858767
0002d0 6e 4a 76 3e 35 a6 2a c0 ec 85 b7 3d 11 c2 c3 3e
       0.2405183 -2.6663945 0.089610904 0.38233998
0002e0 8c ef e8 3d 95 09 aa be 68 5a 34 be 72 65 a8 be
       0.11373815 -0.33210436 -0.17612612 -0.32889897
0002f0 d9 83 8d be 7f 90 c7 bd 6e 5d e8 3e 50 ff bf 3e
       -0.27639654 -0.09744357 0.4538378 0.37499475
000300 12 69 4c 3e 08 d5 17 3e f5 d8 15 be 5a d5 86 bf
       0.19961956 0.14827359 -0.14633544 -1.053386
000310 98 3e 14 3d 69 bf 84 3e 21 70 81 3e 0f 97 9f 3e
       0.036192507 0.25927284 0.2528086 0.31169936
000320 3f f1 a8 be 13 4e a6 be 8c dc 43 be 37 19 1a 3d
       -0.32996556 -0.3248144 -0.191271 0.037621703
000330 86 99 02 bf 44 6a 15 be d2 62 af 3e b9 97 bb 3d
       -0.5101551 -0.14591318 0.3425508 0.09159798
000340 0a 03 ae be 0a 2e c7 3e 26 06 89 be fc 24 a5 be
       -0.33986694 0.38902313 -0.26762503 -0.3225478
000350 db df 74 be 93 86 8f be 7d 15 00 be 34 d2 97 3d
       -0.23913519 -0.2803236 -0.12508197 0.0741314
000360 db 5f 39 be 78 8c 9e be 53 8c ee bd f0 51 71 be
       -0.18102972 -0.30966544 -0.116478585 -0.23566413
000370 40 3f 32 bd b4 f9 bc 3d 0b 20 bf 3e 33 80 11 bd
       -0.04351735 0.092273146 0.37329134 -0.03552265

mlp.0.bias f4 [32]
000000 84 f5 a5 bd 0b 38 2c 3d a4 8d ec bd 7d b2 97 3d
       -0.08103469 0.042045634 -0.11550453 0.07407091
000010 01 1c ed 3d b9 6c 1d be 3a 2c a3 be 42 1b b7 3e
       0.11577607 -0.15373506 -0.3186968 0.35762984
000020 25 80 07 3d 92 ea 51 3e 4d 02 a0 3e c7 8f ba 3e
       0.033081193 0.20499638 0.31251755 0.36437818
000030 74 fc 8a be a9 4c 09 be b8 00 8b 3d 46 6f 6e bd
       -0.2714573 -0.1340815 0.067872465 -0.058211587
000040 70 86 23 3e 87 0f 34 bd b5 bc 0f 3d 53 aa b7 be
       0.15969253 -0.04396012 0.035092074 -0.35872135
000050 75 40 6e 3e 9a b8 59 3e 39 1c 8f 3e 6c c2 94 3e
       0.23266776 0.21261826 0.2795122 0.29054582
000060 b7 c3 57 be 09 b9 26 bd 04 e9 8b bd 4c 90 83 3e
       -0.21070753 -0.040703807 -0.068315536 0.25696027
000070 0c cb b4 be 7f ab 8c 3e bb 54 24 3e 86 7f 85 3d
       -0.35311162 0.2747459 0.16047947 0.06518464

mlp.2.weight f4 [32, 32]
000000 9a 54 23 3e b9 30 c5 bd c0 05 6f 3d 31 42 24 bd
       0.15950242 -0.09628434 0.058355093 -0.040102188
000010 2b 9c 92 3e c0 dd c9 bd f2 10 ac bd 3c ca dd 3e
       0.28634772 -0.098567486 -0.084016696 0.43318355
000020 31 bd 67 be 66 68 90 bc d2 94 60 be 5b ec 13 bd
       -0.22630765 -0.017627906 -0.2193177 -0.036114078
000030 09 3d a2 be 27 7a 73 bc df d3 60 3e 34 66 93 be
       -0.3168719 -0.014860666 0.21955822 -0.28788912
000040 fe 46 ad 3e c0 b0 f1 bd 9e 91 73 be 0c 7a 1e be
       0.33843225 -0.118012905 -0.23786017 -0.15476245
000050 79 ee e9 bc 28 e3 f8 be ba f7 56 bd 15 c9 71 be
       -0.028556095 -0.48610806 -0.052482344 -0.23611863
000060 fc e8 65 be 70 26 52 bb 4e a3 31 3e 4c e6 94 ba
       -0.22452158 -0.0032066368 0.17347452 -0.0011360138
000070 80 99 6b be df a4 c1 3d 21 f6 d7 3e d3 09 84 3e
       -0.23007774 0.09455275 0.4217997 0.25788745
000080 0e 19 7a 3e 17 67 a0 3e 23 f8 cf 3e 15 0d d5 bd
       0.2442362 0.3132865 0.40619 -0.10402886
000090 ff 7e 1f bd b9 6b 86 3e 4a 19 53 3e cd b8 7d 3c
       -0.038939472 0.2625406 0.20615116 0.0154859545
0000a0 62 cc b8 3e 65 c5 78 bc 37 16 05 bf b5 9a 75 be
       0.36093432 -0.015183781 -0.5198702 -0.23984797
0000b0 ed 6a de be 2f ab c9 3e 46 23 83 3e aa db 14 3d
       -0.43440953 0.39388415 0.2561285 0.0363423
0000c0 a4 be 1f 3e bb 55 13 3d 19 6a 45 3e 80 5e 4b bc
       0.15600067 0.03597043 0.19278754 -0.012412667
0000d0 65 5e 57 be 0a ce e9 bc 27 0c 72 bd 0a 0d c0 3c
       -0.21032102 -0.02854063 -0.05909362 0.023443718
0000e0 b4 ed 64 3e f2 81 be bd b8 a7 da 3d ff 73 84 3d
       0.22356302 -0.09302129 0.10676521 0.06467437
0000f0 80 7e 77 3c 53 ef 91 3e d6 9b be 3d 8b 82 2f be
       0.015105844 0.28502902 0.09307067 -0.17139642
000100 02 84 73 3e f6 a8 a6 3e 11 10 a3 3e bc f4 b0 3e
       0.23780826 0.32550782 0.31848195 0.34561718
000110 ae fe de bd 80 78 fc 3e fe 5b 7d 3e e9 32 37 3e
       -0.1088842 0.49310684 0.24742123 0.17890514
000120 9e b8 b1 3e 8a 7f 3d 3e 68 ab 17 be 8d 9d e0 bd
       0.34711164 0.18505684 -0.1481148 -0.109675504
000130 12 27 f7 be 28 46 99 3e a8 d9 81 be 16 9f aa 3c
       -0.48271996 0.29936337 -0.2536137 0.020827811
000140 21 d0 46 be 10 a2 86 bd 0d 01 84 3e e4 62 ae 3d
       -0.19415332 -0.0657388 0.25782052 0.08514956
000150 b8 39 11 3e ef b1 19 be b9 1a 91 3e e4 45 9d be
       0.14182174 -0.15009283 0.283407 -0.30717385
000160 6d d7 98 3c cf 8d 64 bd d5 27 8b 3e d4 cf 1f 3c
       0.01865741 -0.0557993 0.27178827 0.00975414
000170 29 6e 72 be 1c ea 1a 3e 34 17 17 3d f7 9a af be
       -0.23674835 0.15128368 0.036887363 -0.34297916
000180 7b f8 5b be 6e 67 95 bd 34 57 da be 9c 49 df 3d
       -0.21481507 -0.07295118 -0.42644656 0.10902712
000190 41 56 ca bc 16 f6 8e bd 24 88 f1 3d c9 ca 73 be
       -0.024699332 -0.06980531 0.11793545 -0.23807825
0001a0 92 a1 3a 3e dd 62 90 3d 71 f3 c1 3e 3e e0 74 3e
       0.18225697 0.07050107 0.37881044 0.23913667
0001b0 ae b7 df 3e c4 b5 39 3d b9 db 54 3d 30 56 9d 3e
       0.43694824 0.04533936 0.051967356 0.30729818
0001c0 fc df 3e be 3e 35 40 3d 60 50 0d 3e b0 44 f5 bc
       -0.18640131 0.046925776 0.13800192 -0.02993998
0001d0 b9 7d 0b 3e 18 69 a3 be f5 a5 f6 bd e6 94 7e 3e
       0.13622178 -0.31916118 -0.120433725 0.24861488
0001e0 1b 11 82 3d 2d a0 64 be a0 d2 02 3d e9 8d c6 3d
       0.06350919 -0.22326727 0.03193915 0.09695036
0001f0 80 cf 2c 3e 51 80 54 be ab fb e3 be f3 f7 59 3e
       0.1687603 -0.20752074 -0.44527945 0.21285991
000200 a8 b9 e8 3d e7 8f 38 be 1d 98 bf be b3 ef 4a be
       0.11363536 -0.18023644 -0.3742074 -0.19818
000210 fa d9 e9 be 05 8a dd be 98 12 ae bd 5a f1 9b 3c
       -0.45674115 -0.43269363 -0.0849964 0.019035984
000220 3d e5 ed 3d c9 a3 a2 3e c2 37 d4 3e 62 a5 6f 3d
       0.11615989 0.31765583 0.4144879 0.05850733
000230 ba 1d 76 bc ef b7 f5 bd 3a e0 11 3e 70 5c 98 3e
       -0.015021736 -0.11997973 0.14245692 0.29758024
000240 66 c1 2a 3d e3 c5 91 bd c2 70 8e be 60 78 d4 3d
       0.041688345 -0.07117822 -0.27820402 0.10374522
000250 95 7a a0 3e 2a 09 9b be 2d 5c 93 be 5b 56 8d 3e
       0.31343523 -0.3028043 -0.28781262 0.27604946
000260 1a 71 72 be de 81 b9 be 5a d0 c9 bd e9 04 c0 be
       -0.23675957 -0.36231893 -0.09854193 -0.37503746
000270 90 3d cb 3c 76 b6 b8 3d 74 e5 71 be 57 2a 5d be
       0.024809629 0.09019177 -0.23622686 -0.21598183
000280 3e 71 a8 bd 07 be 1f bc bd c2 b3 be 3e 15 c6 be
       -0.08224724 -0.009749896 -0.3510951 -0.38688082
000290 60 30 6b bc 45 d9 e9 be 58 0d 05 3d 56 a8 87 bd
       -0.014354795 -0.45673576 0.03248343 -0.066239044
0002a0 a6 57 1e 3e b0 61 08 be d3 07 02 bd 10 c2 ad 3e
       0.15463123 -0.13318515 -0.031745743 0.3393712
0002b0 61 ce b6 3e 96 fc f0 be d2 82 71 3d 6e 36 54 3e
       0.3570433 -0.47067708 0.05896265 0.20723888
0002c0 ed 7b 94 bd b0 b6 18 be fe 24 e9 3d 80 ad 01 3d
       -0.072501995 -0.1491344 0.11384009 0.031659603
0002d0 00 8f c9 bd 88 f2 f8 3d 22 0d 97 3e 4a 6c 91 3e
       -0.09841728 0.12155634 0.29502207 0.2840293
0002e0 6d cb 4c bd 2c a4 29 3e 58 83 11 3e de fa c1 be
       -0.04999869 0.16566533 0.1421026 -0.3788671
0002f0 7e 6e 5d 3e 8a a9 85 3e 52 72 a1 be d6 12 c4 bd
       0.2162418 0.2610591 -0.31532532 -0.09573905
000300 70 a6 d5 3c 40 0f 26 bd d2 a8 d4 be 8d 48 bd be
       0.02608034 -0.040541887 -0.4153505 -0.36969414
000310 24 62 49 be a3 9c 43 be f6 08 7a 3e d6 ec 56 be
       -0.19666344 -0.19102721 0.24417481 -0.20988783
000320 0a 2d b4 be e6 f1 ab 3e 9c a2 9e 3d 2c c9 c1 bd
       -0.35190612 0.3358299 0.07745859 -0.094621986
000330 26 94 08 3f 40 51 76 be ed 6e 03 be d3 bd 95 bd
       0.53351057 -0.24054432 -0.12835284 -0.07311597
000340 c2 ae 21 be fb 11 f4 3d 26 6d a5 be 09 86 93 3e
       -0.15789321 0.11917492 -0.32309836 0.28813198
000350 d7 32 e5 3d 18 e6 82 3e 5b 85 e3 bd 42 b9 8e 3e
       0.111913376 0.25566173 -0.1110942 0.27875715
000360 fb 6a 20 3e dc f3 4d be f0 24 3a be c7 99 1d 3d
       0.1566581 -0.20112556 -0.18178153 0.03847673
000370 84 b7 1b 3e 74 f6 32 bd 55 6a 8b be b9 0a a7 3d
       0.15206724 -0.043692067 -0.27229562 0.08156342
000380 30 3b 48 3d 3f d0 8f 3e ce f5 af bc 6d 0a fd bd
       0.04888457 0.28088567 -0.021479513 -0.12355504
000390 c1 c5 a8 be ad e4 80 be 5a 74 ec bd 09 6e 15 3e
       -0.32963374 -0.25174466 -0.1154563 0.14592756
0003a0 78 5a 10 3e 88 2a 76 3d d2 39 b5 3d ac a6 60 3e
       0.14097011 0.060099155 0.08848919 0.2193858
0003b0 a8 3c 4c 3e 4c 0a 04 be 82 14 77 be e7 c9 8c bd
       0.19945014 -0.12894553 -0.24128917 -0.06874447
0003c0 6e c4 84 3e cd 82 be bb 27 94 ae be fc ce 8b be
       0.25931114 -0.0058139325 -0.34097406 -0.27306354
0003d0 ab e7 8b be 8e c9 00 be f0 8b 5c 3e 7d 63 a4 be
       -0.27325186 -0.12576887 0.21537757 -0.32107154
0003e0 7f bb ad 3d e2 77 2c be b1 0c 7b be 9b 14 eb bd
       0.08483028 -0.16842607 -0.2451656 -0.114785396
0003f0 20 16 2a 3e 74 78 bb bd d7 f2 23 be 33 81 90 3e
       0.16610003 -0.09153834 -0.16010605 0.2822357

mlp.2.bias f4 [32]
000000 88 4c 94 3d bd ba 41 39 10 c8 aa bd 70 3c 16 3e
       0.0724116 0.0001847548 -0.0833894 0.14671493
000010 5e b0 23 3e 03 9c b6 3d 4b 35 41 3e ac 3b a3 bc
       0.15985247 0.089164756 0.18867986 -0.019925915
000020 01 b8 0f be bf 47 4b 3e fc ad 05 bd 62 bc 93 bd
       -0.14035036 0.19851588 -0.032636628 -0.072136655
000030 12 de ac bc 1c 61 00 be 30 5e 54 3c da 80 e6 3c
       -0.021101985 -0.12537044 0.012961909 0.028137613
000040 cc 22 33 3d 5d a2 b4 bd 6d 5b 98 bd e0 7b 16 3e
       0.043734357 -0.08820031 -0.07439313 0.14695692
000050 33 d2 12 be 9c 35 0f be 3e 94 0b 3e d8 a4 31 3e
       -0.14337997 -0.13985294 0.13630769 0.17348039
000060 d8 f2 8f bd 9c bd 1e bd 90 5c 15 3e ae 54 24 3e
       -0.07028741 -0.038755044 0.14586091 0.16047928
000070 00 a3 79 bc 45 b3 12 3e 93 0d 3c 3e fa da e4 bd
       -0.015236616 0.14326198 0.18364553 -0.11174579

mlp.4.weight f4 [32, 32]
000000 cb ef 2b 3e 33 78 65 be 0a 64 42 be d4 4d 6a 3e
       0.16790693 -0.22409134 -0.18983474 0.22881252
000010 b6 95 55 3e 52 19 f7 3d e0 1a cf 3e 07 13 4a 3e
       0.20857891 0.12065376 0.40450191 0.19733821
000020 8a 57 42 3e 5a 14 c4 3e 5a 8e 4e be ac 32 bf be
       0.18978706 0.38296777 -0.2017149 -0.37343347
000030 32 c5 4e 3e 5a b6 82 3d 5a be 76 be 60 16 bc be
       0.20192412 0.06382437 -0.24096051 -0.3673582
000040 12 d4 8d be 9b c9 7f 3e e3 9a 8a bd fa 29 8a bd
       -0.2770086 0.2497925 -0.067678235 -0.06746288
000050 81 a9 01 be 7b c0 5d be 91 0a 90 3e dd cc b3 3d
       -0.12662317 -0.21655457 0.28133062 0.08779309
000060 b3 dc 5a 3e 78 58 1c bd ad e0 41 be 16 a9 e2 bd
       0.21373253 -0.038170308 -0.18933363 -0.11067407
000070 00 87 44 3c 88 d1 14 be b0 ec fd bd 3f c3 54 3d
       0.011995077 -0.14533055 -0.1239866 0.051944014
000080 c8 b3 03 bd 0b 09 46 3e 12 6c d0 3d 05 55 59 be
       -0.032153875 0.19339387 0.10176863 -0.21223839
000090 7d 9b 87 be bd 43 31 3d 90 2e 15 bf 81 8b 18 bd
       -0.26485816 0.04327749 -0.58274174 -0.037242416
0000a0 85 18 8e 3e da a6 c5 3d ff 19 81 3e 7b 76 86 3e
       0.27753082 0.09650965 0.25215146 0.26262268
0000b0 51 60 97 3c 72 c8 b2 3e 4c 94 42 3e 1b ad 4b 3e
       0.018478544 0.34918553 0.19001883 0.19890253
0000c0 ca fb 47 3e 2c 01 d3 3e 8d a0 34 3b e1 b5 fb bd
       0.19529644 0.41211832 0.0027561516 -0.1229055
0000d0 15 1a a0 3e 75 45 8d be ec b5 7f 3e d5 68 be be
       0.312699 -0.27592054 0.24971741 -0.37189355
0000e0 d3 08 82 be e0 12 71 bc a0 9c 94 3e ea 64 17 bd
       -0.25397357 -0.014713973 0.29025745 -0.036961474
0000f0 41 e2 48 be 6f ee f9 3e f7 4f a7 bc 37 81 79 bc
       -0.19617559 0.48814723 -0.020423872 -0.015228561
000100 e8 b0 83 be 00 e1 8c bb 68 34 3e 3e 87 20 68 be
       -0.25720906 -0.004299283 0.18574679 -0.22668658
000110 b0 0d 4e bd d0 a2 3e be a1 05 81 3e 38 0a 7e bd
       -0.050306022 -0.18616796 0.25199607 -0.062021464
000120 f8 46 82 be 05 81 30 be d7 f9 2e be f0 ad d4 bd
       -0.2544477 -0.17236717 -0.17087494 -0.103847384
000130 76 1d 42 be 2a c1 76 3e 0b 9b 97 be 38 51 1d be
       -0.18956551 0.24097124 -0.29610476 -0.15363014
000140 88 ca 5b be b6 61 90 be b4 c5 1b be 60 d8 59 3d
       -0.21463978 -0.28199548 -0.15212137 0.053184867
000150 e0 44 11 bc 48 13 19 3d 59 b3 8e 3e f4 2a 11 be
       -0.008866519 0.037371904 0.27871206 -0.14176542
000160 fe e6 59 3e d2 c1 48 3e 19 f9 91 be fc 8a 8d 3d
       0.21279523 0.19605187 -0.2851036 0.06911275
000170 40 02 cd 3b b8 45 9e bd a3 52 9b be 74 14 92 be
       0.0062563717 -0.077281415 -0.30336484 -0.2853123
000180 63 4c 8a be 5f 16 e4 be 3d e3 6d be d0 34 38 be
       -0.27011403 -0.44548318 -0.23231216 -0.17988896
000190 4b 04 92 bb 9c 7c 81 3e 4e 43 7e 3e 33 70 32 be
       -0.004456078 0.25290382 0.24830362 -0.17425613
0001a0 f2 5b e0 bd 59 d6 9c 3e 2b 1d 8c 3e 1f 8f c9 be
       -0.10955037 0.30632284 0.27366003 -0.39367005
0001b0 4a c7 1c 3e 93 5c c3 bd fe 8c 88 bd 06 d0 46 bd
       0.15310398 -0.095391415 -0.06667517 -0.04853823
0001c0 f0 13 5b bd 96 7d c7 bd fd 6e 07 be d4 4e c7 3d
       -0.05348581 -0.097407505 -0.13225932 0.09731832
0001d0 1d 82 9e bc e5 36 a0 bc 72 db 74 3e 75 c3 b8 3e
       -0.019349152 -0.019557426 0.23911837 0.36086622
0001e0 73 7f 35 3e ac b9 80 3d 65 b9 c0 bd f6 30 7b be
       0.177244 0.06285414 -0.09410361 -0.24530396
0001f0 9c af 31 3e 54 2b 9b be 19 9d e7 3e bc a7 11 3e
       0.17352146 -0.30306494 0.45237043 0.14224142
000200 b1 ee 96 3e 1e e1 d0 3e 44 bd 07 3f cf ff 07 3e
       0.29478982 0.4079675 0.5302317 0.13281177
000210 93 40 2a 3e 92 74 0e bd 76 54 95 bc 15 15 ad 3b
       0.16626196 -0.03477914 -0.01822875 0.005282054
000220 6a ca 97 be 8e bf 4d be 00 90 d7 38 ba c5 da 3e
       -0.29646617 -0.20092604 0.00010278821 0.42728978
000230 c7 5b df 3d ba ae d4 3d c5 d2 2b be d9 38 01 3f
       0.10906177 0.10384889 -0.16779621 0.5047737
000240 76 3c 3b be 99 4e 69 be b1 03 57 3d 54 5d 86 be
       -0.18284783 -0.22783889 0.052493755 -0.2624308
000250 a1 fa 02 3d ef a4 40 bd 7e 88 3c 3e e3 81 d2 bd
       0.0319773 -0.047032293 0.18411443 -0.1027868
000260 ed c5 52 3d a2 8a 0c be a6 45 90 be 61 0c a8 3d
       0.051458288 -0.13724759 -0.28178138 0.08205486
000270 32 0b 62 3e a6 fd d2 3e 1b b1 5c be 0b 80 a5 be
       0.22074583 0.41209143 -0.21551935 -0.32324252
000280 6c 38 98 be a1 a3 fa be 4f 17 51 bd 2b 1b 9e 3e
       -0.29730546 -0.48952964 -0.05104762 0.30880103
000290 ac 36 be 3e 87 0c 94 3e e6 cc 2e 3e 88 ba 49 3d
       0.37151086 0.28915808 0.1707035 0.049250156
0002a0 01 92 2a be ae 77 8e 3e 78 29 77 be 2e 16 e3 be
       -0.16657259 0.27825683 -0.24136913 -0.4435286
0002b0 5a e6 21 3e 40 89 c2 3c 8d 1f 84 be 8f 66 b1 bc
       0.15810528 0.023747087 -0.2580532 -0.021655349
0002c0 e3 d7 9b be 1a fa d3 bc d5 56 53 be 91 d4 57 be
       -0.30438146 -0.025876094 -0.20638593 -0.21077181
0002d0 f2 89 cf bc a8 60 9b be 34 48 ee 3d 22 f5 96 3d
       -0.025334332 -0.3034718 0.116348654 0.07370974
0002e0 74 f6 f0 3c 60 c0 6a bc 2e 40 58 3e 13 c9 96 3c
       0.029414393 -0.014328092 0.21118233 0.018406427
0002f0 38 58 67 bd 94 04 5c bd 19 83 45 3e dd 65 15 3e
       -0.056480616 -0.053715304 0.19288291 0.14589639
000300 b7 8d a8 3e 49 34 92 3e b9 76 a7 3e b5 c4 0c bd
       0.3292062 0.28555515 0.32707766 -0.034367282
000310 4c c5 6c be d4 0f bb 3d 73 f2 b4 be ef 92 8c 3a
       -0.23122138 0.09133878 -0.35341224 0.0010724942
000320 cd a5 94 be d3 85 ff bc 38 51 13 3e c3 44 57 bc
       -0.29032746 -0.031191742 0.14386451 -0.013138953
000330 5e 4a c7 3d 1e 16 d3 3e 30 dc 1f bd 61 17 14 3f
       0.09730981 0.41227812 -0.039028347 0.57848173
000340 48 2c 9f 3d b8 10 80 3e 8d f7 f4 bc 32 27 59 bd
       0.07772118 0.25012755 -0.029903198 -0.053015895
000350 f0 36 7c bd 98 f1 1e 3d a5 b5 90 3d 5b 64 af be
       -0.06157583 0.03880462 0.07065896 -0.34256253
000360 b3 15 a9 bc 5b b1 3d be 13 24 84 3e 5c 0f dc bd
       -0.02064023 -0.18524687 0.25808772 -0.10745117
000370 d0 4f 54 3d 90 51 96 bd 0f ab 1f be 3a a2 65 3e
       0.051833928 -0.073397756 -0.15592597 0.22425166
000380 b6 a6 87 be d4 ef 5e 3e 8d 69 35 3e b9 93 1c 3d
       -0.26494378 0.21771175 0.17716046 0.038226817
000390 6f b9 b9 3d 5a 64 9e be e1 24 ec 3d 50 4a cc bd
       0.09068572 -0.30935937 0.115304716 -0.099751115
0003a0 52 4f 63 3e a9 60 31 3e d0 38 4f be 70 3a 8c be
       0.22198227 0.17322029 -0.20236516 -0.27388334
0003b0 98 08 4e be 65 18 02 3e 1c 3a b4 3d be e5 82 3e
       -0.20120466 0.12704618 0.08800146 0.25565904
0003c0 b8 b2 64 3d d0 4f c6 be b8 18 95 bc fe 38 23 be
       0.055834502 -0.38732767 -0.018200263 -0.1593971
0003d0 8c d4 a8 be 18 89 35 3e 80 00 93 3d 4d 25 ba be
       -0.3297466 0.17728078 0.0717783 -0.36356583
0003e0 38 2c d2 bd 76 c0 7d be 57 ac ee 3c 8a 8c 2e be
       -0.1026234 -0.2478045 0.029134912 -0.17045799
0003f0 08 93 36 3d 00 ab 1c be 80 13 62 3e a4 73 1b be
       0.044573814 -0.15299606 0.22077751 -0.15180832

mlp.4.bias f4 [32]
000000 da 0c 97 3d 1a 0d 9c 3d b6 50 d4 bd a6 08 e1 3d
       0.07375498 0.076196864 -0.10366957 0.10987978
000010 90 55 53 3e 31 57 c4 bd a9 2e 16 bd 4f 84 33 3d
       0.20638108 -0.09586943 -0.036665592 0.04382735
000020 c0 93 77 3c c1 84 b9 3d 38 92 04 bd 60 a0 3a 3d
       0.01511091 0.09058524 -0.032366008 0.0455631
000030 30 e5 46 3e 45 e2 1f bd 55 db e8 3d 76 e3 42 39
       0.19423366 -0.039034147 0.11369959 0.00018586018
000040 71 20 44 3e a0 0f 9f bc 96 26 fe 3d 2b 37 10 3d
       0.19153 -0.01941663 0.124097034 0.035208862
000050 f5 41 23 be ac d8 f0 bd fa e8 eb 3d 2b 3a 5c be
       -0.1594313 -0.11760077 0.11519046 -0.21506564
000060 00 7d 02 be 81 47 05 be 15 6d 06 3e 30 f7 60 bd
       -0.12742996 -0.13015558 0.13127549 -0.054923236
000070 4a 36 92 bd fd 9f b2 bb 04 df c8 bd 4d de 0c bd
       -0.07139261 -0.005451201 -0.09808162 -0.03439169

mlp.6.weight f4 [32, 32]
000000 eb 95 a4 bd 0c d6 d6 bd 64 9d f9 bd 2a 13 01 be
       -0.08036407 -0.10490045 -0.12188223 -0.12604967
000010 46 c9 47 3e 76 54 c6 be 1b ce 9d bd e4 76 6b be
       0.19510373 -0.38736314 -0.07705327 -0.22994572
000020 b8 aa 4f be d8 e8 57 be 10 de f2 3d 69 52 b6 3c
       -0.20279968 -0.21084917 0.11858761 0.022256093
000030 35 79 19 be 39 02 8c bd 77 e5 56 3e 51 df 34 3e
       -0.14987643 -0.068363614 0.20985971 0.17663313
000040 d0 f7 e6 3c 3a 7c 67 be 97 33 e6 3d 74 00 47 be
       0.028194338 -0.22605982 0.11240309 -0.19433767
000050 b7 e5 3f be f5 75 55 bd cf 5c 0a 3e 7a aa 58 3e
       -0.18739973 -0.052114446 0.13511966 0.21158782
000060 20 0b 0f bd e3 2f 8e 3e a8 76 2e be 11 da 76 be
       -0.03492272 0.2777091 -0.17037451 -0.24106623
000070 fb 8f 5d be 73 4e 6e be 00 d7 75 be 21 95 48 be
       -0.21636955 -0.23272114 -0.24007797 -0.19588138
000080 79 25 34 3c dd 89 9a be 1e b7 45 3e 33 47 8d 3e
       0.010995262 -0.30183306 0.19308135 0.27593383
000090 c0 4f b5 be 66 fc 69 3e 7c 3a 3a be 5b ff f0 3d
       -0.35412407 0.22850189 -0.18186373 0.11767455
0000a0 1a c0 0b 3e b7 b0 ad 3e 70 5f 1f be 3e d8 07 3e
       0.136475 0.33923885 -0.1556375 0.13266084
0000b0 87 45 7f 3e 59 13 72 3e 8d fa 7c bc b2 ef c0 bd
       0.24928866 0.23640193 -0.015440595 -0.09420718
0000c0 13 3c 73 be 71 42 39 be 28 b5 48 3d d4 d0 a0 3d
       -0.23753385 -0.18091752 0.04900089 0.07852331
0000d0 23 28 95 3e e1 62 53 be 2f a0 42 3e 25 37 51 3e
       0.29132184 -0.20643188 0.19006418 0.20431192
0000e0 2f 25 97 3b 36 e0 56 3e 34 09 a2 bc 74 7b 10 3c
       0.004612587 0.20983967 -0.019779779 0.008818496
0000f0 18 e5 58 3e 57 c4 64 bc a0 42 03 bd 54 d0 19 be
       0.21181142 -0.013962827 -0.03204596 -0.15020877
000100 08 e6 2b 3e 54 ff 6b bd 88 95 a1 3d 40 c9 e0 3c
       0.16786969 -0.057616547 0.07889849 0.027439713
000110 67 b2 93 be f4 b9 88 3d ba f3 91 be 54 35 84 bd
       -0.28847048 0.06676093 -0.2850626 -0.06455484
000120 50 0a b1 bc 0c 9a b0 3d 61 73 94 be da 5b 21 3e
       -0.021611363 0.08623132 -0.28994277 0.15757695
000130 7a 6d a5 bd d0 a5 f5 bc 08 b3 9c 3d 9c 37 ac 3d
       -0.080775216 -0.029986292 0.07651335 0.08409044
000140 7a a7 8d be 48 b9 4a be b6 c8 79 3e 8b 85 94 3e
       -0.27666837 -0.19797242 0.24392971 0.29008135
000150 fc 86 79 bd 5c 34 67 bd 80 69 f0 bd f0 26 a4 bc
       -0.060919747 -0.05644642 -0.117388725 -0.020038098
000160 06 45 13 3e c8 16 b0 bd 7b c1 83 3e 40 80 db 3b
       0.14381799 -0.08598095 0.2573355 0.006698638
000170 d6 d1 05 be f8 22 3c be 70 00 c4 3c d2 ca 8f bd
       -0.13068327 -0.18372715 0.02392599 -0.07021107
000180 cc 18 39 be 9a 84 1b bd 40 a9 50 3c 36 36 a1 be
       -0.18075866 -0.037968256 0.012735665 -0.31486672
000190 84 67 fa 3d 4f 0a c5 bd e3 5c 50 3e ec 1a 43 bd
       0.12226775 -0.09621107 0.20347933 -0.047633097
0001a0 06 35 11 3e 37 92 3e be e0 32 55 bd 40 af aa 3d
       0.14180383 -0.18610464 -0.05205047 0.083342075
0001b0 98 00 c3 3c bc 76 68 be 8d 5e 75 3d 08 c4 34 3e
       0.023803994 -0.22701544 0.059904624 0.17652905
0001c0 1c e1 fb bc 6c 8b 5e 3e f6 1a 97 be 9d 16 58 be
       -0.030746989 0.21732873 -0.29512757 -0.21102376
0001d0 8e 42 cf bd d2 cb f9 3d cc 1b 1c 3e 04 28 f8 bd
       -0.10120116 0.12197079 0.15244979 -0.121170074
0001e0 53 e5 ab 3c 62 a3 d1 bd 3a 2c ed 3c ce 40 1f 3e
       0.020983374 -0.10236241 0.028951753 0.15552065
0001f0 43 9b 4b bc d6 bd ec bd e1 06 31 3e 46 db 43 be
       -0.012427154 -0.11559646 0.1728778 -0.19126615
000200 d1 36 8c be d6 46 31 3e 73 1d 6e be 09 a6 1d be
       -0.27385572 0.17312178 -0.23253421 -0.15395369
000210 d7 78 12 3e f3 03 9c be 98 51 ce bd 4c 69 95 3d
       0.14303909 -0.30471763 -0.100741565 0.072954744
000220 96 7c cd bd 76 76 89 bd a7 c3 e0 bd d6 3f 64 3e
       -0.100335285 -0.06712048 -0.10974818 0.22289976
000230 2d 16 37 bd 02 30 79 3e fc 18 47 3e c1 34 c6 3d
       -0.044698883 0.2433472 0.19443125 0.09678031
000240 86 ec 57 be ee dc d9 3c 25 00 42 3e 1d c3 80 3e
       -0.2108632 0.026594605 0.18945368 0.2514886
000250 14 2c e3 3d a3 66 20 bb a0 96 8e bd 50 54 0e 3d
       0.110923916 -0.0024475239 -0.06962323 0.034748375
000260 c8 1d 98 be 8c e7 92 3d 09 72 85 3e c7 15 96 3d
       -0.2971022 0.0717307 0.26063564 0.073283724
000270 ec 40 30 3e 81 d7 c1 bb f6 c1 91 be f8 9d 7b be
       0.17212266 -0.0059155826 -0.28468293 -0.24571979
000280 c2 f7 6e 3d b1 14 f9 3e bc 81 72 be 8b 1a 3a be
       0.05834175 0.486486 -0.23682302 -0.18174188
000290 32 ac b4 3d 9d 31 26 3d e7 2a 9f 3d a4 ec b1 bd
       0.08821906 0.04057466 0.07771855 -0.08687714
0002a0 c3 5a 17 bf c4 9b 79 be df 8c 17 3e e6 88 5f 3e
       -0.59122866 -0.24375826 0.14799832 0.21829566
0002b0 a9 49 14 3e 64 23 b3 be d8 ce 88 be 1e fa 9c 3e
       0.14481224 -0.34987938 -0.2672031 0.30659574
0002c0 4e 40 bb 3e 82 92 74 bd 0c d5 d5 3c 99 7b 0d 3e
       0.36572498 -0.059710033 0.026102565 0.1381668
0002d0 44 2d 70 be c8 75 41 3d a6 61 c2 be 66 9d 0b 3e
       -0.23454767 0.047231466 -0.37965125 0.13634261
0002e0 5b 03 b3 3d c0 aa 7d 3c 53 fc e1 3e 50 f7 49 be
       0.087408744 0.0154826045 0.4413782 -0.19723248
0002f0 5f da b6 3e 7d 23 55 be a4 d9 0f 3e fe c3 0a 3f
       0.3571348 -0.20814319 0.14047867 0.5420531
000300 34 b8 17 be e4 a1 5f be 00 38 3a bb 29 6c 95 be
       -0.14816362 -0.218391 -0.0028414726 -0.29184082
000310 93 9c fc 3c 40 5c 8b 3b 80 66 3b be 37 bc 5f 3e
       0.03083638 0.0042529404 -0.1830082 0.21849142
000320 dc 8a 29 3e b5 5a f1 3d f0 a2 e7 bc 6e dd 5c be
       0.16556877 0.11784879 -0.028275937 -0.21568844
000330 7f f2 20 3e d0 d2 7c be fb 7a 92 be 3c 5a 20 3c
       0.15717505 -0.24689794 -0.28609452 0.009787139
000340 0d b9 c0 3d 50 4e 81 be 0d 1e eb 3c 58 52 7c 3e
       0.09410296 -0.2525506 0.028700853 0.24640787
000350 48 a6 5e 3d f8 55 c9 3d 62 f1 bb bd 16 d8 24 3e
       0.054357797 0.0983085 -0.091768995 0.16098055
000360 5e 8b 32 bd 50 8b 99 be 2d dc ab bc 32 fd 5c be
       -0.043589942 -0.299891 -0.020979011 -0.21580961
000370 55 dd 95 3b 62 2f ae 3d 3d ec bf bc 76 bc 62 be
       0.004573504 0.08505131 -0.023428077 -0.22142205
000380 de 93 97 3e 1a ed 93 be eb c8 80 3e 7e df eb 3e
       0.29605 -0.28891832 0.25153288 0.46068949
000390 00 aa bd be 86 54 d6 3e 44 0f b6 be cb 76 8b bd
       -0.37043762 0.4186136 -0.35558522 -0.06809767
0003a0 6c 33 39 3d 5a 6c b0 3c 00 9b ad 3d 7c a2 5d bd
       0.045215055 0.021536041 0.084768295 -0.054110035
0003b0 34 52 cb 3e 80 2e 72 3e e0 ef be 3e ea fe 2f 3e
       0.39711154 0.23650551 0.37292385 0.17187086
0003c0 af 5a 52 3e 74 07 a6 3e 5e 95 ca bc 01 48 d2 bd
       0.20542406 0.3242756 -0.024729427 -0.1026764
0003d0 e9 e0 86 3e 06 df 63 bd 14 77 a0 3e bc 6e 46 3e
       0.26343468 -0.055632614 0.3134085 0.1937818
0003e0 c0 c0 3e 3e 7c ae 0e be 51 ee 88 be 03 97 7f be
       0.18628216 -0.13933748 -0.2674432 -0.2495995
0003f0 35 33 de bd bf 2a 21 3d a5 2b 70 3d cb ce fd be
       -0.10849611 0.039347406 0.058635373 -0.49571833

mlp.6.bias f4 [32]
000000 ae 27 24 3c 54 92 e2 3d 60 64 21 be db 06 f9 bd
       0.010019226 0.11063066 -0.15760946 -0.12159511
000010 b1 0f 34 3e 91 a0 d0 bb 62 6b 20 bd a3 61 f9 3d
       0.17584111 -0.0063667973 -0.03916491 0.12176826
000020 38 5a 4a bd dc a3 1d be 62 e2 75 3e 12 81 d6 3c
       -0.049402446 -0.15394539 0.2401214 0.026184592
000030 61 6f 92 bd f4 53 08 bd a2 d9 58 bd 2f d1 d2 3c
       -0.0715015 -0.03328319 -0.052941926 0.025734512
000040 05 fc 0b bd e9 bb d8 3b 25 38 c0 bd 14 ff ff 3d
       -0.03417589 0.0066141975 -0.09385709 0.12499824
000050 e0 78 ea 3b d5 25 70 bd fb 2e 3a 3e 39 c0 de bc
       0.0071555227 -0.05862983 0.18181984 -0.027191268
000060 e7 8d eb bc 58 e3 bf 3d 56 9f 31 3e 75 94 12 3c
       -0.028754188 0.09369534 0.17345938 0.008946528
000070 04 67 dd 3d 17 c6 c8 bd ff fc 05 be 54 96 54 3e
       0.10810664 -0.09803408 -0.13084792 0.2076047

mlp.8.weight f4 [32, 32]
000000 6b c9 01 be 4c a0 e4 bd 80 8a e6 bb 1d b7 4c 3d
       -0.12674491 -0.11163387 -0.0070355535 0.049979318
000010 c4 86 d4 3a 1b ca 0c bf 5f 4f 63 3e 67 d6 85 3e
       0.001621448 -0.5499589 0.22198246 0.26140139
000020 ec 55 2b be 40 b7 85 bb 61 47 a2 3d f2 d2 b0 bd
       -0.16731995 -0.004080683 0.07923771 -0.086339846
000030 ee d3 96 3c cc cc 45 3c a2 39 a2 3d 78 04 8e 3e
       0.018411603 0.012072753 0.07921149 0.27737784
000040 85 81 31 3d 0a d7 c3 3e 46 cd f5 be a0 1f 99 3e
       0.04333641 0.3825 -0.48008174 0.2990694
000050 d0 c9 cc bc 54 03 47 3e 78 43 24 3e 50 db bc 3c
       -0.024998575 0.19434863 0.16041362 0.023053795
000060 35 b7 bb 3e 13 26 da 3d 75 9d b0 3e 5b bd 5d be
       0.36663213 0.10651793 0.3449513 -0.21654265
000070 b6 d7 b8 3d f9 f6 4f bd 50 a4 77 be a0 24 cf bd
       0.090255186 -0.05077264 -0.24183774 -0.101144075
000080 13 68 03 bd 1e 87 88 be 88 25 35 be a3 75 4e be
       -0.032081675 -0.26665586 -0.17690098 -0.20162062
000090 02 fa 9c 3e 6c 88 3e 3e 58 21 55 3d 9a 1d 3a be
       0.3065949 0.18606728 0.052033752 -0.18175355
0000a0 1a 86 6b 3e e0 ff 2a 3c 37 84 98 3d aa 3a 78 bc
       0.23000374 0.010436982 0.07447093 -0.015150705
0000b0 40 07 84 3b 38 bb d1 3d c4 99 74 3c 88 3e 93 3e
       0.0040291846 0.10240787 0.014929239 0.28758645
0000c0 94 a1 5f 3e b3 f6 8f 3d d4 fa 5d be ac f5 95 3e
       0.21838981 0.07029476 -0.21677715 0.29288995
0000d0 3b 9b 88 3e db c2 13 3d 32 96 1e 3e cb 9a 5e 3e
       0.2668093 0.0360745 0.15486982 0.21738736
0000e0 f1 8b f2 bc 58 86 92 3e 89 91 66 3d 51 66 0c be
       -0.029607745 0.2861812 0.056291137 -0.13710906
0000f0 1e 53 62 bd 01 cc e7 bc 44 44 8e 3e e7 dc 4a 3d
       -0.055255048 -0.028295519 0.27786458 0.049527075
000100 37 5a aa 3d b6 7c a7 3e 5e 65 28 3e 54 92 3e 3d
       0.08317988 0.32712334 0.16444919 0.046526268
000110 c8 df 30 3e ed 87 d6 be 54 2b 96 be ff a6 f1 bc
       0.17272866 -0.41900578 -0.29329932 -0.029498575
000120 27 29 95 3e 8a c1 0e 3e 9d 26 22 3e 84 4b be 3e
       0.2913296 0.13941017 0.15835042 0.3716699
000130 ef cf ab bd 04 d4 a2 be b6 01 c8 bd 14 ff b7 be
       -0.083892696 -0.3180238 -0.09765951 -0.35936797
000140 d2 4f 2f be 45 3a 5c 3e 37 c7 f0 be 24 9e 9c 3e
       -0.17120293 0.21506603 -0.4702699 0.30589402
000150 68 3d 9d 3d 1b 89 bd 3e 48 5a 87 be 0e bc 34 bd
       0.07677728 0.37018666 -0.26436067 -0.044124655
000160 0c da 80 3e 15 dc 5b 3e 49 ce 91 bd 64 41 b8 bb
       0.25166357 0.21470673 -0.07119424 -0.0056230295
000170 42 bc a1 3e 16 ed 0d be 52 4a 3a be 5d 51 26 be
       0.31588942 -0.13859972 -0.18192413 -0.16241975
000180 78 60 6f bc a1 58 c3 3e 8a cb 36 3e f9 92 f3 3c
       -0.014610402 0.38153556 0.17851081 0.029733168
000190 96 45 38 bd b1 6b 79 be 02 21 14 3e 66 bc ba 3e
       -0.044988237 -0.24357487 0.14465716 0.36471862
0001a0 a0 04 28 3c 60 0c 1a bc ad dc 97 3d a9 35 fe 3b
       0.010255009 -0.0094023645 0.074151374 0.0077578616
0001b0 5b 62 97 3e 57 1c 18 be 91 bd a3 3d 6e c7 c9 3d
       0.29567227 -0.14854561 0.07995141 0.09852491
0001c0 d8 06 5f 3e c2 dd 89 3e e6 ce be be 33 6b fa 3d
       0.21779954 0.26927 -0.37267226 0.12227478
0001d0 9e 56 6f be dc 32 56 3e aa df 3c be 0e 4b 29 be
       -0.23372886 0.20917839 -0.18444696 -0.16532537
0001e0 6e a4 68 bd 76 ce 0c 3e db e9 ad bc 61 f5 96 bd
       -0.056797437 0.13750634 -0.021229675 -0.07371021
0001f0 e4 47 fb 3b a8 c7 68 3e 74 26 f1 be 53 57 9a 3d
       0.007668482 0.22732413 -0.4709965 0.07536187
000200 e3 9f 5f 3e a0 7e e2 3e be f5 48 3e bc 5d 39 be
       0.21838336 0.44237232 0.19624993 -0.18102163
000210 7c 4c a9 bd 4b e5 02 bf f5 9e 90 3d 5c d0 25 3d
       -0.08266541 -0.51131123 0.07061569 0.04048191
000220 48 87 0a 3e f0 62 f8 bd dd 0e 33 3c 0a 28 ac 3e
       0.13528168 -0.12128246 0.010928837 0.33624297
000230 d6 d9 80 3e 1c f7 59 bd cd 4b 8d 3e 00 28 71 be
       0.25166196 -0.053214177 0.27596894 -0.23550415
000240 f5 d6 27 3e 46 6d c1 3e 01 33 bf be c6 5c 88 bd
       0.16390593 0.37778682 -0.373436 -0.0665832
000250 90 bb fb 3c 1c d8 49 3b 6e 96 2a be 83 d9 f6 be
       0.030729085 0.0030798977 -0.16658947 -0.48212823
000260 33 52 91 3d b2 5f 12 3e 70 b4 2e 3d 75 4e 83 bd
       0.070957564 0.14294317 0.042652547 -0.06411449
000270 b0 6b 8c 3e df 9f 64 be 57 07 c1 be 87 6c 17 3e
       0.2742591 -0.22326611 -0.37700912 0.14787494
000280 40 a2 87 be 42 e7 51 3e e5 0a 8a 3e ca d2 44 be
       -0.26490974 0.20498374 0.26961437 -0.19221035
000290 1b a9 89 be 28 1f 2f 3e de 0d 91 be f0 a6 dc 3c
       -0.2688683 0.17101729 -0.28330892 0.02693507
0002a0 36 e8 dc bd 98 c8 61 be 70 08 f4 3d 80 50 f9 bd
       -0.10786478 -0.22049177 0.11915672 -0.12173557
0002b0 2f 2b 1a be 10 cf 7a bd b5 ce 8a be de ae 78 3e
       -0.15055536 -0.061232626 -0.2711083 0.24285457
0002c0 48 22 1d bd 52 4b 6a 3e 86 9d 6d 3e 98 3f 2d be
       -0.03836277 0.22880295 0.23204622 -0.1691879
0002d0 ac b3 d3 3d d0 93 43 3d f8 3f 68 bd 42 79 28 be
       0.10337004 0.047748387 -0.05670163 -0.16452506
0002e0 f0 0b 5d bd cb a1 8c be 3e f9 85 bd c2 fd 13 3e
       -0.053966463 -0.27467188 -0.0654168 0.1445227
0002f0 00 47 d9 3d 8b 9e 93 be 50 98 e1 bc f8 f1 8b 3d
       0.10609245 -0.28831896 -0.027538449 0.06833261
000300 37 02 93 3e 59 fe 48 be 32 36 1b 3e cb 5e f3 3d
       0.28712627 -0.19628276 0.15157393 0.11883315
000310 a4 26 c5 3d 65 5a d3 3d 8a 53 a2 bd a6 cc a5 3d
       0.09626511 0.10319976 -0.0792609 0.08095674
000320 94 90 e7 3d e4 80 35 3e 28 8c a5 3b 56 85 2f 3e
       0.11306873 0.17724949 0.0050521083 0.17140707
000330 99 17 21 be 66 a2 36 3e 1f 71 28 3e 3f 2f 10 3d
       -0.15731658 0.17835388 0.16449402 0.035201307
000340 b0 68 52 3d 60 5c fd bd 97 47 81 3e 3e e7 9f be
       0.05136937 -0.12371135 0.2524993 -0.3123111
000350 de a7 b1 bd de 61 a5 bd 60 f1 b4 3c 76 be bc be
       -0.08674596 -0.08075307 0.022087753 -0.3686406
000360 9f 4e c2 3d f0 d2 f0 3d 00 d1 d4 bd b5 bb 90 3d
       0.09487652 0.11758983 -0.10391426 0.07067052
000370 8c c0 8d bd 63 3b 84 3e 06 01 40 be 83 39 96 bd
       -0.06921491 0.25826558 -0.1875039 -0.07335188
000380 7b c9 4e be 65 be 41 3e 00 46 1b bd f5 22 c2 3d
       -0.20194046 0.18920286 -0.037908554 0.09479324
000390 e1 e9 d8 3e 8f 9a c9 3e e1 80 30 be 15 b8 6f be
       0.42365935 0.3937573 -0.17236663 -0.23410065
0003a0 7f d5 8c 3e 18 df 43 bd 6a 8f 00 3d 40 22 09 3e
       0.27506635 -0.04782018 0.03138677 0.13391972
0003b0 d8 fd e0 bd 5e 1e 18 bd 4a 06 b9 3e b4 00 9e 3d
       -0.10985917 -0.037138335 0.3613761 0.07714978
0003c0 a9 26 d7 be ed 80 08 be 4b 0f cd 3e bb a9 41 3d
       -0.42021683 -0.13330431 0.4005073 0.04728101
0003d0 2e 83 62 3e be b9 ca 3e 65 57 ce 3d 77 81 18 3f
       0.22120354 0.39594835 0.10075263 0.5957255
0003e0 71 15 24 3e bd 11 c4 be 70 f7 0d be 7c 3f 12 be
       0.16023804 -0.38294783 -0.13863921 -0.1428203
0003f0 2e 4a 07 3e e5 b0 ea 3d ac 15 a8 3e be 10 75 3e
       0.13211891 0.11459521 0.32829034 0.23932168

mlp.8.bias f4 [32]
000000 2c 68 76 3e 0b bc 2c be a1 ee 3a 3e 36 f5 44 3e
       0.24063176 -0.16868608 0.18255092 0.19234166
000010 50 3f 26 3e 84 78 d3 bd 51 1f 3d bd 9a 11 99 3e
       0.1623509 -0.10325721 -0.046172444 0.2989624
000020 dc 44 15 3e 80 79 30 bd 9b 67 eb bc 93 83 9e 3d
       0.14577049 -0.04308462 -0.028735926 0.077399395
000030 a6 1a 6b 3e a8 6d 7d 3d cf 4a 92 3e 99 fd 89 3d
       0.22959384 0.061872154 0.285727 0.06737823
000040 f5 c0 6b 3d a3 b3 15 be 2a 61 74 3e fc b9 b1 bc
       0.057557065 -0.14619307 0.2386519 -0.02169513
000050 10 02 3b bd 10 2d 40 be 1b 42 46 3e 4b 3b da bd
       -0.045656264 -0.1876719 0.19361155 -0.106558405
000060 c3 62 0e be 8b 1c 2b 3e f2 0f ba bd 0d 40 e5 bb
       -0.13904862 0.16710107 -0.090850726 -0.006996161
000070 30 39 04 be 1a b5 03 3e d5 f6 1e 3e e0 5e 50 bd
       -0.1291244 0.12862054 0.15523846 -0.05087173

mlp.10.weight f4 [6, 32]
000000 3f 3a 02 3f df f9 4c be 2d e1 ef bd e1 ca 08 bd
       0.50870126 -0.20017193 -0.11712871 -0.033396605
000010 89 04 b8 bd 83 eb bf 3e 05 30 97 bc e0 46 8f be
       -0.0898524 0.3748437 -0.018455515 -0.2798376
000020 f4 3f 25 3e 60 e5 e1 3c 53 74 83 be d3 b5 a4 3e
       0.16137677 0.027575195 -0.25674686 0.3216997
000030 4e 1b 24 be 26 97 97 bd 28 3a b1 3c 0b f2 c6 3d
       -0.16026041 -0.07401876 0.021634176 0.09714135
000040 e5 d7 f9 3d f5 86 8f 3e 20 c7 f9 3e 84 48 fa be
       0.12199382 0.28032652 0.48784733 -0.4888345
000050 48 be 07 3e 0c 6b bc bd b2 0d 35 3e dd 00 e3 bc
       0.1325618 -0.09200105 0.17681006 -0.027710373
000060 0d a4 28 bd 7c 99 9b 3e 54 ab bc be 75 32 01 3f
       -0.041172076 0.30390537 -0.36849463 0.50467616
000070 31 ed 78 be e9 8b d3 3e aa 83 4a 3e 72 48 12 3d
       -0.24309231 0.4131768 0.19776788 0.03571362
000080 6c cb d4 3e 2f 20 95 be 0a d4 bc 3e 3e 5a 2a 3d
       0.4156145 -0.29126117 0.36880523 0.041589968
000090 0d 5e db 3e 29 af 8b 3e 3b 15 f0 be b2 c3 7d be
       0.42845193 0.27282074 -0.46891198 -0.24781683
0000a0 4a 2f 8d 3d 6d 2d 91 3e 70 5f 8e be 0c e3 97 3e
       0.06893785 0.2835497 -0.27807188 0.2966541
0000b0 47 1c ad 3d 41 30 fa be 8d aa d7 be e9 a5 bf bc
       0.08452659 -0.4886494 -0.42122307 -0.023394542
0000c0 54 8e a2 3e 75 90 36 be 39 c3 b0 3c 62 5a 8c be
       0.31749213 -0.17828543 0.021577464 -0.27412707
0000d0 e9 fb 75 3e 0c ae d9 3d e9 48 84 3e 22 84 3e be
       0.24021877 0.106289 0.25836876 -0.18605092
0000e0 33 0f d9 bd 9e 53 ed be d8 12 a1 be 8d e3 bf 3e
       -0.10598602 -0.46352857 -0.3145969 0.37478295
0000f0 00 f3 54 be a5 51 9a bc 12 ca 56 3d 0b 63 b8 3e
       -0.20795822 -0.01883776 0.052438803 0.36013064
000100 6a 3a bd bd 79 c3 13 be a3 b6 bb 3e 08 a7 c8 3e
       -0.09239657 -0.14430036 0.36662778 0.39189935
000110 be a8 ea 3e 24 e9 a3 3d e2 06 aa 3e 00 b2 0f bf
       0.45831865 0.080034524 0.33208376 -0.5613098
000120 71 0b ce 3e 70 ce 9a be cc 87 a6 be b6 60 0f 3d
       0.40243104 -0.30235624 -0.3252548 0.03500434
000130 5b 97 cc bd e7 da 80 be 49 f3 8d 3e 2c 9c 79 be
       -0.09989806 -0.2516701 0.27724674 -0.24375981
000140 57 a7 cc 3e cd 42 f8 bd 3a d2 6b be 47 c4 43 3d
       0.3997142 -0.12122116 -0.23029414 0.047794607
000150 2e 93 44 bd 3c 05 83 be fc e3 e8 3c 49 87 03 be
       -0.047991924 -0.2558993 0.028429024 -0.12844576
000160 23 50 ee 3e 9b fe 04 3d 88 7e f6 be ae ef d3 bb
       0.46545514 0.032469373 -0.4814341 -0.006467781
000170 87 e1 58 be 9d a1 ea 3e 92 55 c3 3e 10 6b 58 be
       -0.21179782 0.45826426 0.38151222 -0.21134591
000180 12 28 4a be 5c 6d b9 be 6b 08 f5 3e cc a6 d8 3e
       -0.19741848 -0.36216247 0.47857985 0.42314756
000190 75 20 fe 3e b5 99 91 3e 11 56 0f 3e c0 42 b3 be
       0.49634138 0.28437582 0.13997675 -0.35011864
0001a0 da 74 0b 3e 2f d5 a9 3e c7 13 78 bd 0e 46 b6 3e
       0.13618794 0.3317046 -0.060565736 0.35600322
0001b0 03 f0 2f be 31 c9 a0 be 78 59 b0 be 5e 45 fe be
       -0.17181401 -0.31403497 -0.3444326 -0.49662298
0001c0 6d a8 dd 3d d4 09 f1 3e c0 27 a0 3e 85 f7 75 3e
       0.1082314 0.4707781 0.31280327 0.24020202
0001d0 a8 b9 89 3d df de 8b be 9e e3 8b be bf f3 9e 3d
       0.06724864 -0.27318475 -0.27322096 0.07761335
0001e0 bb 76 dd 3d 47 9c 96 be 8c 10 4a be 28 ba 3d 3e
       0.10813662 -0.29416105 -0.19732875 0.18528044
0001f0 ae 4e e8 3d af 31 6c 3d 29 b2 19 bd 98 3d ff 3e
       0.11343132 0.05766457 -0.037523422 0.4985168
000200 46 ab de 3e c3 a6 61 be 8e a3 89 bd a4 83 8c 3e
       0.43490046 -0.22036271 -0.06720649 0.27444184
000210 51 3a 06 3f 72 49 04 3e 53 95 bb bd 0f 24 ee bd
       0.52432734 0.12918642 -0.09159341 -0.116279714
000220 67 3d bc 3e 5a 4f 08 3e ff bc 5e bc 03 d9 c7 bd
       0.36765596 0.1331152 -0.013594865 -0.097581886
000230 64 02 9e be b3 5e 0b be 6f a9 95 be 67 7d 7c be
       -0.308612 -0.13610344 -0.2923083 -0.24657212
000240 d6 56 df 3d 25 7e 2b 3e 01 01 fe 3d 6f fe d8 be
       0.109052345 0.16747339 0.12402535 -0.42381617
000250 50 df 44 be a5 42 a8 3e 6a fe ed 3d b5 bf 7c 3e
       -0.19225812 0.32863346 0.11620791 0.24682505
000260 46 1b 5a 3e 54 e8 e2 be 45 1c 10 be e1 94 55 be
       0.21299466 -0.44317877 -0.14073284 -0.20857574
000270 7a 52 9d 3e b7 8e ff bc 1c 48 f2 3e cc af 6b 3e
       0.30726987 -0.031195981 0.4732064 0.2301628
000280 2d f6 58 be aa cb 4a 3e a2 02 38 3e 04 38 68 3e
       -0.21187659 0.19804254 0.17969754 0.22677618
000290 73 b9 61 be 17 6c bd 3e 06 b5 99 3e fb ab 06 bf
       -0.220434 0.36996529 0.30020922 -0.5260617
0002a0 63 43 77 3e b9 84 84 3e e7 40 11 3e 03 7e d3 3e
       0.241468 0.2588251 0.14184915 0.41307077
0002b0 ad ac 07 bf e6 bf b1 be c9 5c 21 be b3 1b 05 be
       -0.5299786 -0.3471672 -0.15758051 -0.12998848
0002c0 6a b9 a3 3e 87 98 1f 3e 3d 2d 8f 3c f0 3c 2c bc
       0.31977397 0.15585528 0.017477626 -0.0105125755
0002d0 f6 9f 07 be 98 c3 4a be 13 68 71 3e 02 a6 ba 3e
       -0.13244614 -0.19801176 0.23574857 0.3645478
0002e0 20 ce e9 3e b4 81 81 be f4 3f e5 3d 53 3d d1 bd
       0.45665073 -0.25294268 0.11193839 -0.10216775
0002f0 83 52 e3 3e ec 16 ab 3e 22 4d a8 3e f2 7e ee bd
       0.4439889 0.33415926 0.32871348 -0.11645307

mlp.10.bias f4 [6]
000000 17 ac 82 3d 60 05 16 3e b9 3c 61 bd b3 2e a0 3d
       0.0638048 0.14650488 -0.05498955 0.07821407
000010 a6 86 c0 3d c9 e9 b9 bd
       0.09400682 -0.09077794
