tmp_result/dqn.pt (torch, 21953 bytes, 12 tensors)

mlp.0.weight f4 [32, 7]
-0.21233532 -0.16740142 0.21126321 0.0141016245 -0.096639305 -0.358922 0.21091774 0.23536633
-0.11822944 -0.2261835 0.07926995 0.1646276 -0.060887795 0.013957088 0.15097949 0.33194926
-0.24292393 0.00074427034 0.27727336 -0.14104588 -0.15245855 -0.13913259 0.030429266 -0.31974033
0.13126695 -0.10364413 0.07266836 0.1216491 -0.269614 0.06738669 -0.022688061 -0.024858654
0.2445747 -0.2710677 -0.06887925 0.26119444 0.16800752 0.10061579 0.27978233 0.15412457
0.31635877 -0.44640455 -0.35433635 0.16611865 0.07551026 0.25116482 -0.23501249 0.37654045
-0.381589 -0.11105428 0.025103725 0.3781939 -0.21242899 0.23571788 0.39058658 0.20909868
-0.19290009 -0.116404995 -0.09881537 0.30456147 -0.078789644 0.2280938 -0.003748864 -0.027339714
0.23395911 -0.21883799 -0.1034476 0.23527068 0.17140546 0.12493031 0.19521978 -0.28323865
0.15054962 0.3151332 0.33845067 -0.32789457 0.0720238 0.07404519 0.054656737 -0.1150765
0.24037707 -0.1405457 0.2635208 0.3770553 -0.081536174 -0.22189344 0.06620437 -0.11941016
0.28833976 0.08501765 -0.13082337 -0.17184606 0.098144054 -0.1532738 0.13170937 -0.16237815
0.06346807 0.06978431 -0.07466437 -0.09282191 -0.19024457 0.23909253 0.11470954 -0.14317054
0.13406552 -0.3670211 0.35156026 -0.27035344 -0.27923465 0.05871138 0.24702558 -0.30579272
-0.08437927 -0.03159977 0.06117436 -0.29970834 0.048886694 0.30195385 -0.2481947 -0.1367905
0.101882 -0.3080465 -0.13746414 0.32310987 0.11871387 0.04455271 -0.17806551 0.0014921289
0.35583478 -0.09271721 0.15116636 0.084800154 0.3282439 0.30479458 0.14086601 -0.08127397
-0.2219336 0.14607468 -0.061552286 -0.38218197 -0.08159112 0.1362905 -0.14280714 -0.0010796109
-0.2652649 -0.13382554 0.11900845 -0.016730648 0.20881015 0.019795032 0.038037613 0.1785608
-0.33824688 0.031095495 0.29353216 0.26610485 -0.15513413 0.28045478 0.2659214 -0.16387513
-0.4245922 -0.3007971 0.13664171 0.27400818 0.29335928 0.16811237 0.109064996 0.024406647
0.011102521 0.1311759 -0.065557435 0.2937535 -0.4841538 0.11172002 -0.10035396 -0.011591091
0.25576985 -0.17781386 -0.016523754 0.022007246 0.34768403 0.27162808 -0.61521184 0.095603615
-0.4739585 -0.53646684 0.13278304 0.36023462 -0.3951519 0.19024804 0.050680034 0.26458696
-0.28834575 0.315603 0.23589852 0.013476788 0.15522274 -0.25923067 0.37344804 -0.09581959
0.021618962 -0.37477058 -0.30092326 0.029503573 -0.17072666 -0.21708535 0.3252453 -0.030640919
0.3914864 -0.06589809 0.11537086 -0.008655075 -0.0031090872 0.30005082 0.37226185 -0.23521166
-0.032631967 0.17009854 -0.28809837 0.27510062 0.25543067 -0.2935365 0.11975279 -0.05363048
00000000: 6e6e 59be 476b 2bbe 6255 583e 800a 673c
00000010: d4ea c5bd a0c4 b7be d2fa 573e df03 713e
00000020: 4722 f2bd a69c 67be 4958 a23d 2394 283e
00000030: 7b65 79bd 45ac 643c 5e9a 1a3e 41f5 a93e
00000040: 0dc1 78be 231b 433a c6f6 8d3e 556e 10be
00000050: 181e 1cbe c678 0ebe cc46 f93c 01b5 a3be
00000060: d86a 063e 6043 d4bd 26d3 943d 2a23 f93d
00000070: d90a 8abe 0802 8a3d 50dc b9bc 60a4 cbbc
00000080: ca71 7a3e 63c9 8abe 9010 8dbd 47bb 853e
00000090: 2a0a 2c3e a70f ce3d a13f 8f3e d5d2 1d3e
000000a0: c7f9 a13e 238f e4be 936b b5be 021b 2a3e
000000b0: 20a5 9a3d ad98 803e 1da7 70be e9c9 c03e
000000c0: a25f c3be 6d70 e3bd 54a6 cd3c a2a2 c13e
000000d0: fc86 59be 0760 713e f7fa c73e f71d 563e
000000e0: 9a87 45be be65 eebd b65f cabd 7bef 9b3e
000000f0: 775c a1bd 6c91 693e 80af 75bb 89f7 dfbc
00000100: fa92 6f3e 1117 60be 56dc d3bd ccea 703e
00000110: ea84 2f3e 76db ff3d b2e7 473e a804 91be
00000120: ae29 1a3e 2459 a13e 6849 ad3e cce1 a7be
00000130: 3781 933d 01a5 973d bedf 5f3d 3aad ebbd
00000140: 6825 763e 36eb 0fbe 33ec 863e 640d c13e
00000150: 70fc a6bd 0938 63be 2896 873d 508d f4bd
00000160: 45a1 933e bc1d ae3d 90f6 05be 6af8 2fbe
00000170: c0ff c83d cff3 1cbe d2de 063e 7546 26be
00000180: 8cfb 813d 14eb 8e3d a2e9 98bd 6a19 bebd
00000190: 79cf 42be acd4 743e d6ec ea3d 4c9b 12be
000001a0: 7948 093e 31ea bbbe b5ff b33e c46b 8abe
000001b0: d8f7 8ebe 587b 703d 46f4 7c3e dd90 9cbe
000001c0: 0acf acbd c36e 01bd f791 7a3d 5f73 99be
000001d0: 6a3d 483d b299 9a3e c026 7ebe cf12 0cbe
000001e0: 83a7 d03d 45b8 9dbe 66c3 0cbe a86e a53e
000001f0: 4220 f33d e77c 363d ce56 36be 8a93 c33a
00000200: fa2f b63e 85e2 bdbd 5bcb 1a3e b4ab ad3d
00000210: 960f a83e 090e 9c3e 2e3f 103e f872 a6bd
00000220: 9042 63be 9a94 153e 401e 7cbd 5bad c3be
00000230: 3f19 a7bd bd8f 0b3e 093c 12be bb81 8dba
00000240: cdd0 87be 9009 09be b4ba f33d b60e 89bc
00000250: 54d2 553e 3129 a23c 54cd 1b3d a4d8 363e
00000260: b22e adbe fbbb fe3c d949 963e e53e 883e
00000270: 7bdb 1ebe c597 8f3e da26 883e e2ce 27be
00000280: 2664 d9be 1402 9abe ceeb 0b3e cd4a 8c3e
00000290: 3033 963e a625 2c3e 785d df3d 73f0 c73c
000002a0: 59e7 353c fa52 063e fa42 86bd dc66 963e
000002b0: 02e3 f7be 77cd e43d 6186 cdbd 8fe8 3dbc
000002c0: 44f4 823e d614 36be d35c 87bc 8a48 b43c
000002d0: a403 b23e d612 8b3e 867e 1dbf d4cb c33d
000002e0: b0aa f2be e455 09bf 47f8 073e ac70 b83e
000002f0: 5a51 cabe 62d0 423e de95 4f3d f177 873e
00000300: 0ea2 93be b796 a13e 628f 713e bfcd 5c3c
00000310: b6f2 1e3e e2b9 84be 9534 bf3e 103d c4bd
00000320: 401a b13c eee1 bfbe 9d12 9abe 7ab1 f13c
00000330: f8d2 2ebe 9f4b 5ebe 8d86 a63e aa02 fbbc
00000340: e870 c83e 94f5 86bd 8f47 ec3d 04ce 0dbc
00000350: d4c1 4bbb 43a0 993e 1b99 be3e 53db 70be
00000360: 19a9 05bd 502e 2e3e a181 93be fdd9 8c3e
00000370: cfc7 823e 6b4a 96be f340 f53d a2ab 5bbd

mlp.0.bias f4 [32]
-0.08103469 0.033975504 -0.15127772 -0.017790638 0.03658408 -0.16116601 -0.3186968 0.2807837
0.033030845 0.21416861 0.20643076 0.3167166 -0.30661577 -0.16991033 0.10073299 0.12203069
0.21875153 -0.076753326 0.02959689 -0.35872135 0.24346973 0.2242978 0.28215626 0.27816942
-0.17437601 -0.11108805 -0.006548841 0.14107163 -0.35311162 0.24725439 0.1064938 0.0454277
00000000: 84f5 a5bd e629 0b3d 8ce8 1abe acbd 91bc
00000010: 30d9 153d b408 25be 3a2c a3be e2c2 8f3e
00000020: 5a4b 073d 044f 5b3e 9662 533e ae28 a23e
00000030: befc 9cbe f9fc 2dbe 194d ce3d 3aeb f93d
00000040: 6700 603e d930 9dbd 2d75 f23c 53aa b7be
00000050: 2150 793e 53ae 653e c976 903e 396c 8e3e
00000060: a08f 32be 2282 e3bd a997 d6bb 1575 103e
00000070: 0ccb b4be 4130 7d3e 6c19 da3d 6512 3a3d

mlp.2.weight f4 [32, 32]
-0.1197824 0.08476739 0.08529425 -0.003288716 0.25021014 0.12659289 -0.011007667 -0.013031545
-0.13697675 0.22849986 0.19519275 -0.14582956 -0.19189356 -0.03263372 -0.3095175 0.07252601
-0.22347876 0.14120126 -0.05456096 -0.055196643 -0.17655678 -0.13059011 0.19529256 -0.16417815
0.06995249 0.29220128 0.08801081 -0.26551288 -0.13748842 -0.26305622 -0.22205329 -0.15633212
0.2733402 0.22928962 0.09970498 0.11424357 -0.18272842 -0.24818271 0.02825275 0.20239481
0.19734868 0.24332026 -0.2575793 -0.25355816 -0.14931089 -0.01251021 -0.27103937 -0.22440404
0.1709392 0.14390713 -0.2963382 0.23293975 -0.13555631 -0.2867693 -0.10390966 -0.13152921
-0.016049445 0.060225844 0.07398811 -0.16767302 -0.1059002 -0.05450201 0.045043886 -0.13848098
0.26506558 -0.016535938 0.15950242 -0.09224093 -0.0007018745 -0.29595023 0.0067875385 -0.18615083
-0.084016696 0.28491065 -0.20499831 -0.049277455 -0.25450912 -0.06545384 -0.24733269 0.2012187
0.21584228 -0.29340684 0.26614442 -0.15135749 -0.198019 -0.15476245 -0.02125746 -0.1628259
-0.0724463 -0.18892843 -0.22452158 0.06340158 0.17347452 -0.17985006 -0.23007774 0.14491138
0.23724565 0.22090967 0.3553534 0.2716435 0.106030226 -0.14561687 -0.19529495 -0.07388138
0.19377132 -0.041287813 0.30368143 0.047246546 -0.12796594 -0.24972525 -0.11588036 0.052045185
0.21756631 0.040912766 0.13966535 0.049507946 0.22267573 0.067797534 -0.18997523 -0.048564937
-0.10844398 0.054656215 0.09855004 -0.15633458 0.10676521 -0.0067240265 0.048123542 0.2676446
0.18022466 -0.16163886 0.26470214 0.27150992 0.055712104 0.24409628 -0.23782194 0.14554702
0.217391 0.097527854 0.26669136 0.19056933 0.11398861 -0.10059251 -0.16926557 0.7377616
-0.3090915 0.060339607 -0.25729713 -0.008308321 0.21592551 0.11677676 0.13836995 -0.1533685
-0.04796618 -0.30311227 0.25042188 -0.10242903 0.27178827 -0.1450566 -0.24051228 0.09287368
0.1847353 -0.28923395 -0.2505455 -0.07844344 -0.20352736 0.26776326 0.20764086 0.10944628
0.10683482 -0.18549837 0.255943 0.009182396 0.21694478 0.21188053 0.20036003 -0.22608277
0.07800898 0.2345363 -0.2126049 0.047465146 0.11323689 -0.055935767 0.12777923 -0.30311725
-0.038452014 0.23249947 -0.098941274 -0.09904674 0.03193915 0.20501845 0.14899597 -0.205617
-0.28214175 0.13042834 0.14338043 -0.16457538 -0.1371854 -0.043572355 -0.23296952 -0.1986916
-0.104124606 0.12082486 0.1507622 0.24636328 0.24596974 0.030600935 -0.22585456 0.74877816
0.12009198 0.26847723 0.06565384 0.00078332424 -0.276367 0.120161586 0.267638 -0.28116962
-0.58353657 0.25939578 0.02482897 -0.27433848 -0.09854193 -0.2188345 0.020920778 0.034665227
-0.0843229 -0.27397648 -0.08224724 -0.022981137 -0.20001896 -0.14610161 0.23137715 -0.26766762
0.03248343 0.021932572 0.15868118 -0.2238227 -0.16391033 0.26636884 0.14208534 -0.29795057
0.032886386 0.13875753 -0.09758596 -0.11114623 0.020442396 0.031659603 -0.14133172 0.12331623
0.25203612 0.2402809 -0.031081676 0.3052676 0.1421026 -0.2197743 0.2162418 0.17386559
00000000: 7a50 f5bd 869a ad3d c0ae ae3d 8087 57bb
00000010: 8b1b 803e 91a1 013e 8059 34bc 4382 55bc
00000020: a243 0cbe defb 693e 9ce0 473e 5854 15be
00000030: bf7f 44be f0aa 05bd 1479 9ebe 8488 943d
00000040: 9ed7 64be 1097 103e 507b 5fbd e015 62bd
00000050: 4dcb 34be 6ab9 05be c6fa 473e 511e 28be
00000060: 4043 8f3d 689b 953e 033f b43d 4ef1 87be
00000070: c4c9 0cbe 4eaf 86be f061 63be 8715 20be
00000080: 3ff3 8b3e e6ca 6a3e 2032 cc3d 88f8 e93d
00000090: 291d 3bbe 9c23 7ebe 5072 e73c 9640 4f3e
000000a0: c615 4a3e f228 793e 6fe1 83be 60d2 81be
000000b0: f4e4 18be a0f7 4cbc acc5 8abe 2cca 65be
000000c0: b00a 2f3e 645c 133e a4b9 97be c287 6e3e
000000d0: 46cf 0abe 6dd3 92be 96ce d4bd 98af 06be
000000e0: 207a 83bc 60af 763d 1487 973d 7ab2 2bbe
000000f0: 34e2 d8bd 803d 5fbd f07f 383d f5cd 0dbe
00000100: adb6 873e 6076 87bc 9a54 233e d0e8 bcbd
00000110: 00fe 37ba ca86 97be 006a de3b 539e 3ebe
00000120: f210 acbd cfdf 913e 14eb 51be 28d7 49bd
00000130: 054f 82be aa0c 86bd c844 7dbe 460c 4e3e
00000140: c205 5d3e 6c39 96be 1544 883e 75fd 1abe
00000150: 7ec5 4abe 0c7a 1ebe 2024 aebc d5bb 26be
00000160: ba5e 94bd 7476 41be fce8 65be b0d8 813d
00000170: 4ea3 313e 9d2a 38be 8099 6bbe a663 143e
00000180: 86f0 723e 2536 623e e1f0 b53e db14 8b3e
00000190: 6026 d93d 971c 15be 66fb 47be 1f4f 97bd
000001a0: fd6b 463e 691d 29bd 227c 9b3e 9885 413d
000001b0: 8109 03be fab7 7fbe af52 edbd 552d 553d
000001c0: b4c9 5e3e 2594 273d 6f04 0f3e d8c8 4a3d
000001d0: 1b05 643e 6fd9 8a3d de88 42be 07ec 46bd
000001e0: e117 debd 32df 5f3d 9ad4 c93d 2c16 20be
000001f0: b8a7 da3d 3955 dcbb 311d 453d b708 893e
00000200: d08c 383e a884 25be 0a87 873e 5903 8b3e
00000210: 6032 643d 60f4 793e 9887 73be 470a 153e
00000220: bf9b 5e3e afbc c73d c58b 883e 9b24 433e
00000230: dc72 e93d 7203 cebd f453 2dbe f2dd 3c3f
00000240: 3e41 9ebe aa26 773d 73bc 83be a01f 08bc
00000250: 941b 5d3e a728 ef3d dab0 0d3e a20c 1dbe
00000260: 2f78 44bd 8831 9bbe 4c37 803e 50c6 d1bd
00000270: d527 8b3e b889 14be da48 76be 8e34 be3d
00000280: 402b 3d3e 7916 94be 8047 80be f4a6 a0bd
00000290: 7a69 50be 4418 893e ce9f 543e 5f25 e03d
000002a0: 37cc da3d 49f3 3dbe f60a 833e c371 163c
000002b0: c626 5e3e 36f7 583e 2e2b 4d3e 3e82 67be
000002c0: 2cc3 9f3d 492a 703e 19b5 59be d06a 423d
000002d0: bee8 e73d e71c 65bd 8fd8 023e 2f32 9bbe
000002e0: dc7f 1dbd 5714 6e3e b9a1 cabd 04d9 cabd
000002f0: a0d2 023d 5bf0 513e 6692 183e 438d 52be
00000300: e274 90be 028f 053e 52d2 123e 7386 28be
00000310: 547a 0cbe ed78 32bd 908f 6ebe d075 4bbe
00000320: 483f d5bd 0673 f73d 6861 1a3e a846 7c3e
00000330: 7edf 7b3e d0ae fa3c 6b46 67be edaf 3f3f
00000340: c9f2 f53d d975 893e 8575 863d 0058 4d3a
00000350: fa7f 8dbe 4717 f63d d907 893e 77f5 8fbe
00000360: a762 15bf 86cf 843e 2066 cb3c 1876 8cbe
00000370: 5ad0 c9bd 2716 60be 0d62 ab3c 20fd 0d3d
00000380: 7cb1 acbd a546 8cbe 3e71 a8bd f042 bcbc
00000390: c5d1 4cbe a99b 15be 22ee 6c3e bb0b 89be
000003a0: 580d 053d f0ab b33c 527d 223e c731 65be
000003b0: 1cd8 27be 7f61 883e d27e 113e fa8c 98be
000003c0: e0b3 063d 7416 0e3e 26db c7bd a2a0 e3bd
000003d0: d076 a73c 80ad 013d 43b9 10be 388d fc3d
000003e0: e10a 813e 320c 763e 009f febc 094c 9c3e
000003f0: 5883 113e 840c 61be 7e6e 5d3e d209 323e

mlp.2.bias f4 [32]
0.023357676 -0.0027039796 -0.08274058 0.15190724 0.115821324 0.031131545 0.1287167 -0.025850639
-0.15168089 0.1379548 -0.007874574 -0.0832878 -0.069793664 -0.10547706 -0.008506593 0.04264672
0.043734357 -0.13338104 -0.026844233 0.18836208 -0.12004235 -0.07986523 0.1453405 0.106786534
-0.03220521 -0.038755044 0.16143577 0.096809305 0.034681443 0.13899766 0.16020323 -0.17534102
00000000: 9958 bf3c 4035 31bb e573 a9bd 928d 1b3e
00000010: bb33 ed3d 9507 ff3c 50ce 033e b8c4 d3bc
00000020: 3c52 1bbe 0644 0d3e 5b04 01bc cb92 aabd
00000030: fbef 8ebd 5b04 d8bd 3d5f 0bbc 54ae 2e3d
00000040: cc22 333d 0a95 08be 70e8 dbbc fde1 403e
00000050: c3d8 f5bd 6290 a3bd 24d4 143e e6b2 da3d
00000060: 9ce9 03bd 9cbd 1ebd 6b4f 253e f543 c63d
00000070: 210e 0e3d 6755 0e3e 510c 243e 998c 33be

mlp.4.weight f4 [32, 32]
-0.07743865 -0.21427602 -0.03514284 -0.1310341 -0.17050202 0.06944121 -0.21440528 0.2323285
0.13436995 -0.27709052 0.056932475 0.20191649 -0.097059175 -0.086218834 -0.15209292 -0.037435573
0.17356569 -0.06281327 -0.14781635 0.07342842 0.18660684 0.113865905 0.15620607 0.1382977
-0.23334464 0.11759782 -0.30136535 -0.27886817 0.061436422 0.09935519 -0.15810914 -0.23373358
-0.2984626 0.17406502 0.29807052 0.05592729 -0.19891609 -0.3100845 -0.2789352 -0.091963306
-0.09337359 -0.0018079281 0.2700507 -0.028777659 0.25412926 0.03927359 -0.15041998 -0.22215942
-0.16590777 0.037397444 0.22666916 -0.19353153 0.25930968 0.061882794 -0.08936651 0.05394414
0.16317624 0.17969346 -0.12860434 0.10228893 0.013031762 -0.05294156 -0.31486425 0.066286415
0.14592162 -0.18810418 0.10448995 -0.16564055 -0.11075014 0.16086307 0.11867884 0.05989954
0.26228413 0.14001083 0.18978706 0.29900923 -0.2017149 -0.18147191 0.11656657 0.053488463
-0.24096051 -0.25597066 -0.2770086 0.15960509 -0.18317184 -0.14194524 -0.19116239 -0.1676109
0.28133062 -0.014695942 0.11670753 -0.038170308 -0.22881728 0.0075896382 0.011995077 -0.07925342
-0.22642656 -0.03033027 -0.18082498 -0.05290328 -0.11446581 -0.12574272 -0.118963175 0.04870069
-0.30351335 -0.0707998 0.2334355 0.08575326 0.25215146 0.27367994 -0.08114175 0.23727278
0.19001883 -0.06271413 0.19529644 0.25672883 -0.046058822 -0.19680564 0.16834582 -0.23543444
0.32957557 -0.1884086 -0.16968945 -0.012242967 0.32243904 0.058443487 -0.17967762 0.24851522
0.07242303 0.040194273 -0.25720906 -0.015146331 0.1704957 -0.24768208 -0.065975726 -0.18616796
0.2441881 -0.066366 -0.28543234 -0.17236717 -0.17087494 -0.103847384 -0.1980415 0.21463577
-0.29610476 -0.15363014 -0.21463978 -0.29774642 -0.17527762 0.035644766 0.0056240913 0.02085489
0.21978962 -0.14176542 0.18338849 0.19128376 -0.34342563 0.06911275 -0.011814417 -0.0664252
-0.30336484 -0.2853123 -0.17865993 -0.28919023 0.047807664 -0.25588605 -0.1360759 0.15009096
0.018683732 -0.21475644 -0.10955037 0.22033903 0.27366003 -0.20171085 0.10769677 -0.0613579
-0.06667517 0.019294977 -0.05348581 -0.1388302 -0.12862784 0.061933577 -0.050649256 0.023394465
0.23911837 0.20681241 0.25531486 0.06285414 -0.10605949 -0.21278474 0.17352146 -0.062355816
0.3081498 -0.029697329 0.00044074655 0.2571435 0.25354537 0.16328686 0.2593988 0.02941674
0.13950372 -0.008157907 -0.29307425 -0.17576966 0.00010278821 0.30087444 0.08562429 0.030342236
-0.16779621 0.25949326 -0.18284783 -0.26332882 -0.036754254 -0.258755 0.023863075 -0.023294473
0.19617136 0.04264304 0.014339692 -0.13754822 -0.32924291 0.004402727 0.21209817 0.14651482
-0.087918945 -0.16302057 -0.20978165 -0.31808499 0.1775427 0.20627765 0.20850238 0.2018564
-0.043458566 -0.008353192 -0.19103096 0.18855292 -0.24136913 -0.2609636 0.09428447 0.035368457
-0.2580532 0.05426979 -0.30438146 0.0622037 -0.26562715 -0.38395604 -0.067388885 -0.29708502
0.07115985 -0.08591606 0.045896675 -0.014328092 0.2080294 0.03952819 -0.09631591 0.1440998
00000000: 2898 9ebd 2c6b 5bbe f0f1 0fbd ce2d 06be
00000010: 1598 2ebe 3137 8e3d 0f8d 5bbe 86e7 6d3e
00000020: 4798 093e cfde 8dbe 0732 693d 32c3 4e3e
00000030: f6c6 c6bd 8093 b0bd 3fbe 1bbe 0b56 19bd
00000040: 34bb 313e 3ea4 80bd 2b5d 17be a461 963d
00000050: dd15 3f3e 8732 e93d 7cf4 1f3e ea9d 0d3e
00000060: e6f1 6ebe 20d7 f03d 8f4c 9abe cfc7 8ebe
00000070: c2a4 7b3d bc7a cb3d 5de7 21be db57 6fbe
00000080: 17d0 98be 1a3e 323e b39c 983e 0414 653d
00000090: a9b0 4bbe 65c3 9ebe 98d0 8ebe 4257 bcbd
000000a0: a73a bfbd 00f8 ecba 1644 8a3e 20bf ebbc
000000b0: 3b1d 823e 58dd 203d b207 1abe c27d 63be
000000c0: bae3 29be 102e 193d f61b 683e 212d 46be
000000d0: 3dc4 843e d078 7d3d ca05 b7bd 88f4 5c3d
000000e0: ac17 273e 9001 383e dbb0 03be dc7c d13d
000000f0: 2c83 553c 40d9 58bd e335 a1be 2cc1 873d
00000100: 7a6c 153e 629e 40be d4fe d53d ad9d 29be
00000110: f8d0 e2bd 4ab9 243e e40d f33d 3859 753d
00000120: 1b4a 863e 005f 0f3e 8a57 423e bd17 993e
00000130: 5a8e 4ebe c6d3 39be 74ba ee3d b816 5b3d
00000140: 5abe 76be 960e 83be 12d4 8dbe 846f 233e
00000150: 6691 3bbe 185a 11be 13c0 43be 31a2 2bbe
00000160: 910a 903e 40c7 70bc 5c04 ef3d 7858 1cbd
00000170: 144f 6abe 80b2 f83b 0087 443c 9e4f a2bd
00000180: 5ddc 67be 3077 f8bc 2f2a 39be 1cb1 58bd
00000190: 0d6d eabd b3c2 00be f7a2 f3bd 607a 473d
000001a0: 1a66 9bbe 7cff 90bd b709 6f3e 689f af3d
000001b0: ff19 813e c71f 8c3e a52d a6bd a3f7 723e
000001c0: 4c94 423e 4470 80bd cafb 473e f671 833e
000001d0: 2da8 3cbd 6b87 49be d962 2c3e ba15 71be
000001e0: 21be a83e 2fee 40be 12c3 2dbe ba96 48bc
000001f0: bb16 a53e 7062 6f3d 69fd 37be c67a 7e3e
00000200: 8752 943d c0a2 243d e8b0 83be 5128 78bc
00000210: 6d96 2e3e 5fa0 7dbe 481e 87bd d0a2 3ebe
00000220: 720c 7a3e e6ea 87bd 3024 92be 0581 30be
00000230: d7f9 2ebe f0ad d4bd 64cb 4abe 7bc9 5b3e
00000240: 0b9b 97be 3851 1dbe 88ca 5bbe 3872 98be
00000250: fa7b 33be 3f00 123d 4c4a b83b e0d7 aa3c
00000260: 8810 613e f42a 11be 31ca 3b3e e4df 433e
00000270: 7cd5 afbe fc8a 8d3d 4291 41bc ef09 88bd
00000280: a352 9bbe 7414 92be a1f2 36be be10 94be
00000290: f8d1 433d 7f03 83be 7b57 0bbe 72b1 193e
000002a0: a00e 993c 1de9 5bbe f25b e0bd 8ea0 613e
000002b0: 2b1d 8c3e 4a8d 4ebe 2090 dc3d 6c52 7bbd
000002c0: fe8c 88bd 8010 9e3c f013 5bbd 8129 0ebe
000002d0: 04b7 03be 10ae 7d3d 9875 4fbd c0a5 bf3c
000002e0: 72db 743e a2c6 533e a1b8 823e acb9 803d
000002f0: b835 d9bd 3ee4 59be 9caf 313e d068 7fbd
00000300: d0c5 9d3e d047 f3bc 0014 e739 50a8 833e
00000310: b3d0 813e ac34 273e ebcf 843e 60fb f03c
00000320: 10da 0e3e bea8 05bc d40d 96be f6fc 33be
00000330: 0090 d738 370c 9a3e ca5b af3d 4890 f83c
00000340: c5d2 2bbe 4ddc 843e 763c 3bbe 09d3 86be
00000350: a18b 16bd 897b 84be 7f7c c33c 0dd4 bebc
00000360: 25e1 483e 78aa 2e3d 07f1 6a3c 71d9 0cbe
00000370: 8792 a8be c044 903b 4330 593e fb07 163e
00000380: d90e b4bd ddee 26be 00d1 56be 09dc a2be
00000390: c1cd 353e 733a 533e a681 553e 72b3 4e3e
000003a0: 9c01 32bd d4db 08bc 9f9d 43be 0414 413e
000003b0: 7829 77be 059d 85be 3718 c13d 84de 103d
000003c0: 8d1f 84be 004a 5e3d e3d7 9bbe 4fc9 7e3d
000003d0: 4800 88be e395 c4be 2f03 8abd 871b 98be
000003e0: 41bc 913d c2f4 afbd 27fe 3b3d 60c0 6abc
000003f0: a905 553e 50e8 213d 4741 c5bd e68e 133e

mlp.4.bias f4 [32]
-0.03418141 0.03482381 -0.10366957 0.08970128 0.13134886 -0.14588626 -0.12054351 0.040194523
-0.040919393 0.067235015 -0.014080793 0.0603278 0.19100055 -0.10521714 0.012009141 -0.031466395
0.15573639 -0.042937405 0.08626347 0.052642453 -0.13581786 -0.09679262 0.08408328 -0.17399357
-0.14855267 -0.11553374 0.10909538 -0.0027096355 -0.035954475 -0.06917859 -0.14300177 -0.020636145
00000000: ce01 0cbd 69a3 0e3d b650 d4bd 4eb5 b73d
00000010: 5180 063e 3563 15be 84df f6bd 03a3 243d
00000020: 189b 27bd 83b2 893d 20b3 66bc 491a 773d
00000030: a695 433e 157c d7bd fdc1 443c e8e2 00bd
00000040: 5c79 1f3e 22df 2fbd e7aa b03d 9d9f 573d
00000050: d613 0bbe 363b c6bd db33 ac3d 5f2b 32be
00000060: 311e 18be f49c ecbd 666d df3d 2494 31bb
00000070: 0045 13bd 81ad 8dbd 0e6f 12be 220d a9bc

mlp.6.weight f4 [32, 32]
-0.14173795 -0.300112 -0.1373361 0.2807178 0.005237252 0.105758876 -0.11087859 0.099957936
0.029193798 -0.20769353 0.04765767 0.24363273 0.13171129 -0.12048927 -0.13510102 -0.26187965
-0.23133403 0.22796063 0.19924213 0.1955487 0.24225494 0.13686441 0.2876732 -0.06513157
-0.13890964 0.082453385 -0.15251048 0.11155362 -0.1268827 -0.057339717 0.22405556 -0.18787733
0.12307932 0.15657897 0.1389637 0.049929917 0.16079882 0.014122039 -0.19143377 -0.14414674
-0.044493917 -0.18014589 0.14304474 0.17333898 -0.050082088 0.18791682 0.12833992 -0.22253636
-0.27018368 -0.03699767 0.0941399 0.037715737 0.2742702 0.21716243 -0.0049995203 0.0025686075
0.07632756 -0.098959334 0.16846439 -0.024222476 -0.086012505 -0.010005193 -0.17949998 0.13992228
-0.064213485 -0.013890505 -0.014484674 -0.08046362 -0.12188223 -0.02402538 0.18203917 -0.22146231
0.1186057 -0.20719042 -0.14846477 -0.04264018 0.11858761 0.053509504 -0.10446304 -0.049595386
0.2525697 0.17894515 0.09690726 -0.17857839 0.18264616 -0.19505814 -0.18739973 -0.23662892
0.14363843 0.21158782 0.05643615 0.2777091 -0.1581642 -0.27202135 -0.14757697 -0.17049621
-0.12740669 -0.16568606 -0.074130565 -0.21329191 0.17463155 0.1672231 -0.18183695 0.11340085
0.0901395 0.16664249 0.0062538385 0.24201997 -0.16683047 0.13266084 0.15564525 0.096375495
-0.17954393 -0.15448137 -0.3193173 -0.27077463 0.009442985 0.07208276 0.25522444 -0.25033024
0.10740927 0.24105269 -0.07214474 0.18467811 0.14974631 -0.00736529 0.22903791 -0.096671306
-0.12134825 0.06947738 0.16786969 -0.114302956 0.0722943 0.027439713 -0.28611857 0.006436953
-0.28868404 -0.11546742 -0.021611363 -0.0015249123 -0.3625268 0.15757695 -0.119525604 -0.06965308
0.08522152 0.09567048 -0.31511483 -0.27688417 0.24392971 0.29573792 -0.056781832 -0.05644642
-0.117388725 -0.06674716 0.16215028 -0.11413079 0.18470475 -0.022982929 -0.13068327 -0.24105166
0.0016123703 -0.07021107 -0.09867436 -0.0897007 -0.003927034 -0.27980027 0.23052336 -0.042151842
0.28084186 0.002042575 0.17380953 -0.15562953 -0.07002941 0.083342075 0.081151634 -0.20427106
0.1307506 0.25176433 0.0155509645 0.25804105 -0.18877247 -0.2359463 -0.10021245 0.14658669
0.21053413 -0.12631802 0.05377729 -0.1287391 -0.032542385 0.14223629 0.06330949 -0.063909635
0.20382442 -0.100035846 -0.29448184 0.040611926 -0.23621689 -0.17137204 0.111437865 -0.11681391
-0.26054165 0.07412996 -0.07912004 -0.0371177 -0.14467846 0.2541487 -0.058472246 0.19677655
0.24672316 0.092914455 -0.24751532 0.12834729 0.18411458 0.26273543 0.122508876 0.032357287
0.005115181 0.03737878 -0.08994664 0.020548122 0.12871012 -0.0025494904 0.12575266 -0.02226011
-0.24300267 -0.2760797 0.04867041 0.24548158 -0.20236525 -0.011757642 -0.09395309 0.054095484
-0.27576 -0.011904358 -0.26430577 -0.2354099 0.19813915 0.24958476 0.13808346 -0.2338769
-0.094587095 0.2561975 0.28824365 -0.044687208 -0.071275994 0.20054361 -0.24256235 0.026118888
-0.22971785 0.14674187 0.031839892 0.014077154 0.20623411 -0.22582397 0.13783953 -0.21726632
00000000: c123 11be 48a8 99be d6a1 0cbe 3eba 8f3e
00000010: 419d ab3b 1c98 d83d 5014 e3bd bfb6 cc3d
00000020: d527 ef3c 9dad 54be b034 433d dc7a 793e
00000030: 53df 063e 14c3 f6bd ec57 0abe 1715 86be
00000040: d4e2 6cbe 836e 693e 2106 4c3e eb3d 483e
00000050: ae11 783e 2f26 0c3e e749 933e b363 85bd
00000060: 543e 0ebe 52dd a83d b52b 1cbe 3976 e43d
00000070: 8aed 01be 0ddd 6abd d26e 653e ea62 40be
00000080: 0311 fc3d 3d56 203e 804c 0e3e 5083 4c3d
00000090: 72a8 243e 2060 673c 3707 44be 349b 13be
000000a0: 413f 36bd 2a78 38be 527a 123e c67f 313e
000000b0: e022 4dbd 446d 403e 8a6b 033e 92e0 63be
000000c0: 8455 8abe de8a 17bd 6bcc c03d d17b 1a3d
000000d0: 256d 8c3e d45f 5e3e 04d3 a3bb 1556 283b
000000e0: a051 9c3d 31ab cabd ee81 2c3e 376e c6bc
000000f0: 5327 b0bd d2ec 23bc d8ce 37be c947 0f3e
00000100: 5c82 83bd 0095 63bc 2051 6dbc 1cca a4bd
00000110: 649d f9bd e0d0 c4bc 7a68 3a3e 04c7 62be
00000120: 8ce7 f23d ba29 54be 2607 18be 78a7 2ebd
00000130: 10de f23d c82c 5b3d b8f0 d5bd 8824 4bbd
00000140: d150 813e 663d 373e 5077 c63d 41dd 36be
00000150: 9807 3b3e 52bd 47be b7e5 3fbe da4e 72be
00000160: f415 133e 7aaa 583e 9829 673d e32f 8e3e
00000170: ccf5 21be 6246 8bbe 6b1e 17be 8f96 2ebe
00000180: e676 02be 9ba9 29be c4d1 97bd 3269 5abe
00000190: 9dd2 323e 883c 2b3e 7733 3abe b43e e83d
000001a0: 0f9b b83d 54a4 2a3e 00ed cc3b 15d4 773e
000001b0: 9bd5 2abe 3ed8 073e 7861 1f3e 8460 c53d
000001c0: 5dda 37be 5d30 1ebe 8f7d a3be f9a2 8abe
000001d0: c0b6 1a3c 20a0 933d c7ac 823e 492b 80be
000001e0: 64f9 db3d 84d6 763e 9fc0 93bd 421c 3d3e
000001f0: 1957 193e 8858 f1bb ea88 6a3e 9bfb c5bd
00000200: 6e85 f8bd 284a 8e3d 08e6 2b3e ab17 eabd
00000210: 090f 943d 40c9 e03c 227e 92be 13ed d23b
00000220: 65ce 93be 2f7a ecbd 500a b1bc 91df c7ba
00000230: 1d9d b9be da5b 213e d7c9 f4bd 46a6 8ebd
00000240: 9f88 ae3d e2ee c33d bb56 a1be c3c3 8dbe
00000250: b6c8 793e f66a 973e 1194 68bd 5c34 67bd
00000260: 8069 f0bd bcb2 88bd b90a 263e 67bd e9bd
00000270: 3e23 3d3e b246 bcbc d6d1 05be 3fd6 76be
00000280: 2b56 d33a d2ca 8fbd c815 cabd 00b5 b7bd
00000290: 59ae 80bb fb41 8fbe 510e 6c3e 69a7 2cbd
000002a0: 81ca 8f3e b9dc 053b 20fb 313e 595d 1fbe
000002b0: 946b 8fbd 40af aa3d d432 a63d 6f2c 51be
000002c0: 7ce3 053e 41e7 803e 79c9 7e3c f51d 843e
000002d0: 924d 41be e89b 71be 2f3c cdbd d21a 163e
000002e0: 4296 573e 8359 01be 9345 5c3d 2fd4 03be
000002f0: 2a4b 05bd 64a6 113e 68a8 813d 0ee3 82bd
00000300: 59b7 503e 98df ccbd 53c6 96be b158 263d
00000310: d7e2 71be 277c 2fbe 8939 e43d 223c efbd
00000320: b765 85be 73d1 973d b009 a2bd bb08 18bd
00000330: 9726 14be c71f 823e 9880 6fbd cb7f 493e
00000340: ffa4 7c3e ef49 be3d a874 7dbe 796d 033e
00000350: 8888 3c3e 4285 863e efe5 fa3d 1389 043d
00000360: 409d a73b 7e1a 193d f235 b8bd 8954 a83c
00000370: 96cc 033e 5a15 27bb 4ec5 003e d65a b6bc
00000380: b1d5 78be 525a 8dbe a05a 473d 865f 7b3e
00000390: d638 4fbe 20a3 40bc 7a6a c0bd 3a93 5d3d
000003a0: 6a30 8dbe 7f0a 43bc 1653 87be 4b0f 71be
000003b0: fde4 4a3e 2693 7f3e c065 0d3e 6d7d 6fbe
000003c0: e1b6 c1bd 522c 833e ac94 933e ef09 37bd
000003d0: 26f9 91bd 4e5b 4d3e 4462 78be 47f7 d53c
000003e0: 283b 6bbe 8043 163e 8c6a 023d dda3 663c
000003f0: 092f 533e 663e 67be ce25 0d3e 107b 5ebe

mlp.6.bias f4 [32]
-0.037157208 0.032544337 -0.15760946 -0.05688415 0.090949625 -0.0829813 -0.07193035 0.08112448
-0.04788299 -0.17300211 0.16621956 0.0151577 -0.06357777 -0.023138959 -0.12719339 0.02786308
-0.039490774 -0.0743363 -0.1876975 0.07736759 0.035937395 -0.06553785 0.12304152 -0.11636454
-0.053575963 0.031149501 0.11032833 0.08882931 0.0034572552 -0.06487271 -0.1871024 0.1466818
00000000: 2832 18bd 364d 053d 6064 21be 5bff 68bd
00000010: cc43 ba3d 1af2 a9bd 3850 93bd 9724 a63d
00000020: f420 44bd 7727 31be 7635 2a3e 0058 783c
00000030: 1035 82bd ea8d bdbc fc3e 02be 1d41 e43c
00000040: 14c1 21bd a13d 98bd c633 40be e672 9e3d
00000050: 1733 133d b538 86bd 31fd fb3d 8850 eebd
00000060: 7872 5bbd 3d2d ff3c d2f3 e13d 24ec b53d
00000070: 1e93 623b fcdb 84bd c697 3fbe c133 163e

mlp.8.weight f4 [32, 32]
0.03564466 0.24169178 0.1899623 0.22773014 -0.07136337 -0.15787409 0.048608486 0.16674328
-0.23210101 0.14973266 0.09191528 -0.2396596 0.1467286 0.05257014 0.118294485 0.10960663
-0.085356906 -0.09246164 0.06388727 -0.013258531 -0.13344057 0.14754452 0.22514753 0.060156345
-0.051718727 0.0140104275 -0.09772676 0.0036258483 0.073705874 0.04796397 0.26898766 0.011538842
0.10966643 0.18034673 0.24335214 -0.01483122 0.2276887 -0.28071207 0.07565732 -0.23137058
-0.21710972 0.2210759 0.20793536 -0.04198861 -0.06618624 -0.05743762 -0.019024273 0.24444135
0.15810989 0.17123327 -0.17011 -0.18368635 0.07532271 0.19442007 -0.28498736 -0.19461429
-0.12372772 -0.2675964 0.1936234 -0.046481945 -0.1525597 0.09553162 -0.04920322 0.20987664
-0.1753825 -0.07930349 -0.10279024 -0.22982559 -0.07781948 0.027158054 -0.088910595 -0.2835984
0.19672169 0.16848388 -0.19129248 -0.004080683 0.0691169 -0.24686947 0.026716739 -0.0412855
0.05602779 0.26976535 -0.05472302 0.26493812 -0.2773745 0.19089784 -0.037081625 0.19639
0.298239 0.09979242 0.2486811 -0.027425792 0.29806706 -0.19830197 0.0033119724 -0.103478216
-0.048816428 -0.13561407 -0.12028965 -0.30602926 -0.18132243 -0.07644911 0.18724345 0.09575775
0.0605981 -0.17845637 0.23721819 0.010436982 0.05481401 0.014405352 -0.0071434206 0.09756295
0.07734905 0.27399758 0.20011938 0.02802685 -0.2973629 0.25105613 0.24107264 -0.08179657
0.10299746 0.18697086 -0.043023303 0.2412779 0.023931293 -0.122506 -0.01141148 0.0031558587
0.19691397 -0.0068186494 0.02405256 0.2157319 0.11975217 0.026722306 0.12739177 -0.19033782
-0.315427 -0.116329074 0.2375479 0.13941017 0.15637907 0.323298 -0.09585103 -0.30276737
-0.11808671 -0.25130504 -0.26216215 0.12886034 -0.28037226 0.23860049 0.07410866 0.3061513
-0.042792488 0.086316176 0.19337472 0.12321256 -0.111129895 0.026359135 0.24457234 -0.21843126
0.015066713 -0.24764049 0.12587556 0.2509252 0.17851081 0.04268965 0.023631245 -0.21208394
0.13865304 0.28362212 0.010255009 -0.0094023645 0.04180032 -0.07281488 0.30571076 -0.12929693
0.071760654 0.031764418 0.1063894 0.097486615 -0.22754663 0.012319773 -0.23372886 0.13583702
-0.009389639 -0.018589139 -0.12337965 0.026105642 -0.110762 -0.030607939 -0.060618073 0.21822253
-0.28891274 -0.027307361 0.20343015 0.28832802 0.19624993 -0.1909146 -0.099269345 -0.23736298
0.06461069 -0.044312537 0.13528168 -0.12128246 0.0021870136 0.2727702 0.27046654 -0.13135408
0.28597304 -0.20122062 0.06149444 0.23073152 -0.07240634 -0.19807649 0.030729085 0.055458367
0.1270786 -0.26724285 -0.0068598986 0.0042101443 -0.03726986 -0.006673217 0.20310703 -0.26682973
-0.21132696 0.06817723 -0.26490974 0.17854267 0.25209832 -0.16378647 -0.25805026 0.15992118
-0.2655863 0.02693507 -0.12860565 -0.22049177 0.11915672 -0.00018459748 -0.15061429 -0.10388026
-0.31643334 0.24285457 -0.03836277 0.21048893 0.21186939 -0.14660475 0.086639374 0.047748387
-0.22863646 -0.19731809 -0.07151711 -0.39229536 -0.054106645 0.14890672 0.060938187 -0.29622337
00000000: 2300 123d 0d7e 773e 7a85 423e 1732 693e
00000010: f526 92bd bfa9 21be b119 473d c0be 2a3e
00000020: e3ab 6dbe 8553 193e 143e bc3d 5469 75be
00000030: 0640 163e ca53 573d 6144 f23d 7179 e03d
00000040: 9acf aebd 875c bdbd 54d7 823d 4f3a 59bc
00000050: a5a4 08be e915 173e 138d 663e 8066 763d
00000060: 04d7 53bd fe8b 653c f824 c8bd a49f 6d3b
00000070: 1bf3 963d de75 443d c0b8 893e 690d 3d3c
00000080: cb98 e03d d0ac 383e 4e31 793e a5fe 72bc
00000090: 3a27 693e 7eb9 8fbe 3af2 9a3d 69ec 6cbe
000000a0: 0352 5ebe b961 623e 02ed 543e 40fc 2bbd
000000b0: a78c 87bd b643 6bbd cbd8 9bbc d54e 7a3e
000000c0: 8fe7 213e c657 2f3e 5131 2ebe 4618 3cbe
000000d0: cb42 9a3d 0e16 473e dde9 91be f848 47be
000000e0: f564 fdbd 6502 89be 3645 463e da63 3ebd
000000f0: 9c38 1cbe 15a6 c33d 5189 49bd e7e9 563e
00000100: 7897 33be de69 a2bd b083 d2bd 6657 6bbe
00000110: d25f 9fbd 917a de3c c216 b6bd cf33 91be
00000120: 6971 493e 0a87 2c3e 2de2 43be 40b7 85bb
00000130: 298d 8d3d 5acb 7cbe 10dd da3c fc1a 29bd
00000140: 657d 653d af1e 8a3e 3f25 60bd f8a5 873e
00000150: 0804 8ebe b97a 433e e7e2 17bd 761a 493e
00000160: c8b2 983e f85f cc3d 42a6 7e3e 0eac e0bc
00000170: 3f9c 983e ac0f 4bbe ad0d 593b 63ec d3bd
00000180: bcf3 47bd 6ade 0abe 6c5a f6bd deaf 9cbe
00000190: 96ac 39be 5a91 9cbd bfbc 3f3e a41c c43d
000001a0: b735 783d 44bd 36be 53e9 723e e0ff 2a3c
000001b0: a884 603d 6d04 6c3c 5b13 eabb 15cf c73d
000001c0: 2e69 9e3d 6949 8c3e 18ec 4c3e 9198 e53c
000001d0: f33f 98be 6e8a 803e bfdb 763e f684 a7bd
000001e0: 55f0 d23d 4a75 3f3e 3439 30bd 8e11 773e
000001f0: 8f0b c43c 6de4 fabd 37f7 3abc 86d2 4e3b
00000200: d1a3 493e fa6e dfbb e009 c53c d3e8 5c3e
00000210: a040 f53d bde8 da3c fd72 023e ebe7 42be
00000220: a67f a1be f03d eebd c23f 733e 8ac1 0e3e
00000230: d621 203e 5187 a53e 8b4d c4bd 5304 9bbe
00000240: 72d7 f1bd 0eab 80be 1e3a 86be f7f3 033e
00000250: f48c 8fbe b053 743e 48c6 973d ddbf 9c3e
00000260: 2d47 2fbd 89c6 b03d 0604 463e de56 fc3d
00000270: 1298 e3bd 1def d73c 2c71 7a3e 72ac 5fbe
00000280: 60da 763c 7895 7dbe 86e5 003e 4579 803e
00000290: 8acb 363e 58db 2e3d 5096 c13c 882c 59be
000002a0: 10fb 0d3e eb36 913e a004 283c 600c 1abc
000002b0: d036 2b3d f81f 95bd 1f86 9c3e 6a66 04be
000002c0: 40f7 923d 681b 023d b0e2 d93d 10a7 c73d
000002d0: fc01 69be e0d8 493c 9e56 6fbe dc18 0b3e
000002e0: 00d7 19bc 4048 98bc 78ae fcbd 80db d53c
000002f0: 30d7 e2bd 80bd fabc a84a 78bd ba75 5f3e
00000300: 5fec 93be b0b3 dfbc fe4f 503e bb9f 933e
00000310: bef5 483e 1e7f 43be ba4d cbbd 480f 73be
00000320: 9c52 843d 1081 35bd 4887 0a3e f062 f8bd
00000330: 0054 0f3b 89a8 8b3e 977a 8a3e af81 06be
00000340: 0f6b 923e c70c 4ebe 98e1 7b3d e244 6c3e
00000350: c649 94bd 90d4 4abe 90bb fb3c 5028 633d
00000360: e420 023e 0ed4 88be 00c9 e0bb 40f5 893b
00000370: 48a8 18bd 00ab dabb 4afb 4f3e e89d 88be
00000380: 1866 58be 81a0 8b3d 40a2 87be e4d3 363e
00000390: 0813 813e a4b7 27be 2a1f 84be 61c2 233e
000003a0: edfa 87be f0a6 dc3c 33b1 03be 98c8 61be
000003b0: 7008 f43d 8290 41b9 a23a 1abe 2cbf d4bd
000003c0: 8d03 a2be deae 783e 4822 1dbd 698a 573e
000003d0: 4af4 583e 8e1f 16be fc6f b13d d093 433d
000003e0: ad1f 6abe c10d 4abe 9077 92bd f0da c8be
000003f0: ee9e 5dbd 017b 183e 529a 793d 97aa 97be

mlp.8.bias f4 [32]
0.1722391 -0.17930344 0.12394667 0.17159444 0.07669659 -0.10325721 -0.0532573 0.09772618
0.09342663 -0.06303703 -0.026964031 0.011303682 0.09147909 -0.05971115 0.14416559 -0.09374875
0.0080376435 -0.14638484 0.13840015 -0.090652324 0.010548964 -0.18455057 0.11789491 -0.05641477
-0.12336315 0.15070973 -0.17145361 -0.05718042 -0.09335936 0.10827593 0.059731882 -0.061186
00000000: 725f 303e 529b 37be c0d7 fd3d 74b6 2f3e
00000010: 1a13 9d3d 8478 d3bd 5424 5abd aa24 c83d
00000020: 7656 bf3d 8f19 81bd ace3 dcbc 1433 393c
00000030: 6459 bb3d ae93 74bd 25a0 133e 58ff bfbd
00000040: 52b0 033c e8e5 15be c5b8 0d3e eda7 b9bd
00000050: 90d5 2c3c d3fa 3cbe e372 f13d 2d13 67bd
00000060: d2a5 fcbd a753 1a3e 8991 2fbe 0436 6abd
00000070: 3133 bfbd c5bf dd3d 6ba9 743d 2c9e 7abd

mlp.10.weight f4 [4, 32]
-0.40624616 -0.040307675 0.124503866 0.124059886 0.2079566 -0.10589829 -0.3781777 -0.35095012
0.17132692 -0.1606214 0.12305985 -0.31973317 0.08031521 0.23759271 -0.33554634 0.36534882
0.24029726 -0.10607341 0.13291818 0.100246966 0.038204424 0.18376127 -0.0030395437 0.33070424
-0.34506872 -0.22933483 -0.06757209 -0.22354122 0.39473993 -0.13525304 -0.069514826 -0.010714265
-0.18429446 0.17317411 -0.034164652 -0.08718668 0.011791672 -0.2731021 -0.05139512 -0.3412885
-0.0913832 0.36834896 0.26395512 0.25411367 0.08185362 -0.023618124 0.11955529 0.1795941
0.21421146 -0.38574952 0.10687509 -0.25615796 -0.2339776 0.24120696 0.15748654 -0.2270228
-0.30438462 -0.21632366 -0.40088105 -0.19404526 0.21078241 -0.31928274 0.22025299 0.02504213
0.33584645 0.17969637 0.3847788 -0.19004665 -0.2588316 -0.19746827 -0.25252306 0.41638887
0.11446341 -0.0753452 0.0021799775 0.02429709 -0.21168849 0.19005589 0.0051667807 0.033994913
0.12387457 0.28226238 -0.03271841 0.16886866 0.24098362 -0.33966494 0.1649759 -0.06035862
0.049152672 -0.10358043 -0.12821174 0.1749 -0.13572586 0.38111207 -0.3474424 0.24706204
0.032074444 -0.101543896 0.27266064 -0.3437605 0.19650094 -0.09812677 0.33151728 0.2987326
-0.38511893 0.047579106 -0.08007687 0.27374128 -0.3107233 0.17964493 0.28500074 -0.24018766
-0.24815594 0.114574075 0.17252608 -0.3777983 -0.122195646 -0.08581579 0.24919799 0.115438156
0.16300374 -0.27311972 -0.17807212 -0.18831109 -0.104794085 0.23072554 -0.32910424 -0.15409109
00000000: 7fff cfbe a919 25bd e2fb fe3d 1c13 fe3d
00000010: 93f2 543e 34e1 d8bd 82a0 c1be bcaf b3be
00000020: 5370 2f3e f079 24be cd06 fc3d 11b4 a3be
00000030: 4d7c a43d 814b 733e bbcc abbe 000f bb3e
00000040: 7c10 763e 043d d9bd b41b 083e 484e cd3d
00000050: 3e7c 1c3d ea2b 3c3e 1533 47bb 1152 a93e
00000060: d9ac b0be c0d6 6abe 3c63 8abd fde7 64be
00000070: 5a1b ca3e c67f 0abe ca5d 8ebd e28a 2fbc
00000080: b0b7 3cbe 8e54 313e 3cf0 0bbd ee8e b2bd
00000090: db31 413c 0ad4 8bbe b083 52bd 5ebd aebe
000000a0: 1d27 bbbd 3c98 bc3e 2025 873e 301b 823e
000000b0: dfa2 a73d cc7a c1bc 67d9 f43d 84e7 373e
000000c0: 405a 5b3e f680 c5be 54e1 da3d 2327 83be
000000d0: d397 6fbe f5fe 763e 2744 213e aa78 68be
000000e0: 4dd8 9bbe f383 5dbe 4840 cdbe cdb3 46be
000000f0: 58d7 573e 0779 a3be 008a 613e 2725 cd3c
00000100: 11f4 ab3e 5302 383e ba01 c53e 979b 42be
00000110: 9385 84be 1f35 4abe b44a 81be ec30 d53e
00000120: cb6b ea3d 964e 9abd f4dd 0e3b b10a c73c
00000130: dec4 58be 039e 423e 194e a93b 403e 0b3d
00000140: f3b1 fd3d b284 903e bd03 06bd e8eb 2c3e
00000150: 69c4 763e 90e8 adbe 71ef 283e 9a3a 77bd
00000160: 5054 493d fa21 d4bd f049 03be fc18 333e
00000170: b8fb 0abe 1f21 c33e f8e3 b1be d5fd 7c3e
00000180: 7e60 033d 3ff6 cfbd 2d9a 8b3e 6001 b0be
00000190: 8b37 493e b0f6 c8bd a2bc a93e 7bf3 983e
000001a0: 4f2e c5be 4fe2 423d 58ff a3bd d127 8c3e
000001b0: 2017 9fbe d7f4 373e 9eeb 913e c1f3 75be
000001c0: 971c 7ebe d0a5 ea3d adaa 303e c76e c1be
000001d0: b641 fabd 30c0 afbd c22d 7f3e d76a ec3d
000001e0: 74ea 263e 59d6 8bbe 8a58 36be 9fd4 40be
000001f0: 489e d6bd 5143 6c3e 5a80 a8be 0eca 1dbe

mlp.10.bias f4 [4]
0.06905271 0.11558644 -0.088271104 0.12838297
00000000: 826b 8d3d 95b8 ec3d 7bc7 b4bd d376 033e
