tmp_result/dqn.pt (torch, 140623 bytes, 8 tensors)

mlp.0.weight f4 [128, 7]
0	0xbd64286d	-0.055702616
1	0xbe1ae529	-0.1512648
2	0xbe2d7140	-0.16937733
3	0xbd0d4f1e	-0.03449928
4	0x3cbf4236	0.023347002
5	0x3d9ed527	0.07755499
6	0xbde15d75	-0.11004154
7	0xbe4a943e	-0.19783112
8	0x3e489baf	0.19590639
9	0xbdbab1fb	-0.09115978
10	0x3db1a07e	0.086731896
11	0x3e0aba75	0.1354769
12	0x3aa68a00	0.0012705922
13	0x3dadb666	0.08482055
14	0xbd9e508e	-0.07730208
15	0xbda0f09a	-0.07858391
16	0x3b21f480	0.0024712384
17	0xbdb49a66	-0.08818512
18	0xbc954c90	-0.018224984
19	0x3e572811	0.21011378
20	0xbdd1517b	-0.10220619
21	0xbe0c058a	-0.13673988
22	0x3e339454	0.17537051
23	0xbdaf17f6	-0.08549492
24	0xbdfaf7b9	-0.122542806
25	0x3da79908	0.08183485
26	0xbe2a9a19	-0.16660346
27	0x3e8e42d6	0.27785367
28	0xbd03ee3c	-0.03220962
29	0xbd9b8727	-0.07594138
30	0xbdc86c55	-0.09786288
31	0x3e4e6a7f	0.20157813
32	0x3dbc3848	0.09190422
33	0xbcd0baca	-0.025479693
34	0x3bae7ba1	0.0053247963
35	0xbe3f5ad5	-0.18686993
36	0xbda1c294	-0.07898441
37	0x3cca63c0	0.024705768
38	0xbd96353e	-0.07334374
39	0x3d425514	0.047444418
40	0x3df4394a	0.119249895
41	0x3dc7d16a	0.097567394
42	0xbe28bf8a	-0.16479316
43	0xbd8209cc	-0.06349525
44	0xbe0049c8	-0.12528145
45	0x3e3f2489	0.18666281
46	0xbe2f55c2	-0.17122558
47	0x3da8dcc2	0.08245231
48	0x3e38f897	0.1806358
49	0xbdc367cb	-0.09541281
50	0xbd7ca598	-0.06168136
51	0xbce3fed8	-0.02783148
52	0xbd6111d0	-0.054948628
53	0xbe2d354a	-0.1691486
54	0x3c762660	0.015023798
55	0xbe4970eb	-0.19671981
56	0x3cae21e8	0.021256402
57	0xbe408fb6	-0.18804821
58	0x3dadf246	0.084934756
59	0xbe00c75e	-0.12576053
60	0x3e07e293	0.13270025
61	0xbd2b9690	-0.041891634
62	0xbcb70030	-0.022338957
63	0x3e67a1b2	0.22620276
64	0xbd29e819	-0.04148111
65	0xbd94b069	-0.0726021
66	0xbd101d12	-0.035183974
67	0x3da90cee	0.08254419
68	0xbe2ed765	-0.17074354
69	0x3cd22e67	0.025656892
70	0xbe31444a	-0.17311206
71	0x3e521704	0.20516592
72	0x3e0518c7	0.12997733
73	0xbc61a8b4	-0.013773132
74	0xbd42763d	-0.047476042
75	0x3d9edd9a	0.07757111
76	0xbcc3c4cd	-0.023897553
77	0x3d941d4b	0.0723215
78	0xbc686f7d	-0.014186737
79	0x3e34b6ac	0.17647809
80	0xbd107a45	-0.035272855
81	0xbe381d37	-0.17979895
82	0xbe195bf7	-0.14976488
83	0x3e6e5adc	0.23276848
84	0x3d5b904c	0.05360441
85	0xbe0fcd58	-0.14043176
86	0x3d94a346	0.072577044
87	0xbe279080	-0.16363716
88	0x3e353c81	0.17698862
89	0x3e4a32c5	0.1974593
90	0xbe3da943	-0.185216
91	0x3e3af3d9	0.18257083
92	0xbe0ecf87	-0.13946353
93	0xbdc865d1	-0.09785045
94	0x3cd3f8d8	0.025875494
95	0xbc1637c0	-0.009168565
96	0x3d6610ac	0.056168243
97	0xbc88acc0	-0.016683936
98	0xbe6fa5d6	-0.23403105
99	0x3e25dd96	0.1619781
100	0x3e128d6a	0.14311758
101	0xbe10a3a6	-0.14124927
102	0xbe1c6d8c	-0.15276164
103	0xbd00b302	-0.031420715
104	0x3e48db3b	0.1961488
105	0xbd502301	-0.050814632
106	0x3e2d56fd	0.16927715
107	0x3c9b02fc	0.018922321
108	0xbda224b3	-0.07917156
109	0x3de073cf	0.10959589
110	0x3e318108	0.17334378
111	0x3dbb57c7	0.091476016
112	0xbc41371f	-0.011792927
113	0x3e2b0b7a	0.16703597
114	0x3e26625f	0.16248463
115	0x3cdc477e	0.026889559
116	0xbe711729	-0.23543991
117	0xbe8933fe	-0.2679748
118	0x3c901f51	0.017593058
119	0xbe87240f	-0.26394698
120	0xbc02400a	-0.007949838
121	0xbdf239f0	-0.11827457
122	0x3d295dd1	0.041349236
123	0x3de7751b	0.11301633
124	0xbdb1f6d3	-0.08689656
125	0xbe575ccb	-0.21031491
126	0x3dd9eb70	0.10640609
127	0x3c9d921b	0.019234708
128	0x3e32428c	0.17408198
129	0x3a624b18	0.00086324057
130	0x3d8fdce9	0.07024557
131	0x3d9f2bce	0.07772027
132	0x3e5f921c	0.2183308
133	0xbe5f021f	-0.21778153
134	0x3d636483	0.055515777
135	0xbd2931f0	-0.04130739
136	0xbdbd370d	-0.09239016
137	0x3dd0856e	0.101817
138	0x3e8a7379	0.27041224
139	0x3e7a160a	0.2442247
140	0xbd826e98	-0.0636875
141	0x3decf484	0.11570075
142	0x3b8fdab3	0.0043900847
143	0x3e798a7e	0.24369237
144	0xbe912bb3	-0.28353652
145	0xbdcb4af2	-0.09926404
146	0x3e7be461	0.24598838
147	0x3d99b976	0.07506077
148	0x3e371136	0.17877659
149	0x3d0f9e89	0.0350633
150	0xbdf7b658	-0.12095326
151	0x3ddac23a	0.10681577
152	0xbe1bf1ce	-0.1522896
153	0xbf29f918	-0.6639571
154	0xbda51a84	-0.08061698
155	0x3d4a2164	0.04934825
156	0xbb0935c0	-0.0020936579
157	0x3dfa9c8e	0.12236892
158	0x3c8c4800	0.017124176
159	0xbdf01a0c	-0.11723718
160	0x3e0bb297	0.13642345
161	0xbe280052	-0.16406372
162	0xbe2532ea	-0.16132703
163	0xbde5eed9	-0.11227197
164	0x3e37c5af	0.17946504
165	0x3e3dc4d3	0.18532114
166	0x3cc6d520	0.024271548
167	0x3d0be690	0.03415543
168	0xbe10d824	-0.14144951
169	0x3e03db4b	0.12876622
170	0xbd3adbc0	-0.045619726
171	0x3dcea00c	0.1008912
172	0xbe0919eb	-0.13388793
173	0x3e782d58	0.24236047
174	0xbdaf0f2b	-0.08547815
175	0x3e1c9449	0.15290941
176	0x3df08c6d	0.11745534
177	0xbd9deeab	-0.07711538
178	0xbda4ecf2	-0.08053006
179	0xbba6ddcf	-0.0050923596
180	0x3e6cd84b	0.23129384
181	0xbcf4123c	-0.029793851
182	0xbdb2f24c	-0.08737621
183	0xbd7a23f0	-0.06106943
184	0xbc53bef0	-0.012923941
185	0x3d2850c4	0.04109265
186	0x3e2d66d7	0.16933762
187	0xbd32495c	-0.043526992
188	0x3e1dd22f	0.1541221
189	0x3e4a1695	0.19735177
190	0xbdfa1abd	-0.12212131
191	0xbe45871c	-0.19289821
192	0xbdf2d530	-0.118570685
193	0x3e846644	0.25859272
194	0x3e52db55	0.20591481
195	0x3e0295b8	0.12752426
196	0x3e37dd80	0.1795559
197	0x3cbe93d9	0.023263859
198	0x3e82a1dd	0.25514117
199	0xbe0931e6	-0.13397941
200	0xbe8993cb	-0.2687057
201	0xbe7781df	-0.24170636
202	0x3cc3824e	0.023865845
203	0xbe14a77e	-0.14517018
204	0x3de9901f	0.11404442
205	0x3e258386	0.16163453
206	0x3e2249b3	0.15848427
207	0xbd008ae4	-0.031382456
208	0xbcf5e374	-0.030015685
209	0x3e1bbed6	0.15209517
210	0xbc80e063	-0.015731996
211	0x3b7e8646	0.0038837357
212	0x3cde8e5c	0.027167492
213	0x3d0bd1b9	0.034135554
214	0x3e16fa98	0.14744031
215	0x3e716602	0.23574069
216	0xbdb67d4d	-0.08910618
217	0xbddf8080	-0.10913181
218	0x3e09cc55	0.13456853
219	0xbdb75a7b	-0.08952805
220	0xbe196ac7	-0.14982139
221	0x3e558d4b	0.2085468
222	0x3e2acf8d	0.16680737
223	0xbd18cec4	-0.037306562
224	0x3d57748c	0.052601382
225	0x3df6a5c6	0.120433375
226	0x3e1d8be9	0.15385403
227	0xbe41c350	-0.18922162
228	0xbe467aff	-0.19382857
229	0xbe0c539a	-0.13703766
230	0x3e14bb69	0.14524616
231	0x3d4ef4f9	0.050526593
232	0x3cf3b023	0.029747074
233	0xbd808cfc	-0.06276891
234	0x3db1c675	0.08680431
235	0xbd9c82d4	-0.07642141
236	0x3e870aca	0.2637542
237	0x3b686185	0.0035458517
238	0xbd4267b8	-0.047462195
239	0x3d83d8f8	0.06437868
240	0x3e39ffba	0.18163958
241	0x3e462979	0.19351758
242	0x3e04cc04	0.12968451
243	0xbd1f2f72	-0.038863607
244	0xbdaec023	-0.08532741
245	0xbe11c612	-0.14235714
246	0x3c8e2560	0.017351806
247	0xbdd6e557	-0.10492962
248	0xbe568e8b	-0.20952813
249	0x3e2386ff	0.15969466
250	0x3d6d7984	0.057977214
251	0xbcf7b5b0	-0.030238003
252	0x3d85f830	0.06541479
253	0x3ddc5c9a	0.1075985
254	0x3e2a7755	0.16647084
255	0x3e455db2	0.19274023

mlp.0.bias f4 [128]
0	0x3e85f9b9	0.26167086
1	0xbe448fe9	-0.19195522
2	0xbe642404	-0.22279364
3	0x3e191930	0.14951015
4	0x3eafccdb	0.3433598
5	0xbe56ea78	-0.2098788
6	0xbe81a104	-0.25318158
7	0xbdb3f83c	-0.08787581
8	0xbdab2b50	-0.083578706
9	0xbb10f5b8	-0.0022119116
10	0x3e6612ff	0.22468184
11	0x3de3424d	0.1109663
12	0xbebbf655	-0.36711374
13	0xbe776f3e	-0.2416353
14	0x3eb7266c	0.357715
15	0x3eb12a84	0.3460275
16	0x3e353062	0.17694238
17	0x3e1057f8	0.14096057
18	0xbe03e7be	-0.12881371
19	0x3ea30b92	0.31844765
20	0x3e48389f	0.19552849
21	0x3cdaa172	0.026688311
22	0xbea21690	-0.3165784
23	0xbeb8fd39	-0.36130694
24	0x3eadabe8	0.33920217
25	0xbe86e1c9	-0.26344135
26	0xbeb74769	-0.3579667
27	0xbe5997a6	-0.21249256
28	0x3ca4ed35	0.02013264
29	0x3eadc3fa	0.3393858
30	0x3e1aca83	0.15116315
31	0xbe8e5fb0	-0.2780738
32	0xbe3a773f	-0.18209551
33	0x3e9a9595	0.30192247
34	0x3dd1362a	0.10215409
35	0xbde18400	-0.11011505
36	0xbe6b5c7e	-0.22984502
37	0xbeb58344	-0.3545171
38	0x3e0edfa5	0.13952501
39	0xbdee0e6c	-0.116238445
40	0x3e56974e	0.20956156
41	0x3ea70181	0.32618335
42	0xbd89d4d8	-0.0673005
43	0x3dc0a8a3	0.09407165
44	0x3e30aa58	0.17252481
45	0x3e9853cf	0.2975144
46	0x3e4a0cdf	0.19731472
47	0x3ce9709c	0.02849608
48	0xbd1d90aa	-0.03846804
49	0xbd78ef46	-0.060775064
50	0xbdd102a5	-0.102055825
51	0x3d9b7e97	0.075925045
52	0xbe826c44	-0.25473225
53	0xbdbe83cc	-0.09302482
54	0x3e99bf19	0.30028608
55	0x3e9a462d	0.30131665
56	0x3dad37c2	0.084579006
57	0xbe28b34b	-0.16474645
58	0x3ecf3bc1	0.40475276
59	0xbebbbe04	-0.36668408
60	0x3e099f1c	0.13439602
61	0xbebb2069	-0.36548164
62	0xbeb554df	-0.35416314
63	0x3e223e4c	0.15844077
64	0x3eb8cda2	0.36094385
65	0x3e62c8a6	0.22146854
66	0x3c57972c	0.013158601
67	0x3eaa25f8	0.33232093
68	0x3e54314f	0.20721935
69	0xbe943426	-0.28946036
70	0xbd927a93	-0.071522854
71	0xbd96c714	-0.0736219
72	0x3d876dd0	0.06612742
73	0x3d9cf933	0.076647185
74	0x3ebedcc7	0.37277815
75	0x3c486416	0.012230894
76	0x3e884d6c	0.26621568
77	0xbbf29046	-0.0074024526
78	0x3c294380	0.010331035
79	0xbe333dd1	-0.1750405
80	0x3e18fb31	0.14939572
81	0x3d49b0c1	0.04924083
82	0xbe5f676c	-0.21816796
83	0xbe154891	-0.14578463
84	0x3e59662a	0.21230379
85	0x3ce95976	0.028485041
86	0xbebeb9bc	-0.3725108
87	0xbe9b66d8	-0.303519
88	0x3ecffafb	0.4062117
89	0xbe2428e4	-0.16031224
90	0xbeba4698	-0.36381984
91	0x3eb6b631	0.35685876
92	0x3e817a9b	0.25288853
93	0xbe584ebf	-0.21123789
94	0xbe6c0ea9	-0.23052467
95	0x3e9c1894	0.30487502
96	0xbe439126	-0.19098338
97	0x3e5f4ff1	0.21807839
98	0x3d88b04e	0.066742525
99	0x3dba0af3	0.0908412
100	0x3e2f739e	0.17133948
101	0xbe0a9c26	-0.13536128
102	0xbe83e37d	-0.25759497
103	0xbea4ef02	-0.32213598
104	0xbe9ec1e3	-0.310073
105	0xbc3b0760	-0.011415333
106	0x3e80085e	0.25006384
107	0xbe21abfc	-0.15788263
108	0x3e87c295	0.26515642
109	0x3e179bac	0.14805478
110	0x3ca3325f	0.01992148
111	0x3e8c83e3	0.27444372
112	0x3e8801d9	0.2656391
113	0x3e57777f	0.21041678
114	0x3be8c628	0.0071037
115	0xb9fe3b1e	-0.000484907
116	0x3da24579	0.07923407
117	0x3ea6301d	0.32458583
118	0x3e04d6ac	0.12972516
119	0x3e34fafb	0.17673866
120	0x3da0234b	0.078192316
121	0xbe9561be	-0.29176134
122	0x3e972d91	0.29526952
123	0xbe92a946	-0.2864477
124	0xbe71ab32	-0.23600462
125	0x3e6880fd	0.22705455
126	0x3eb0d0d7	0.34534332
127	0xbddd3df7	-0.108028345

mlp.2.weight f4 [128, 128]
0	0xbddf6418	-0.10907763
1	0xbde05d57	-0.10955303
2	0x3d136634	0.03598614
3	0xbdcb64f3	-0.09931364
4	0xbe146652	-0.14492157
5	0x3e08a949	0.13345827
6	0x3d7cce20	0.061720014
7	0x3b887300	0.0041640997
8	0x3d85f7c4	0.06541398
9	0xbcc99518	-0.024607226
10	0xbdc0fa3e	-0.0942273
11	0x3e07405e	0.13208148
12	0xbdff9179	-0.124789186
13	0x37a0a000	1.9147992e-05
14	0xbe17910f	-0.14801429
15	0xbd687209	-0.056749377
16	0xbb566c91	-0.003271852
17	0x3dd93c4e	0.10607205
18	0x3db03a04	0.086048156
19	0xbdff13fa	-0.12454982
20	0x3c278d59	0.010226571
21	0x3db52f70	0.088469386
22	0xbcc2f5b8	-0.023798808
23	0xbd13309e	-0.035935037
24	0x3d069f4b	0.032866757
25	0x3dbb39f6	0.091419145
26	0xbe0f796a	-0.1401116
27	0x3e048a41	0.12943365
28	0xbd68f8bf	-0.056877848
29	0x3e154cab	0.14580028
30	0x3e147708	0.14498532
31	0x3dafc36c	0.08582196
32	0x3d80ac96	0.06282918
33	0x3c48eaf0	0.012263045
34	0xbd36d8ee	-0.044640474
35	0x3d5f5590	0.054524958
36	0xbe08f902	-0.13376239
37	0xbd377322	-0.044787534
38	0x3ddf65af	0.109080665
39	0xbcb96b90	-0.022634298
40	0xbda58ae7	-0.08083134
41	0x3d2ddc38	0.042446345
42	0xbe01f75d	-0.12692018
43	0xbdefb0d2	-0.11703648
44	0x3e011540	0.12605762
45	0x3cb8da14	0.022564925
46	0x3b35e688	0.0027755816
47	0x3c6b25b3	0.01435225
48	0x3cdbd91e	0.026836928
49	0x3ba3c115	0.0049973824
50	0x3d71af24	0.059004918
51	0x3df6f766	0.12058906
52	0x3e10f769	0.1415688
53	0x3c77f11a	0.015133167
54	0x3d198c93	0.037487578
55	0xbd7df183	-0.0619979
56	0x3d9c765b	0.07639762
57	0x3dac4b9c	0.08412859
58	0x3df63de2	0.12023522
59	0x3da3d0fa	0.079988435
60	0xbd5ab061	-0.053390864
61	0x3dba9ec6	0.09112315
62	0x3cec20f8	0.028824314
63	0x3d5e3514	0.054249838
64	0x3dad1bf7	0.084525995
65	0xbd72c4f0	-0.059269845
66	0x3c50f416	0.012753507
67	0x3cfcec1b	0.030874303
68	0xbe14213b	-0.14465801
69	0xbd22bbc2	-0.03972984
70	0xbc8f44f0	-0.017488927
71	0x3db1def4	0.08685103
72	0xbdfd73f1	-0.1237563
73	0x3e0d2ec8	0.13787377
74	0x3dbfefa9	0.093718834
75	0x3db782c1	0.08960486
76	0xbd48f052	-0.049057312
77	0x3d7e0c94	0.062023714
78	0xbd9f92c4	-0.07791665
79	0x3cccf0ec	0.025017224
80	0x3be7740f	0.007063396
81	0xbd619d09	-0.0550814
82	0xbce25e90	-0.027632982
83	0xbbe50ec0	-0.0069902837
84	0x3e191423	0.14949088
85	0x3ce7c040	0.028289914
86	0xbdb64196	-0.08899228
87	0xbd90abc7	-0.07064014
88	0xbe054071	-0.13012864
89	0x3e0d5e61	0.13805534
90	0x3dd55052	0.104157105
91	0x3c840898	0.01611738
92	0xbdf37a24	-0.11888531
93	0x3dc2e2cc	0.09515914
94	0x3d306dac	0.04307334
95	0xbd9c5ddf	-0.07635092
96	0xbd9c5663	-0.076336645
97	0xbe09ac51	-0.1344464
98	0xbdf9ff59	-0.12206907
99	0x3dcff034	0.10153237
100	0x3d9f41cc	0.07776222
101	0x3de97102	0.11398508
102	0xbd7544da	-0.059880115
103	0xbdf0c3b0	-0.117560744
104	0xbde5a2b4	-0.11212674
105	0x3df6fb3e	0.120596394
106	0xbddf4e3f	-0.10903596
107	0x3dcdcb8a	0.100485876
108	0x3b64a38b	0.0034887518
109	0xb9852e47	-0.00025402216
110	0x3d95114a	0.07278688
111	0xbd8d563e	-0.06901215
112	0xbdf9cf37	-0.12197726
113	0x3e0ffdfa	0.14061728
114	0xbe1d27a7	-0.15347157
115	0x3d8d1122	0.068880334
116	0xbd1ccb1a	-0.03827963
117	0xbc8d6e99	-0.017264651
118	0xbdebed1e	-0.11519836
119	0xbd720104	-0.059083
120	0xbe052f79	-0.1300639
121	0x3ddbf0f2	0.10739316
122	0xbd8f8863	-0.070084356
123	0x3da8d2b8	0.082433164
124	0xbd0b41ea	-0.033998407
125	0xbe17894e	-0.14798471
126	0x3c489dda	0.012244666
127	0x3c3a3c2c	0.011366885
128	0x3bf0d583	0.0073496713
129	0x3e1abd77	0.15111338
130	0x3ca035d0	0.01955691
131	0x3e71c16a	0.23608938
132	0xbe0c81f8	-0.13721454
133	0x3d951ba8	0.07280666
134	0xbe0777fc	-0.13229364
135	0xbd5db5be	-0.0541284
136	0x3d86a542	0.06574489
137	0xbe14f64c	-0.1454708
138	0xbdce0fdd	-0.100616194
139	0x3d466419	0.048435304
140	0xbd9d6c6f	-0.07686698
141	0x3de98ee2	0.11404206
142	0x3e34199c	0.17587894
143	0xbd894486	-0.06702523
144	0xbe8e9127	-0.27845117
145	0x3e0fdfc9	0.14050211
146	0xbdce9494	-0.10086933
147	0x3d9a6987	0.07539659
148	0x3e08cfb0	0.13360476
149	0xbc295cbd	-0.010337052
150	0x3d987174	0.074435145
151	0xbda66123	-0.08123996
152	0x3d8a8af2	0.06764783
153	0xbe2828cc	-0.16421813
154	0xbcfc1e4c	-0.030776165
155	0x3db7e8c7	0.08979946
156	0xbecdbad6	-0.40181607
157	0x3d5e25d7	0.054235306
158	0x3c3eba57	0.011641107
159	0x3e0cd199	0.1375183
160	0x3df71d66	0.12066154
161	0xbd0d2082	-0.03445483
162	0xbe031bc5	-0.12803562
163	0x3e1bf8cb	0.15231626
164	0xbe73fd6d	-0.23827143
165	0x3de5ff46	0.1123033
166	0x3e3df99a	0.18552247
167	0xbdee9374	-0.11649218
168	0xbc07f07c	-0.008297082
169	0xbd9a13fc	-0.07523343
170	0xbd7d1cc2	-0.061795004
171	0x3b83c007	0.004020694
172	0xbd630aeb	-0.055430334
173	0xbe1d5152	-0.15363052
174	0x3e2a0e2c	0.16606969
175	0x3df89f3f	0.12139749
176	0x3d2ef60d	0.04271512
177	0x3e02c0e1	0.1276889
178	0xbd26410f	-0.04058939
179	0xbe363705	-0.17794426
180	0xbcb099f8	-0.021557793
181	0x3d575687	0.052572753
182	0x3d935ce2	0.0719545
183	0xbde70574	-0.11280337
184	0x3dd855a9	0.105632134
185	0x3d105ce0	0.035244823
186	0x3e00d7e6	0.12582359
187	0x3d93de9a	0.07220192
188	0x3d9553f5	0.07291404
189	0x3dbe05d6	0.09278457
190	0xbe063cd6	-0.13109145
191	0x3d537810	0.051628172
192	0x3e1e235d	0.15443178
193	0x3dfe3875	0.12413112
194	0x3da6bd01	0.081415184
195	0x3df5b0bb	0.11996599
196	0x3d0d5675	0.03450628
197	0xbdb52f9e	-0.08846973
198	0x3d5bfbb8	0.053706855
199	0x3d64f7b8	0.055900306
200	0x3e1c92d2	0.15290383
201	0x3d8f144c	0.06986293
202	0x3d2b76a4	0.04186119
203	0xbdeb9fee	-0.115051135
204	0xbd942da0	-0.07235265
205	0xbdaf9c0a	-0.08574684
206	0xbd44477a	-0.047919728
207	0xbde6f48e	-0.11277114
208	0x3df0c2ba	0.11755891
209	0x3d545ec8	0.051848203
210	0xbdfa6966	-0.122271344
211	0xbd989f1b	-0.07452222
212	0xbdd9dd9c	-0.10637972
213	0xbe9e3755	-0.3090159
214	0x3dc6f5de	0.09714864
215	0x3d661ae8	0.056178004
216	0xbde28e02	-0.11062242
217	0x3d886590	0.066599965
218	0x3de5b34a	0.11215837
219	0x3d4778d4	0.048699215
220	0x3e1ebe74	0.1550234
221	0x3ae25980	0.0017269105
222	0x3cb53340	0.022119164
223	0xbe212d6a	-0.1573998
224	0xbc0c5c30	-0.008566901
225	0x3d2b7e1a	0.041868307
226	0x3e2a4904	0.16629416
227	0x3d054267	0.03253403
228	0x3e64e161	0.223516
229	0x3dfec485	0.12439827
230	0xbecb869d	-0.3975114
231	0xbdc80eda	-0.09768458
232	0xbd14a55c	-0.03629051
233	0xbdc13d32	-0.094355
234	0xbe45e980	-0.19327354
235	0xbe08bf4c	-0.13354224
236	0xbd03a703	-0.032141697
237	0x3d5060ca	0.050873555
238	0x3e1a1e87	0.15050708
239	0xbdeca09c	-0.11554071
240	0x3debb47c	0.11509034
241	0xbb79b295	-0.0038100828
242	0xbccd32d4	-0.02504865
243	0xbde6804e	-0.11254941
244	0x3e1184c0	0.14210796
245	0xbd1ce422	-0.038303502
246	0x3b9bdbf4	0.004756445
247	0x3e84b671	0.25920442
248	0xbaba408b	-0.0014209909
249	0xbc98f418	-0.01867108
250	0xbd868ced	-0.06569848
251	0xbdae9e7e	-0.08526324
252	0x3c878ab8	0.016545638
253	0x3db07446	0.086159274
254	0x3c2c1cde	0.010504929
255	0x3e018d8e	0.12651655

mlp.2.bias f4 [128]
0	0x3d161c4c	0.03664808
1	0xbc869437	-0.016428096
2	0x3cb98dfb	0.02265071
3	0xbc9faff0	-0.019493073
4	0xbcab5010	-0.0209122
5	0xbd28cda9	-0.041211758
6	0x3dc03bde	0.09386419
7	0x3d7d0a6b	0.061777513
8	0x3d5d3486	0.05400517
9	0x3c24cac6	0.010058111
10	0xbd88b8fd	-0.06675909
11	0xbd607366	-0.054797553
12	0xbd26ef8e	-0.0407558
13	0xbd836c66	-0.0641716
14	0x3b4f0178	0.0031586569
15	0x3cfa8c0b	0.030584356
16	0xbc8925e8	-0.016741708
17	0xbd2e7d76	-0.042600118
18	0x3d3ee534	0.046605304
19	0x3dd6d06f	0.10488974
20	0xbd140897	-0.036141004
21	0x3c633dd8	0.013869725
22	0xbd9baecd	-0.076017
23	0x3da55846	0.080734774
24	0x3dc4d1e8	0.09610349
25	0x3da2a578	0.07941717
26	0xbd1849c8	-0.03717974
27	0xbd4dc6d6	-0.050238453
28	0x3d4036ff	0.04692745
29	0xbd441162	-0.04786814
30	0x3dc7eee0	0.09762359
31	0xbd984524	-0.074350625
32	0x3d89ce49	0.06728799
33	0x3db73ea7	0.08947497
34	0x3dcaeefd	0.09908865
35	0x3c942108	0.018082157
36	0xbd7455af	-0.059652027
37	0xbb67ea58	-0.0035387482
38	0xbd1b9eea	-0.03799335
39	0xbc6a70cc	-0.014309119
40	0x3d9425bf	0.07233762
41	0x3d77e752	0.06052334
42	0xbd5be0da	-0.053681232
43	0x3d9d0f31	0.07668913
44	0x3ceeee17	0.029166264
45	0xbd49b766	-0.049247168
46	0x3c84cd2c	0.016211115
47	0x3d673b26	0.056452893
48	0xbd993150	-0.07480109
49	0x3d989acf	0.074514024
50	0xbd6ab984	-0.057305828
51	0x3d64a4f7	0.055821385
52	0xbc918154	-0.017761864
53	0xbcbce39a	-0.023057748
54	0x3d9ba32e	0.075994834
55	0xbd4f5e8f	-0.050627287
56	0x3c43ba0f	0.011946215
57	0x3d443891	0.04790551
58	0x3cf34964	0.029698081
59	0xbd1ef93a	-0.0388119
60	0xbd92dc75	-0.07170955
61	0x3c5b7ebc	0.013396915
62	0x3d71f8ba	0.059075095
63	0xbcb2c7c4	-0.021823771
64	0x3d9f2e30	0.077724814
65	0x3cac42ac	0.021027885
66	0x3dc8f7f4	0.09812918
67	0xbd5c83ef	-0.05383676
68	0x3c44b55f	0.012006133
69	0x3dd0f7a7	0.10203486
70	0xbd4346f2	-0.04767508
71	0x3cf35186	0.02970196
72	0x3d56c93d	0.05243801
73	0x3cc89984	0.024487264
74	0xbd8a4300	-0.067510605
75	0x3d6198ad	0.055077244
76	0x3c49d502	0.012318851
77	0xbd1b4ea7	-0.037916806
78	0xbd2fa7d0	-0.042884648
79	0xbd7bef22	-0.06150735
80	0x3dd7a4a5	0.1052945
81	0xbd5efce7	-0.054440405
82	0xbd43b156	-0.047776543
83	0x3da3c832	0.079971686
84	0x3d8b4ec4	0.06802133
85	0x3ccd6215	0.025071183
86	0x3d033ae3	0.03203858
87	0x3d1a1d3f	0.037625547
88	0xbd74463a	-0.059637286
89	0x3d89a87d	0.0672159
90	0x3d8dde6d	0.0692719
91	0x3d413392	0.047168322
92	0x3db5b5d6	0.08872573
93	0xbd48e220	-0.049043775
94	0xbc9daea4	-0.019248314
95	0xbd5e7678	-0.0543122
96	0xbbff312d	-0.0077878446
97	0x3db1876c	0.08668408
98	0xbd7dce84	-0.061964527
99	0x3d3006be	0.04297518
100	0x3d59068e	0.052984767
101	0x3c8bf9f7	0.017086966
102	0xbd362f18	-0.044478506
103	0x3d09a725	0.033606667
104	0xbd6ecf30	-0.05830306
105	0xbd3e8a6d	-0.04651873
106	0x3c0e9c06	0.008704191
107	0xbc23ea59	-0.010004603
108	0x3d9a06ea	0.0752085
109	0x3da9a216	0.082828686
110	0x3cf92635	0.030413726
111	0x3ceb1a7f	0.028699158
112	0x3d89f65f	0.06736445
113	0xbd99cc66	-0.07509689
114	0xbcd9a980	-0.026570082
115	0x3c877980	0.016537428
116	0x3c829270	0.015938967
117	0x3919757d	0.00014634985
118	0x3dbf98e6	0.09355335
119	0x3b451968	0.0030074958
120	0xbd79c503	-0.0609789
121	0x3cbc8060	0.023010433
122	0x3de0e960	0.10982013
123	0x3cc7b118	0.024376437
124	0x3db23792	0.087020054
125	0xbd029799	-0.031882856
126	0x3d9f80cd	0.07788239
127	0x3c2fa586	0.010720616

mlp.4.weight f4 [128, 128]
0	0xbd0988a0	-0.03357756
1	0xbe093a82	-0.13401225
2	0xbc8f7e08	-0.017516151
3	0x3e1a87d5	0.15090878
4	0x3daef12a	0.08542092
5	0xbe04a494	-0.12953407
6	0xbde00de5	-0.1094015
7	0x3c011b80	0.007880092
8	0xbd8f42fd	-0.06995199
9	0x3c8ed058	0.01743333
10	0xbdbf2b44	-0.09334424
11	0x3da036f0	0.078229785
12	0x3dc5902e	0.09646641
13	0x3cc0f0a8	0.023552254
14	0x3e0096f7	0.12557589
15	0xbe1bbf8d	-0.1520979
16	0xbced7064	-0.028984256
17	0x3db37de2	0.087642446
18	0xbc1c85a0	-0.009553343
19	0xbe137ceb	-0.14403121
20	0x3d8db8ca	0.06920011
21	0xbe02553f	-0.12727831
22	0xbd6f9e28	-0.05850044
23	0x3e17573b	0.1477937
24	0xbe1ac1cf	-0.15112995
25	0x3d929440	0.07157183
26	0xbdf83747	-0.12119918
27	0x3d1dcd10	0.03852564
28	0x3e19bd47	0.1501361
29	0x3e11727d	0.1420383
30	0x3d72dad0	0.059290707
31	0x3e041715	0.1289943
32	0x3cede1b8	0.029038295
33	0x3c42d470	0.011891469
34	0x3d6e5170	0.058183134
35	0x3dc18706	0.09449582
36	0xbd073544	-0.033009782
37	0x3dde92da	0.108678535
38	0x3dcba92a	0.09944375
39	0xbd9ec64c	-0.07752666
40	0xbe12b3ab	-0.1432635
41	0x3d8c0a46	0.06837897
42	0x3dda77c6	0.10667376
43	0x3d1ebb20	0.038752675
44	0x3dd538fe	0.10411261
45	0x3e1269cb	0.1429817
46	0x3e142aeb	0.14469497
47	0x3dcfd156	0.101473495
48	0xbcf23dec	-0.029570542
49	0x3e163f25	0.14672525
50	0xbe07ee8a	-0.13274589
51	0xbd0f15c4	-0.034932867
52	0x3e15707d	0.14593692
53	0x3d33f264	0.043932334
54	0x3df874d2	0.12131657
55	0x3ddd2296	0.10797612
56	0xbe09593a	-0.13412943
57	0xbdff36c8	-0.124616206
58	0x3e072cc7	0.13200675
59	0xbdbd782a	-0.09251435
60	0x3dd4f65a	0.1039855
61	0x3c999a30	0.01875028
62	0xbd222a7e	-0.039591305
63	0xbd7519b0	-0.05983895
64	0xbc62abc0	-0.013834894
65	0xbd89d4fa	-0.06730075
66	0xbd7b9f8e	-0.06143146
67	0x3e0c9895	0.1373008
68	0xbda28137	-0.07934802
69	0xbe0bf92e	-0.13669273
70	0x3d05c120	0.03265488
71	0x3d72f9a8	0.059320122
72	0xbd96496e	-0.07338224
73	0xbcc3cda0	-0.02390176
74	0x3c920aa0	0.017827332
75	0xbe0e3735	-0.13888247
76	0xbdcf69fe	-0.10127638
77	0x3d8d8080	0.06909275
78	0xba4e7700	-0.0007876009
79	0xbcf0eb98	-0.029409215
80	0x3d627850	0.05529052
81	0x3d9a6f66	0.07540779
82	0xbe06a773	-0.13149814
83	0x3a74d900	0.0009340197
84	0xbdfa3bfc	-0.12218472
85	0xbd9154ae	-0.070962295
86	0x3e073371	0.13203217
87	0x3dc5ba8c	0.096547216
88	0xbcdc96a8	-0.026927307
89	0x3d1416e4	0.036154643
90	0x3bf8fa00	0.0075981617
91	0xbcebe054	-0.028793491
92	0x3d623364	0.05522479
93	0xbd7fd4d0	-0.062458813
94	0xbd319954	-0.043359116
95	0xbd96abb2	-0.07356967
96	0x3d0ac104	0.03387548
97	0x3dd22c86	0.102623984
98	0xbdc0f456	-0.094216034
99	0xbd8af08b	-0.06784161
100	0xbd5f2be6	-0.054485224
101	0xbe03b679	-0.12862577
102	0xbd90c286	-0.070683524
103	0x3db3e6a0	0.087842226
104	0x3e1407d1	0.14456107
105	0x3dd1caca	0.10243757
106	0xbd7ac75e	-0.061225288
107	0x3dd3edc2	0.10348083
108	0xbd5c3b34	-0.053767398
109	0x3d843542	0.064554706
110	0xbde5cd96	-0.11220853
111	0xbd92a0b3	-0.07159557
112	0xbbb03ac0	-0.0053780973
113	0xbc99dce8	-0.018782094
114	0x3de75bda	0.11296816
115	0xbc0717e0	-0.008245438
116	0xbd989771	-0.0745076
117	0x3dbf3272	0.093357936
118	0x3d167060	0.036728263
119	0x3cb7a3c8	0.022416964
120	0xbd2ac87c	-0.041695103
121	0xbde79e02	-0.113094345
122	0x3d10fbfc	0.03539656
123	0xbdf9df54	-0.122007996
124	0xbd550040	-0.05200219
125	0x3d8b8a12	0.06813444
126	0x3e01d8c3	0.12680344
127	0xbd3222d2	-0.04349024
128	0x3d738d34	0.059460834
129	0x3e05cdbb	0.13066761
130	0xbdeddcc4	-0.11614373
131	0xbbf9b960	-0.0076209754
132	0x3da27caa	0.07933934
133	0x3e183413	0.14863615
134	0x3cce6f08	0.025199428
135	0x3e0f4609	0.1399156
136	0xbd91a794	-0.07112041
137	0x3e03b281	0.12861063
138	0x3d5b7538	0.053578585
139	0xbd0fecd8	-0.03513798
140	0xbd56266a	-0.05228273
141	0xbd2c041a	-0.0419961
142	0xbdde59e5	-0.1085699
143	0xbdc1f0aa	-0.09469731
144	0xbd5129e8	-0.051065356
145	0xbb9130e0	-0.004430875
146	0xbdc45480	-0.095864296
147	0xbdc104f7	-0.09424775
148	0x3e12ce01	0.14336397
149	0x3d802ab4	0.06258145
150	0x3d3a3fcc	0.045470998
151	0xbe03f01f	-0.12884568
152	0x3ac76200	0.0015211701
153	0xbdfbabd2	-0.122886315
154	0xbbaf5760	-0.005350992
155	0x3d8b1d72	0.067927256
156	0x3d9c8010	0.076416135
157	0x3d3abfac	0.04559295
158	0xbe1b4d4d	-0.15166207
159	0x3dcbf52e	0.09958874
160	0x3e0f20e1	0.13977386
161	0x3df493fa	0.11942287
162	0x3d171c6c	0.03689234
163	0xbdd62933	-0.10457077
164	0x3d55d89c	0.052208528
165	0x3e147299	0.1449684
166	0xbdb1a063	-0.086731695
167	0xbd5b6692	-0.053564616
168	0xbd1f3f12	-0.038878508
169	0xbcfb0a44	-0.030644543
170	0xbe0235ea	-0.12715879
171	0x3dab0980	0.08351421
172	0x3d8cfe88	0.068844855
173	0xbdc6591a	-0.096849635
174	0xbe061242	-0.13092902
175	0xbe0c7472	-0.13716295
176	0x3c397650	0.011319712
177	0x38d37800	0.00010083616
178	0x3c866628	0.016406134
179	0xbd5ae08a	-0.053436793
180	0x3db3f322	0.08786608
181	0xbce5e540	-0.028063416
182	0x3ca8f700	0.020625591
183	0xbe061a6e	-0.1309602
184	0x3de3e226	0.11127119
185	0xbda52239	-0.08063168
186	0x3d50880c	0.050910994
187	0xbc1cace0	-0.009562701
188	0xbc392130	-0.011299416
189	0x3d87d1ea	0.06631835
190	0xbe03c610	-0.12868524
191	0xbdf3afb4	-0.11898747
192	0x3dc1f696	0.09470861
193	0xbc84c840	-0.016208768
194	0xbdbff1a3	-0.093722604
195	0xbde9eebc	-0.11422488
196	0xbd08888a	-0.03333334
197	0xbc98cf38	-0.018653497
198	0x3d9af51a	0.07566281
199	0xbdba7fe0	-0.091064215
200	0x3cb1fc88	0.021726862
201	0x3d14cee4	0.03633012
202	0xbd6a06fc	-0.057135567
203	0x3d8795a4	0.066203386
204	0x3d895288	0.06705195
205	0x3e058855	0.13040288
206	0xbdb79d25	-0.0896552
207	0x3da70c6c	0.08156666
208	0xbd3ca5ee	-0.04605668
209	0xbd3a5ca8	-0.04549852
210	0x3e124981	0.14285852
211	0x3c3a6280	0.011376023
212	0xbdf64456	-0.12024753
213	0xbdb6ac6f	-0.08919608
214	0x3d846f80	0.064665794
215	0x3df6f9c2	0.12059356
216	0xbdbd4901	-0.0924244
217	0x3da9e982	0.08296491
218	0xbdc75ecc	-0.09734878
219	0xbd9f2000	-0.077697754
220	0x3c184c20	0.009295493
221	0xbe0eadc7	-0.13933478
222	0xbd81034b	-0.06299456
223	0x3cf95590	0.030436307
224	0x3a879e80	0.0010346919
225	0xbd87db77	-0.066336565
226	0xbe145ee6	-0.14489326
227	0xbd2678e4	-0.040642634
228	0xbe09efc0	-0.13470364
229	0x3dbc840a	0.09204872
230	0x3d776704	0.060400978
231	0xbd9eccc9	-0.077539034
232	0xbcbecad0	-0.023290068
233	0x3df7fb0a	0.12108429
234	0xbca0a5b8	-0.01961027
235	0xbdb485db	-0.088145934
236	0xbd8ee1b2	-0.06976642
237	0xbd5d9fec	-0.05410759
238	0x3cfd04c0	0.030886054
239	0xbde697b6	-0.11259405
240	0x3e1cae77	0.15300928
241	0xbe13b0d3	-0.14422922
242	0xbdfce1a0	-0.12347722
243	0x3e03624d	0.12830468
244	0x3df18fba	0.11794992
245	0xbda6f490	-0.08152115
246	0xbd4ad13a	-0.04951594
247	0xbd812aad	-0.06306968
248	0x3d87a71c	0.066236705
249	0xbd221962	-0.03957499
250	0x3d0a535c	0.033770904
251	0xbe12b9cf	-0.14328693
252	0x3dc4abfe	0.096031174
253	0x3d876b10	0.066122174
254	0xbd1d59c8	-0.0384157
255	0x3d32bbb4	0.04363604

mlp.4.bias f4 [128]
0	0xbdae1277	-0.08499616
1	0x3d4799aa	0.04873053
2	0x3d91c823	0.07118251
3	0x3d317afb	0.043330174
4	0x399a8ee2	0.00029479625
5	0x3d873601	0.06602097
6	0xbc093a1d	-0.008375672
7	0xbd204db5	-0.039136607
8	0x3da88ccb	0.08229979
9	0x3d5d6a2b	0.054056328
10	0xbd2d46f1	-0.042303983
11	0xbd5be6ec	-0.05368702
12	0x3ceb87bd	0.028751248
13	0x3daaa4b3	0.08332195
14	0x3d05078b	0.032477897
15	0xbb754c61	-0.0037429559
16	0xbcafe32b	-0.021470627
17	0xbc85dbac	-0.0163401
18	0x3d09b0ab	0.03361575
19	0x3d57de31	0.052702133
20	0xbb855f24	-0.0040701795
21	0x3da24c30	0.07924688
22	0x3d8b6495	0.06806294
23	0xbd3df953	-0.046380352
24	0xbda1009e	-0.07861446
25	0x3d861189	0.06546313
26	0x3ce46404	0.027879722
27	0x3da46fb9	0.08029122
28	0xbcf94599	-0.030428695
29	0xbccaf090	-0.024772912
30	0x3d778ea8	0.060438782
31	0xbb87418f	-0.0041276882
32	0xbd08b58d	-0.033376265
33	0x3d46439a	0.048404314
34	0x3d74bec2	0.059752233
35	0x3cbffeb0	0.023436874
36	0xbd283d8c	-0.04107432
37	0x3df0d293	0.11758914
38	0xbd3a8430	-0.04553622
39	0x3c8dc448	0.017305508
40	0xbdb79312	-0.08963598
41	0xbd96a18c	-0.07355031
42	0xbd8e7034	-0.06954995
43	0x3da67809	0.08128364
44	0x3d715820	0.058921933
45	0xbd19a870	-0.03751415
46	0xbca4f5a2	-0.020136658
47	0x3d83560f	0.06412899
48	0xbd9aa668	-0.07551271
49	0x3d48aef4	0.048994973
50	0xbca9a6a8	-0.02070935
51	0xbd3fa0a0	-0.046784043
52	0x3da80f87	0.082060866
53	0x3c3c1181	0.011478783
54	0x3d61f22a	0.055162586
55	0x3c87c0b6	0.016571384
56	0xbd72b7f0	-0.059257448
57	0x3d8225b7	0.0635485
58	0xbd984b83	-0.07436278
59	0xbc524c5a	-0.012835586
60	0xbd2b3a89	-0.04180387
61	0x3db61485	0.088906325
62	0x3c55ab08	0.013041265
63	0x3d5bb4b9	0.053639147
64	0x3d978bc3	0.07399704
65	0x3db9c17b	0.090701066
66	0xbdb830a2	-0.08993651
67	0xbd04b158	-0.03239569
68	0x3d336ad4	0.04380305
69	0x3d644607	0.055730846
70	0xbd0a097e	-0.03370046
71	0x3cdbea84	0.026845224
72	0xbd0e133e	-0.03468632
73	0x3b41e0bd	0.0029583417
74	0x3a9dc60b	0.0012037171
75	0xbc74b4c8	-0.01493568
76	0x3d6e3687	0.05815747
77	0x3d00ea18	0.03147325
78	0x3deca6dd	0.11555264
79	0x3bdd16be	0.006747096
80	0x3c200d99	0.009768867
81	0x3dc68b14	0.09694496
82	0x3be6e016	0.007045756
83	0xbd7295c7	-0.05922487
84	0xbd8aa224	-0.06769207
85	0xbc2fadf8	-0.01072263
86	0xbd8af9a7	-0.06785899
87	0xbcd51102	-0.026009087
88	0xbd486cb8	-0.048931807
89	0xbc154d93	-0.009112733
90	0xbb82ca10	-0.003991373
91	0xbc4fb917	-0.012678406
92	0xbd618f9e	-0.055068605
93	0xbd3e763e	-0.046499483
94	0x3da1bdc8	0.07897526
95	0xbc40a42e	-0.0117578935
96	0xbd0a7447	-0.033802297
97	0x3d460d02	0.04835225
98	0xbd966f52	-0.073454514
99	0xbca7aa2b	-0.020466885
100	0xbce9d955	-0.028546015
101	0xbd632199	-0.055451963
102	0x3d903373	0.07041063
103	0xbd01cd31	-0.031689826
104	0x3ce6e4b7	0.028185232
105	0x3d786ea8	0.060652405
106	0xbdbe074e	-0.09278737
107	0xbcca8bc8	-0.024724856
108	0xbd174460	-0.03693044
109	0x3d9b56a5	0.075848855
110	0xbd950758	-0.07276791
111	0x3c04f6d0	0.008115485
112	0x3d9a83ce	0.07544671
113	0x3d30ce15	0.043165285
114	0x3d31de3d	0.043424834
115	0x3afb17a7	0.0019156829
116	0x3d720787	0.05908921
117	0x3d8d53f0	0.069007754
118	0x3c6d26bb	0.014474566
119	0x3d20799b	0.039178472
120	0x3d53df46	0.051726602
121	0xbda08975	-0.07838718
122	0xbc8ced4f	-0.017203001
123	0x3c42105f	0.0118447235
124	0xbd32dc73	-0.043667268
125	0x3dad7844	0.084702045
126	0xbcca0ef8	-0.02466534
127	0x3d7299f7	0.059228864

mlp.6.weight f4 [4, 128]
0	0xbcb39ed0	-0.021926314
1	0x3d433278	0.047655553
2	0xbe644d2d	-0.22295065
3	0x3d74df2e	0.059783153
4	0xbe112caa	-0.14177194
5	0x3d47973d	0.048728216
6	0x3e87c5f0	0.26518202
7	0xbbd34e3e	-0.006448536
8	0x3cbfb892	0.02340344
9	0x3ddc744e	0.10764371
10	0x3e42c874	0.1902178
11	0xbcb3b403	-0.021936422
12	0xbdadcec5	-0.08486704
13	0x3d958094	0.07299915
14	0x3dc5c9b0	0.096576095
15	0x3e2408a9	0.16018929
16	0x3ca5e789	0.020252006
17	0x3df40409	0.11914832
18	0xbe8ad31b	-0.27114186
19	0xbbcf2f09	-0.0063227457
20	0x3e4482f5	0.19190581
21	0xbe840079	-0.2578161
22	0x3d4ee332	0.05050964
23	0xbdbd0b78	-0.09230703
24	0x3df0b92c	0.11754069
25	0x3e595f90	0.2122786
26	0xbe1b93c6	-0.1519309
27	0xbe25fe1f	-0.16210221
28	0xbe365df8	-0.17809284
29	0x3e3a021d	0.18164869
30	0x3dd4a7d6	0.10383575
31	0xbe4a0ad3	-0.19730692
32	0xbe025db4	-0.12731057
33	0xbde120dc	-0.109925956
34	0xbe8bc614	-0.2729956
35	0x3da6bf23	0.08141925
36	0x3e35f3ae	0.17768738
37	0x3e7511ab	0.23932521
38	0xbe2cb60d	-0.16866322
39	0x3d010694	0.031500414
40	0x3e50596d	0.20346613
41	0xbd9007b3	-0.070327185
42	0xbe077f04	-0.13232046
43	0x3d5d6c01	0.05405808
44	0xbd9c197a	-0.07622047
45	0x3dcf2070	0.10113609
46	0xbe349601	-0.17635347
47	0x3da79fa4	0.08184746
48	0x3df5f7dc	0.12010166
49	0xbe102a7d	-0.14078708
50	0xbe49eb24	-0.19718605
51	0x3dc90174	0.0981473
52	0x3da4bca7	0.08043795
53	0xbe0c4e57	-0.1370176
54	0xbc02b0d0	-0.007976726
55	0xbe14bd11	-0.14525248
56	0x3e028cb8	0.12748992
57	0x3dd37fac	0.10327086
58	0x3e071540	0.131917
59	0x3e498cb8	0.19682586
60	0x3e872f4b	0.2640327
61	0xbe810e80	-0.25206375
62	0x3e6a5a3d	0.22885986
63	0xbe1dbe84	-0.15404707
64	0xbdd64345	-0.104620494
65	0xbe304880	-0.17215157
66	0x3ddaaf4a	0.10677965
67	0xbd8bc828	-0.06825286
68	0x3d388af7	0.045054402
69	0x3e0c6273	0.1370943
70	0x3e8a182a	0.2697156
71	0xbe09a85a	-0.13443127
72	0x39220855	0.00015452628
73	0xbebbd300	-0.36684418
74	0x3dfade04	0.12249377
75	0xbe41b41f	-0.18916367
76	0xbe56dc68	-0.20982516
77	0xbe95c60d	-0.29252663
78	0x3e1a734f	0.15083049
79	0xbd10c357	-0.03534254
80	0x3e666d0e	0.22502539
81	0xbd8a834d	-0.06763325
82	0xbc3bfc50	-0.01147373
83	0x3e69cb78	0.22831523
84	0xbdc3e415	-0.095649876
85	0xbe3e8b41	-0.18607809
86	0xbe137222	-0.14399007
87	0x3bde4782	0.0067834267
88	0x3e776823	0.24160819
89	0xbe1e67e1	-0.15469314
90	0xbe492a74	-0.19645101
91	0xbbeaa532	-0.007160806
92	0xbdfb89ae	-0.1228212
93	0xbe4e24bb	-0.20131199
94	0x3e0e3297	0.13886486
95	0x3e895cee	0.26828712
96	0x3e86c349	0.26320866
97	0xbd4a458f	-0.049382742
98	0xbe044f8d	-0.12920971
99	0x3e67cf2f	0.22637628
100	0xbe40f383	-0.18842892
101	0x3e109884	0.1412068
102	0xbe893aa6	-0.26802558
103	0xbbbdf780	-0.0057973266
104	0xbe562933	-0.20914154
105	0xbddd2ba1	-0.10799337
106	0xbaa39eb5	-0.0012483211
107	0x3dd91578	0.10599798
108	0xbde949c9	-0.113910265
109	0x3d8d173e	0.06889199
110	0xbe523708	-0.20528805
111	0x3e6154e7	0.22005044
112	0xbe6c4a88	-0.23075306
113	0xbe140564	-0.14455181
114	0xbde05338	-0.10953373
115	0x3e7a4a2d	0.24442358
116	0xbc0bfeb0	-0.008544609
117	0x3d56343f	0.05229592
118	0xbdd05cbe	-0.10173939
119	0x3c9d562d	0.01920613
120	0x3d597ff3	0.053100538
121	0x3d8f4553	0.069956444
122	0xbe239749	-0.1597568
123	0x3e3a45ba	0.18190661
124	0xbe40ee94	-0.1884101
125	0x3e1cba47	0.15305434
126	0x3e1e7fb5	0.15478404
127	0x3d4420c9	0.04788283
128	0xbdaa4c34	-0.08315316
129	0xbdf28199	-0.11841125
130	0xbd4d01f5	-0.050050694
131	0x3dde07d5	0.108413376
132	0x3d9536ea	0.07285865
133	0xbd9bab13	-0.07600989
134	0x3e008291	0.12549807
135	0xbd06d7e9	-0.03292075
136	0x3d508c98	0.05091533
137	0xbc23d84f	-0.010000302
138	0x3e1bfb00	0.15232468
139	0xbd33f8dd	-0.043938506
140	0xbe06d5d5	-0.13167508
141	0xbe523bee	-0.20530674
142	0x3e0aa498	0.1353935
143	0x3de878a6	0.11351137
144	0xbe34f729	-0.17672409
145	0x3e57844e	0.21046564
146	0xbe3f9fb5	-0.18713267
147	0xbe528394	-0.20558006
148	0x3d102561	0.035191897
149	0xbc621e37	-0.013801149
150	0x3e6e6fb7	0.23284803
151	0x3dcbafa0	0.09945607
152	0x3d98a0b4	0.07452527
153	0xbe13b1e2	-0.14423326
154	0xbdf2cbdd	-0.1185529
155	0x3e59526e	0.2122285
156	0x3d1d0043	0.038330328
157	0x3d9c4d7f	0.07631969
158	0x3d90e796	0.070754215
159	0x3da3e4f1	0.080026515
160	0x3e52e0e0	0.20593596
161	0xbd93650f	-0.0719701
162	0x3dd579e7	0.10423642
163	0x3d877cd9	0.0661561
164	0x3e0839d1	0.13303305
165	0x3e2e6e9f	0.17034386
166	0xbdac27de	-0.084060416
167	0x3d804614	0.06263366
168	0x3dc49ca9	0.09600193
169	0xbe2b0f51	-0.16705061
170	0x3dd57eac	0.10424551
171	0x3e38585a	0.18002453
172	0x3da7abe1	0.0818708
173	0x3d0fb730	0.03508681
174	0x3dd8c74b	0.10584887
175	0x3d176442	0.036960848
176	0xbe2781fb	-0.16358177
177	0x3e8111ec	0.25208986
178	0xbdb54807	-0.08851629
179	0xbe1f81cc	-0.15576857
180	0xbda0cd01	-0.078516014
181	0xbe72a97b	-0.23697464
182	0xbd5f2018	-0.054473966
183	0xbd81a6e5	-0.06330661
184	0x3dc6b13c	0.097017735
185	0xbe1761c8	-0.14783394
186	0xbdb185f1	-0.086681254
187	0x3e611190	0.21979356
188	0xbe05cae6	-0.13065681
189	0xbda52fb0	-0.08065736
190	0x3e424d96	0.18974909
191	0xbe2d6019	-0.1693119
192	0xbe2c6f60	-0.16839361
193	0xbdc30e0a	-0.09524162
194	0xbe0585a8	-0.13039267
195	0xbd66b076	-0.05632063
196	0x3e879f1d	0.2648858
197	0x3e3d61c9	0.18494333
198	0x3e801af5	0.25020567
199	0xbe341c9c	-0.17589039
200	0xbe3bbb20	-0.18333101
201	0xbe9a4e39	-0.30137804
202	0x3dd388c0	0.10328817
203	0xbe6311ab	-0.22174709
204	0x3c19395a	0.009352053
205	0x3dbfb502	0.093606964
206	0x3e839a54	0.2570368
207	0x3db41dbf	0.08794736
208	0x3e47a125	0.19495066
209	0x3ded90ce	0.11599885
210	0xbe1c502b	-0.15264957
211	0x3db33da9	0.08751995
212	0xbe7ea4bf	-0.24867533
213	0x3d854b74	0.06508532
214	0xbe0150fd	-0.12628551
215	0x3dd3f537	0.103495054
216	0xbe179f61	-0.14806892
217	0x3db9dd6e	0.090754375
218	0xbe57c9e8	-0.21073115
219	0xbe694303	-0.22779469
220	0x3e26e22a	0.16297212
221	0x3c57b5de	0.013165919
222	0x3e1b4323	0.1516233
223	0x3ea4e3f1	0.32205155
224	0x3da114d6	0.07865302
225	0xbd14e4de	-0.036351077
226	0xbe0a554c	-0.135091
227	0xbcbeb063	-0.023277467
228	0xbe1e4cc8	-0.15458977
229	0x3e31921e	0.17340896
230	0xbd24b7f7	-0.040214505
231	0xbd3f4a14	-0.046701506
232	0xbc94dc60	-0.01817149
233	0xbe4c4275	-0.19947226
234	0x3e5cb0d8	0.21551836
235	0xbe364bfe	-0.17802426
236	0x3dfdb2dd	0.12387631
237	0x3d7cdd46	0.06173446
238	0x3cf4a568	0.029864028
239	0x3da4e77e	0.08051966
240	0xbe182357	-0.14857231
241	0xbdc82bc0	-0.0977397
242	0xbc84efea	-0.016227681
243	0x3d96160b	0.07328423
244	0xbd3ea25d	-0.04654156
245	0xbe00f94f	-0.12595104
246	0x3e115f57	0.14196526
247	0xbe761880	-0.24032784
248	0xbe76cf84	-0.24102598
249	0x3b2bbc00	0.0026204586
250	0x3e4f7fca	0.20263591
251	0x3da41d7b	0.080134355
252	0x3d76fba0	0.060298562
253	0x3de2a861	0.11067272
254	0xbdda03cd	-0.10645256
255	0x3e43bf96	0.19116053

mlp.6.bias f4 [4]
0	0x3d86e661	0.0658691
1	0xbd246162	-0.040131934
2	0xbc951ab4	-0.01820121
3	0x3da4b84a	0.08042963
